10epoch.pt (torch, 208345 bytes, 100 tensors)

weight f4 [16, 3, 3, 3]
0.04488057 -0.07589121 0.042480912 -0.013747917 0.057728775 0.031457584 -0.014654928 -0.0014582725
-0.046207882 -0.013134105 0.046276804 0.075289935 0.03828273 0.0051197372 0.056023173 0.05735487
0.08485237 -0.008505194 0.024368474 -0.060399678 -0.06637445 -0.07108228 -0.019425377 0.06303067
0.07199136 0.06973277 0.0797965 -0.003184168 -0.00932996 0.017837733 -0.009464051 -0.012512698
-0.004181827 -0.009337246 -0.011861253 0.038129244 0.027994752 0.05213241 -0.009938717 0.03347072
0.008676903 0.008535987 0.006989805 0.009039866 0.02445678 -0.037299078 -0.008377829 -0.026752502
-0.018059446 -0.0039515207 -0.021966575 -0.016336953 -0.021994334 -0.037328377 -0.07747121 0.06438073
-0.049734578 0.067857616 0.041324243 -0.060725965 0.02560769 -0.035015382 -0.0109977955 0.0030056103
0.042532302 0.009222522 -0.03758407 -0.010544563 0.0029894016 0.018065374 -0.033921335 0.039251328
-0.04557042 -0.06040978 -0.0058798064 0.02431503 -0.052433565 -0.03672016 -0.006669045 0.00081436627
-0.044039078 -0.027441073 0.03448414 -0.02039553 0.06103745 -0.004987522 -0.029522477 0.0063220137
-0.0049893945 0.031315528 -0.014794255 -0.030925127 -0.0190436 -0.02052375 -0.025049785 -0.027565902
-0.026598388 -0.028870214 0.0028772147 -0.009881474 -0.021793693 0.023616502 -0.059060283 -0.0054799067
0.015035638 -0.009687603 0.008329749 5.33246e-06 -0.13691755 -0.11796522 -0.13900681 -0.09816921
0.051481277 -0.0843601 0.13025127 -0.13884452 0.010625003 0.014182374 -0.0031561104 0.04323354
-0.08047915 -0.04832287 0.024451632 0.10811423 -0.031026281 -0.0076424247 0.18051833 0.16151431
-0.1427275 0.05878575 0.16381101 0.072631 -0.022432605 0.02025372 0.09094511 0.12929656
0.00074734475 -0.0071677472 0.09265763 -0.008556504 0.047149617 -0.103429444 -0.012641293 0.0045465687
0.061028797 0.00168557 -0.03296719 -0.105801485 -0.11213892 0.05960882 -0.07206644 0.10452264
-0.072133 0.018417131 0.057328165 -0.09996953 -0.12257268 -0.03647237 -0.1076558 -0.054294057
-0.10367361 0.042042293 -0.05477109 0.079498276 0.059067063 0.0335095 -0.118481375 -0.06862464
-0.1254057 -0.1068259 0.12105237 0.012080214 0.07165929 -0.0877924 -0.059735414 -0.14034478
-0.06908961 0.08161587 -0.13949929 -0.058091152 0.052180804 0.10300461 0.11836021 -0.086084
0.08409389 -0.085751854 -0.0012262003 0.13309473 0.06304425 -0.022689754 -0.012480307 -0.006094901
-0.02094153 -0.0050284555 -0.033002492 -0.046612244 -0.016886437 0.034112807 -0.012760019 0.010079756
0.038188547 -0.00031505557 -0.01786911 -0.005637221 -0.019247755 0.025096305 0.04007941 -0.036362115
-0.006215551 -0.003600426 -0.036607925 -0.035043534 0.02519511 -0.04581746 -0.005767614 0.00570979
-0.06172814 -0.12355222 0.1592191 0.14554195 -0.08795044 0.017814133 -0.036273118 0.045333892
0.09362099 -0.0047176643 -0.118521154 -0.07417646 -0.057636704 -0.069115095 -0.17505512 -0.14390308
-0.12906727 0.06757694 0.08791708 0.045729697 0.09827077 -0.098520726 0.013653204 0.14087564
0.1471657 -0.026938055 -0.08639843 -0.03842855 -0.0019531308 0.001602947 -0.03545254 -0.009541788
-0.08454056 -0.029193562 -0.021828566 -0.04387579 0.025956973 -0.026038347 -0.028018743 0.039452784
00000000: b0d4 373d da6c 9bbd 7700 2e3d f13e 61bc
00000010: 0275 6c3d abd9 003d 391b 70bc 8123 bfba
00000020: 7a44 3dbd 6e30 57bc bf8c 3d3d 9c31 9a3d
00000030: 5ace 1c3d 78c3 a73b 8e78 653d f1ec 6a3d
00000040: 14c7 ad3d 5f59 0bbc 65a0 c73c a765 77bd
00000050: 54ef 87bd 9693 91bd f821 9fbc 3916 813d
00000060: 3570 933d 0ed0 8e3d 596c a33d 79ad 50bb
00000070: b0dc 18bc 7020 923c 1b0f 1bbc 0f02 4dbc
00000080: b507 89bb 40fb 18bc b355 42bc 692d 1c3d
00000090: 4055 e53c cb88 553d 00d6 22bc 9818 093d
000000a0: 9229 0e3c 86da 0b3c bc0a e53b f21b 143c
000000b0: 9659 c83c ebc6 18bd 2943 09bc 1028 dbbc
000000c0: 67f1 93bc c27b 81bb 3ff3 b3bc 13d5 85bc
000000d0: 762d b4bc a4e5 18bd 3aa9 9ebd 0bda 833d
000000e0: 7cb6 4bbd eff8 8a3d 9c43 293d cabb 78bd
000000f0: 38c7 d13c 4a6c 0fbd 1930 34bc c6f9 443b
00000100: 5a36 2e3d 101a 173c c1f1 19bd 1ac3 2cbc
00000110: d6e9 433b d6fd 933c 19f1 0abd 00c6 203d
00000120: 0ca8 3abd 3f70 77bd 64ab c0bb 5030 c73c
00000130: 94c4 56bd e167 16bd 0188 dabb 327b 553a
00000140: 5262 34bd 1acc e0bc 3e3f 0d3d 8714 a7bc
00000150: 6802 7a3d 5e6e a3bb 1fd9 f1bc e528 cf3b
00000160: 137e a3bb b644 003d 9a63 72bc b156 fdbc
00000170: 5301 9cbc 6c21 a8bc 3535 cdbc e3d1 e1bc
00000180: dde4 d9bc 3a81 ecbc a78f 3c3b e8e5 21bc
00000190: b088 b2bc 6577 c13c 32e9 71bd ca90 b3bb
000001a0: 0958 763c c1b8 1ebc 8079 083c 7ced b236
000001b0: 1d34 0cbe c097 f1bd cd57 0ebe f00c c9bd
000001c0: 08de 523d fdc4 acbd 9760 053e 422d 0ebe
000001d0: 7e14 2e3c 305d 683c bfd6 4ebb a715 313d
000001e0: 41d2 a4bd 34ee 45bd ca4e c83c fe6a dd3d
000001f0: d42a febc 4e6d fabb ccd9 383e 0264 253e
00000200: 2827 12be 54c9 703d 13be 273e 90bf 943d
00000210: 95c4 b7bc 21eb a53c 6e41 ba3d 5166 043e
00000220: 75e9 433a 6cdf eabb 49c3 bd3d 9430 0cbc
00000230: f51f 413d d1d2 d3bd 6d1d 4fbc 62fb 943b
00000240: 55f9 793d 58ee dc3a 9b08 07bd 73ae d8bd
00000250: 17a9 e5bd 6128 743d 9297 93bd f70f d63d
00000260: 77ba 93bd 86df 963c f0d0 6a3d d3bc ccbd
00000270: 6307 fbbd 0d64 15bd a57a dcbd 7263 5ebd
00000280: d452 d4bd 8a34 2c3d a757 60bd fecf a23d
00000290: 4ef0 713d 4241 093d 5da6 f2bd 138b 8cbd
000002a0: 5a6a 00be 8ac7 dabd 4eea f73d 17ec 453c
000002b0: 1bc2 923d 80cc b3bd 1fad 74bd 8bb6 0fbe
000002c0: da7e 8dbd 3926 a73d e7d8 0ebe fdf0 6dbd
000002d0: 8abb 553d 15f4 d23d d666 f23d cf4c b0bd
000002e0: 6b39 ac3d ab9e afbd 74b8 a0ba fc49 083e
000002f0: 581d 813d dddf b9bc 347a 4cbc bcb7 c7bb
00000300: 928d abbc bec5 a4bb 9f2d 07bd 7bec 3ebd
00000310: 6d55 8abc dfb9 0b3d 660f 51bc 9025 253c
00000320: 986b 1c3d 0b2e a5b9 3d62 92bc 70b8 b8bb
00000330: 78ad 9dbc c496 cd3c 4f2a 243d 71f0 14bd
00000340: d2ab cbbb 20f5 6bbb 31f2 15bd cf89 0fbd
00000350: fa65 ce3c 17ab 3bbd 41fe bcbb 3119 bb3b
00000360: a5d6 7cbd f208 fdbd 550a 233e f308 153e
00000370: 5c1f b4bd f2ee 913c 1f93 14bd 08b0 393d
00000380: 5dbc bf3d a396 9abb 38bb f2bd d4e9 97bd
00000390: 7714 6cbd 378c 8dbd a641 33be 545b 13be
000003a0: 362a 04be c765 8a3d df0d b43d 104f 3b3d
000003b0: 2f42 c93d 3cc5 c9bd b0b1 5f3c b441 103e
000003c0: 9bb2 163e 32ad dcbc a9f1 b0bd 4167 1dbd
000003d0: 1900 00bb fa19 d23a af36 11bd 2955 1cbc
000003e0: 9a23 adbd 5627 efbc d2d1 b2bc 1ab7 33bd
000003f0: b8a3 d43c 5f4e d5bc 9087 e5bc 3e99 213d

bias f4 [16]
-1.0679161e-06 -8.600919e-08 8.762867e-07 -7.5272584e-07 -1.7226918e-06 9.567668e-08 -2.4002367e-07 2.1127341e-06
-1.9755516e-05 -1.2005194e-07 -5.738216e-08 -1.6144373e-06 -2.1816153e-07 -1.3909727e-05 -6.668675e-07 8.987531e-07
00000000: 5155 8fb5 0db4 b8b3 f739 6b35 ed0e 4ab5
00000010: 3d37 e7b5 d076 cd33 9adc 80b4 7fc8 0d36
00000020: a6b8 a5b7 a0e7 00b4 5a74 76b3 a5af d8b5
00000030: c93f 6ab4 d35d 69b7 c902 33b5 d841 7135

weight f4 [16]
0.88454086 0.67098266 0.6433597 0.7952102 0.67218566 0.6072257 0.7251595 0.7764715
0.5512948 0.79218423 0.63868517 0.81169415 0.6885791 0.70023865 0.656082 0.82390887
00000000: 4571 623f 85c5 2b3f 39b3 243f e592 4b3f
00000010: 5c14 2c3f 2573 1b3f 0ea4 393f d6c6 463f
00000020: a821 0d3f 96cc 4a3f df80 233f 30cb 4f3f
00000030: b846 303f d742 333f fdf4 273f b1eb 523f

bias f4 [16]
-0.04459286 -0.016904486 0.0024534704 0.039405182 -1.0451323e-05 0.03069085 -0.025367318 0.0145520605
0.0057015074 0.02821975 -0.04006452 -0.06092912 -0.034804676 -0.014288156 -0.011194093 -0.045453057
00000000: 01a7 36bd 477b 8abc 67ca 203b 5467 213d
00000010: 1758 2fb7 616b fb3c 1fcf cfbc c46b 6e3c
00000020: b6d3 ba3b 1b2d e73c b21a 24bd d090 79bd
00000030: 598f 0ebd df18 6abc 6e67 37bc fc2c 3abd

running_mean f4 [16]
0.21777217 -0.050245628 -0.09600083 -0.10850653 0.018669086 -0.21567948 -0.10662037 -0.10151268
-0.11176718 -0.14751905 0.05879354 0.16159618 -0.027123107 0.066070005 -0.06390388 0.092441715
00000000: abff 5e3e 5cce 4dbd 159c c4bd ac38 debd
00000010: e9ef 983c 15db 5cbe c85b dabd e1e5 cfbd
00000020: 31e6 e4bd 3c0f 17be 7fd1 703d 7879 253e
00000030: 4731 debc b64f 873d 0ae0 82bd 1552 bd3d

running_var f4 [16]
0.013344661 0.0008887117 0.0030430725 0.003341583 0.0021991918 0.015143388 0.0032140962 0.0031002713
0.00391265 0.005886077 0.0020637074 0.007708506 0.0021289068 0.0034483687 0.002647959 0.0031794026
00000000: 91a3 5a3c 6ff8 683a 496e 473b 76fe 5a3b
00000010: 5120 103b f91b 783c 96a3 523b ec2d 4b3b
00000020: b035 803b fedf c03b 443f 073b a397 fc3b
00000030: 2185 0b3b 07fe 613b 6189 2d3b 865d 503b

weight f4 [16, 16, 3, 3]
-0.024959002 0.01185188 -0.005103822 -0.022233447 -0.030625978 -0.025493823 0.015329075 -0.014815372
-0.028735932 -0.03506761 0.0032513498 -0.03510193 -0.01016493 0.0235502 -0.04366286 -0.0072054765
-0.016478105 -0.024111144 -0.037817296 0.0061767865 -0.018750064 -0.0053256913 -0.024210757 -0.024366247
-0.005089692 -0.026389103 -0.012088591 0.027661454 0.023241805 -0.037340704 0.03457798 0.007090614
0.024869379 0.0047282563 0.019369954 0.026822535 -0.031514768 -0.014044979 -0.026842507 -0.055252768
-0.009726663 -0.005248197 0.03076072 -0.0120450705 -0.0069076745 0.03350195 0.03539734 0.03050874
-0.01931654 0.026341869 -0.023802632 0.00058645493 0.021663954 0.030490788 0.016058918 -0.035432555
-0.0076535204 0.022627914 -0.019837972 -0.0019482947 0.0018755287 0.010761619 -0.02910057 -0.03847059
-0.0029027727 0.0044083814 -0.02909379 -0.0035773802 -0.0196606 -0.02392475 -0.04661327 -0.013070034
0.04036522 0.039770156 -0.011483055 0.043151047 -0.011543797 0.036377016 -0.007082404 0.036108114
0.025008963 0.005414994 -0.039127972 -0.0076639233 0.005353344 -0.04660718 -0.009080779 -0.03799968
-0.04642186 -0.0032850548 -0.0116749285 -0.015352983 -0.010915568 0.016353356 -0.017063903 0.029642535
-0.008176895 -0.0044508046 0.03778826 -0.02464372 -0.029602876 -0.010091895 -0.033455517 -0.015067875
-0.0101593295 -0.018722888 -0.010070349 0.035423342 -0.020982297 0.021089107 -0.004461289 -0.015206732
-0.0037975628 0.03811494 0.0035656309 0.012520129 -0.016735403 0.015325601 -0.014737324 0.0054445593
0.0018913735 0.029164702 0.019509958 0.034847263 0.013352568 -0.0070066825 4.286222e-05 -0.0027502629
0.02211234 0.010776264 0.015634378 0.030246828 -0.0009971017 0.035399992 0.025174644 0.0117544895
-0.017540902 0.008851976 -0.02802357 -0.01143654 -0.02751742 -0.0029248148 0.010340439 -0.013366729
0.029574007 0.046034593 -0.02840013 0.010600095 0.06874627 0.06152279 0.01609594 0.046591815
-0.021031253 -0.05104864 -0.047800772 -0.0043182555 -0.043139845 0.018125668 -0.036674693 -0.031454366
-0.01941481 0.028280854 -0.0105234925 -0.0069613736 -0.041794054 0.010833612 3.314505e-05 -0.026591044
0.029085543 0.025001744 0.012667593 -0.03442562 0.023620935 0.031293184 -0.01641266 0.006153965
-0.010901274 0.0021173428 0.014753924 -0.021813238 -0.017549938 -0.019501923 -0.041130792 -0.026967809
-0.008125923 -0.055573735 -0.025061237 0.0014181648 -0.04129084 0.029274197 -0.010997595 -0.0020741024
-0.015805533 0.014741648 -0.02221496 0.018958353 -0.023211706 0.009954455 -0.0006547913 -0.018151522
0.005326576 0.008905808 -0.05295944 -0.008264627 -0.025960095 -0.026772281 -0.032435738 0.004540587
-0.033123672 0.02142815 0.02696406 0.036736604 -0.021625724 -0.031892575 0.024287142 0.010739522
0.010655736 -0.031331338 0.025982846 -0.026446449 0.0040384694 -0.048886646 0.0016673463 -0.033545963
0.015220985 -0.026226684 0.022095533 -0.029933004 0.01482224 0.018690687 0.02912402 -0.008633837
0.023247473 0.022114424 -0.0031145192 0.00016278992 0.010058811 0.038695876 0.033801787 0.0040792134
0.03247513 -0.0046381075 0.009363128 -0.029634876 0.051225312 -0.009623942 0.015826678 0.033756003
0.06424661 0.02405431 0.015949441 0.061557334 0.016053973 0.02035665 -0.017128529 -0.0059045698
00000000: d276 ccbc 632e 423c f63d a7bb eb22 b6bc
00000010: 55e3 fabc 6cd8 d0bc cd26 7b3c 2dbc 72bc
00000020: 9e67 ebbc 0ea3 0fbd 9914 553b 0bc7 0fbd
00000030: ce8a 26bc 59ec c03c d4d7 32bd eb1b ecbb
00000040: 17fd 86bc bc84 c5bc 4fe6 1abd a466 ca3b
00000050: bc99 99bc 2383 aebb a355 c6bc b99b c7bc
00000060: 6ec7 a6bb f62d d8bc 3a0f 46bc 469a e23c
00000070: 9965 be3c 91f2 18bd a4a1 0d3d 6258 e83b
00000080: deba cb3c 7def 9a3b bdad 9e3c efba db3c
00000090: a115 01bd e91c 66bc d1e4 dbbc ba50 62bd
000000a0: 955c 1fbc 11f9 abbb e8fd fb3c b058 45bc
000000b0: c659 e2bb 5739 093d cdfc 103d 77ed f93c
000000c0: b83d 9ebc e7ca d73c bdfd c2bc 53bc 193a
000000d0: 9b78 b13c d1c7 f93c fe8d 833c ba21 11bd
000000e0: 62ca fabb 2d5e b93c 3e83 a2bc ec5d ffba
000000f0: 4dd4 f53a 8051 303c 5264 eebc 5693 1dbd
00000100: 723c 3ebb 2f74 903b 1a56 eebc 7b72 6abb
00000110: 440f a1bc d6fd c3bc 8eed 3ebd b223 56bc
00000120: 0056 253d 08e6 223d 6c23 3cbc 27bf 303d
00000130: 3222 3dbc 1100 153d 8313 e8bb 1ae6 133d
00000140: 99df cc3c 4370 b13b a744 20bd a621 fbbb
00000150: 1b6b af3b 2ce7 3ebd 8cc7 14bc 8da5 1bbd
00000160: d924 3ebd 134a 57bb 3348 3fbc 148b 7bbc
00000170: 36d7 32bc 79f7 853c 99c9 8bbc e7d4 f23c
00000180: 62f8 05bc 0ed8 91bb ddc7 1a3d a0e1 c9bc
00000190: bb81 f2bc 7a58 25bc a708 09bd 40df 76bc
000001a0: 5173 26bc be60 99bc 1bfe 24bc 1118 113d
000001b0: 11e3 abbc 10c3 ac3c 0130 92bb a825 79bc
000001c0: 88e0 78bb 691e 1c3d 5cad 693b 3a21 4d3c
000001d0: af18 89bc 3b18 7b3c d174 71bc 4668 b23b
000001e0: f7e7 f73a d0ea ee3c 59d3 9f3c 01bc 0e3d
000001f0: bbc4 5a3c 5098 e5bb f5c6 3338 c13d 34bb
00000200: f024 b53c ed8e 303c ab13 803c 32c8 f73c
00000210: 2eb1 82ba 95ff 103d 0e3b ce3c e795 403c
00000220: f0b1 8fbc e107 113c b091 e5bc 5360 3bbc
00000230: 366c e1bc 40ae 3fbb f26a 293c 2000 5bbc
00000240: 3045 f23c c58e 3c3d 64a7 e8bc 05ac 2d3c
00000250: d8ca 8c3d 52ff 7b3d a2db 833c 0fd7 3e3d
00000260: bc49 acbc 6118 51bd beca 43bd 2780 8dbb
00000270: 68b3 30bd 487c 943c 3438 16bd 4bd6 00bd
00000280: cf0b 9fbc 40ad e73c ba6a 2cbc 3c1c e4bb
00000290: 3e30 2bbd 767f 313c 3a05 0b38 76d5 d9bc
000002a0: ce44 ee3c 75d0 cc3c bc8b 4f3c e101 0dbd
000002b0: b180 c13c 482d 003d d873 86bc 33a7 c93b
000002c0: 429b 32bc 1ec3 0a3b 71ba 713c adb1 b2bc
000002d0: e3c4 8fbc 7fc2 9fbc c378 28bd 98eb dcbc
000002e0: 9722 05bc 49a1 63bd 394d cdbc b7e1 b93a
000002f0: 9520 29bd 71d0 ef3c 422f 34bc aaed 07bb
00000300: 9b7a 81bc f486 713c 26fc b5bc 8c4e 9b3c
00000310: 7a26 bebc 0318 233c 4da6 2bba 80b2 94bc
00000320: 8f8a ae3b abe9 113c ffeb 58bd 5c68 07bc
00000330: 44aa d4bc 8b51 dbbc 56db 04bd 34c9 943b
00000340: b0ac 07bd 168a af3c bbe3 dc3c 1f79 163d
00000350: 6e28 b1bc caa1 02bd d4f5 c63c d2f4 2f3c
00000360: 6595 2e3c 4a55 00bd fad9 d43c 39a6 d8bc
00000370: 2355 843b 5d3d 48bd dc8a da3a 7e67 09bd
00000380: 7061 793c 58d9 d6bc b101 b53c 0f36 f5bc
00000390: fbd8 723c 361d 993c 7f95 ee3c f074 0dbc
000003a0: 7c71 be3c 4f29 b53c f61c 4cbb 96b2 2a39
000003b0: b6cd 243c 917f 1e3d be73 0a3d ecaa 853b
000003c0: a404 053d 44fb 97bb ce67 193c d7c4 f2bc
000003d0: a2d1 513d bdad 1dbc f3a6 813c bc43 0a3d
000003e0: ba93 833d 8b0d c53c 67a8 823c 8b23 7c3d
000003f0: 9f83 833c fdc2 a63c 2151 8cbc 1f7b c1bb

bias f4 [16]
1.10862004e-07 -9.700795e-08 -1.38138425e-08 3.3534326e-07 1.300656e-09 7.5856547e-06 -1.3544927e-07 -1.0185188e-07
1.1922349e-07 1.2492393e-07 -3.020227e-08 -1.7243526e-07 2.4071209e-08 1.8474564e-08 -4.3648873e-07 -8.3026556e-08
00000000: 0813 ee33 af52 d0b3 ec51 6db2 3a09 b434
00000010: c4c2 b230 4788 fe36 0370 11b4 aab9 dab3
00000020: e703 0034 d422 0634 bfb7 01b3 a526 39b4
00000030: 26c5 ce32 ffb1 9e32 8e56 eab4 554c b2b3

weight f4 [16]
0.5994547 0.67792886 0.71603745 0.7196275 0.6060111 0.6205672 0.8258741 0.621156
0.72881037 0.747227 0.57719564 0.6191739 0.6391764 0.7225789 0.70866024 0.60647655
00000000: dd75 193f bf8c 2d3f 3b4e 373f 8239 383f
00000010: 8b23 1b3f 7edd 1e3f 7c6c 533f 1404 1f3f
00000020: 5193 3a3f 454a 3f3f 18c3 133f 2e82 1e3f
00000030: 11a1 233f eefa 383f c26a 353f 0c42 1b3f

bias f4 [16]
-0.023256175 -0.04764302 -0.03541339 -0.03291139 -0.028105747 -0.014545345 -0.03643803 -0.014031798
0.042195223 -0.10317753 -0.020137025 -0.005888011 0.013340405 0.006244779 -0.004011099 0.0005164328
00000000: bc83 bebc 5425 43bd a10d 11bd 18ce 06bd
00000010: 063e e6bc 994f 6ebc 0b40 15bd a0e5 65bc
00000020: e6d4 2c3d be4e d3bd 67f6 a4bc 37f0 c0bb
00000030: b791 5a3c 01a1 cc3b 8a6f 83bb 3861 073a

running_mean f4 [16]
-0.09218207 0.045828313 0.13845171 0.2504784 0.18512118 0.29407603 0.4399969 -0.13391475
-0.042877793 0.35805982 0.011970868 -0.35337874 -0.4404378 -0.0867093 -0.27720478 -0.15400665
00000000: f4c9 bcbd 78b6 3b3d 49c6 0d3e b43e 803e
00000010: 6890 3d3e 2291 963e 4647 e13e f320 09be
00000020: a0a0 2fbd 9e53 b73e 7621 443c 0fee b4be
00000030: 1081 e1be a594 b1bd c9ed 8dbe ebb3 1dbe

running_var f4 [16]
0.040256117 0.15044355 0.1310848 0.11092553 0.046443306 0.05384379 0.09182459 0.051473424
0.15755199 0.11434188 0.017972397 0.11143732 0.10873106 0.19065814 0.15952978 0.052198347
00000000: 99e3 243d e00d 1a3e 183b 063e ed2c e33d
00000010: 563b 3e3d 4e8b 5c3d 880e bc3d ccd5 523d
00000020: 4f55 213e 132c ea3d d93a 933c 4039 e43d
00000030: 64ae de3d e33b 433e c65b 233e efcd 553d

weight f4 [16, 16, 3, 3]
-0.026405968 -0.044099953 -0.03858609 -0.023248734 -0.0052148583 0.045184713 -0.0307007 0.03770684
0.021029256 0.04635875 0.007111306 0.016953155 -0.033037677 -0.048165813 -0.04195678 0.03634977
0.037928246 0.04990841 -0.042177312 -0.057515573 0.0058500255 -0.04847174 -0.01696117 0.010263513
0.042671937 -0.047590744 0.009946376 0.05152243 0.02200141 -0.057697468 0.066449456 0.06569293
-0.04166675 0.0645493 0.038785886 -0.056142483 -0.020571904 0.032506194 0.019829007 -0.044332903
0.036817633 0.018346695 -0.033324253 0.03997765 0.0073988712 0.003508932 -0.042173006 0.019538071
0.015332976 0.03115909 -0.017046658 0.040525824 0.05259523 0.065156564 -0.0430428 0.017813515
-0.01059487 -0.004096508 0.00034912146 0.043985274 0.03170672 0.020932132 -0.022238245 0.01054349
-0.01239496 0.022332996 0.010167818 0.044619057 0.069541216 0.024902364 -0.016828245 0.01660698
0.023775864 0.02953989 -0.003706912 0.04538182 -0.0077915564 -0.031008549 -0.029094888 0.0037212248
-0.0345322 -0.035250925 -0.03735662 -0.03827836 0.014000615 0.042967718 -0.037462633 0.024517216
0.047171757 -0.02125275 0.02774732 -0.02730773 -0.01832011 0.057883456 0.06711562 0.075397015
-0.03479491 0.02808128 -0.02200961 -0.027348982 0.03652537 0.01782104 -0.016951371 -0.04199616
0.016730526 -0.026374446 -0.011989681 0.029151078 -0.042859234 -0.03645658 -0.02441999 0.028134288
0.0058669695 0.0009994309 -0.02474577 -0.018282598 0.014330462 -0.042586125 -0.015814286 0.022434784
-0.03379434 -0.0073168697 -0.036260743 -0.02536036 0.0367017 0.050368406 -0.004654199 -0.0029430063
0.018835193 0.011615741 -0.0047440506 0.027714942 0.051576886 0.003938585 -0.030082604 -0.0025134012
-0.010903838 0.005748155 0.006387129 -0.048782893 -0.008963241 -0.031087806 -0.011576896 -0.006796901
-0.00011567159 -0.0367709 0.0043476075 -0.013626353 0.0048886393 -0.009949964 0.014167868 -0.030208882
-0.0118271755 -0.00431349 -0.018240966 0.0049126777 0.034635246 0.029540464 0.006331231 0.01941647
0.016585793 0.008867294 -0.015306021 -0.0067890794 0.009469817 0.033245903 -0.023585817 -0.014465067
-0.043793056 -0.02721864 0.015409904 -0.056209303 0.0151429875 -0.0028808857 -0.011310567 -0.040745355
-0.026630273 -0.05950887 0.025353564 0.000328941 0.034284286 -0.010032981 0.005021388 -0.019206395
0.0059915166 -0.021783222 0.027794972 0.025682265 0.026878584 -0.0062890663 0.0068827923 0.019073093
-0.014210913 -0.025725061 0.024036083 0.02635363 -0.01609576 0.034043927 -0.040311564 -0.054115213
-0.03303005 0.02033032 -0.052496523 -0.0102721285 -0.0035583728 -0.058378432 -0.02655162 0.0120170275
0.006604028 -0.012577936 -0.011958959 0.012594874 -0.013984933 0.021610541 0.010009106 0.021170402
0.002264656 -0.033925004 0.0050081103 -0.00722305 -0.012273322 -0.011542748 -0.023157632 -0.02604087
-0.013026849 -0.013220156 -0.019493394 0.03653537 0.011033739 -0.016987316 -0.008987924 -0.04971966
0.00019763663 0.00891478 -0.020144077 -0.03243447 -0.0015162398 -0.0037195447 0.00023218451 -0.032955866
-0.02811241 -0.020327369 -0.020377006 0.019298218 -0.00940229 0.009175658 -0.014682698 0.0347084
-0.038178958 -0.00079274335 -0.0033013439 -0.021202825 -0.016199907 0.0022551387 0.029201414 -0.0010551942
00000000: 5451 d8bc 27a2 34bd 730c 1ebd 2174 bebc
00000010: 67e1 aabb 9b13 393d 0980 fbbc 7d72 1a3d
00000020: 8c45 ac3c ace2 3d3d f505 e93b 58e1 8a3c
00000030: 8452 07bd 8449 45bd dfda 2bbd 7fe3 143d
00000040: a65a 1b3d c36c 4c3d 1ec2 2cbd 7395 6bbd
00000050: 92b1 bf3b 4e8a 46bd 27f2 8abc 4b28 283c
00000060: c5c8 2e3d 83ee 42bd 20f6 223c 2f09 533d
00000070: 4d3c b43c 2e54 6cbd a716 883d 048a 863d
00000080: c1aa 2abd 6c32 843d f3dd 1e3d a9f5 65bd
00000090: 6986 a8bc 3725 053d 7170 a23c 6b96 35bd
000000a0: 16ce 163d cf4b 963c 037f 08bd 9bbf 233d
000000b0: 3b72 f23b 1cf6 653b 9abd 2cbd 4e0e a03c
000000c0: 2a37 7b3c 5941 ff3c 6fa5 8bbc 68fe 253d
000000d0: 196e 573d ce70 853d a64d 30bd a6ed 913c
000000e0: 1b96 2dbc 003c 86bb 4a0a b739 e729 343d
000000f0: e8de 013d dd79 ab3c fb2c b6bc 9abe 2c3c
00000100: 3b14 4bbc b0f3 b63c eb96 263c 79c2 363d
00000110: a06b 8e3d 0b00 cc3c 63db 89bc 5c0b 883c
00000120: 9ac5 c23c a4fd f13c aaef 72bb 4ae2 393d
00000130: 5050 ffbb a405 febc 6758 eebc cbdf 733b
00000140: a371 0dbd 4663 10bd 4103 19bd c5c9 1cbd
00000150: d662 653c ebfe 2f3d 6b72 19bd 54d8 c83c
00000160: 2c37 413d 3f1a aebc 594e e33c 76b4 dfbc
00000170: 0e14 96bc 3417 6d3d ea73 893d c069 9a3d
00000180: 1c85 0ebd b60a e63c 7f4d b4bc f90a e0bc
00000190: a09b 153d 6efd 913c 9add 8abc 2a04 2cbd
000001a0: 750e 893c 390f d8bc 5e70 44bc 3ece ee3c
000001b0: 2a8d 2fbd 7f53 15bd 6e0c c8bc e179 e63c
000001c0: b53f c03b 56ff 823a a4b7 cabc 63c5 95bc
000001d0: 50ca 6a3c ca6e 2ebd f68c 81bc 27c9 b73c
000001e0: ef6b 0abd 5ac2 efbb 2586 14bd 88c0 cfbc
000001f0: 8654 163d 1a4f 4e3d 4082 98bb 74df 40bb
00000200: 434c 9a3c f34f 3e3c fb73 9bbb 720a e33c
00000210: 4942 533d 3f0f 813b cb6f f6bc e0b7 24bb
00000220: 03a6 32bc 055b bc3b 1f4b d13b 92d0 47bd
00000230: 8fda 12bc dbab febc 05ad 3dbc 8ab8 debb
00000240: b694 f2b8 159d 16bd 6076 8e3b 1141 5fbc
00000250: e130 a03b 2c05 23bc 5820 683c 9e78 f7bc
00000260: c5c6 41bc 2d58 8dbb 146e 95bc 87fa a03b
00000270: b0dd 0d3d d8fe f13c 3776 cf3b 4a0f 9f3c
00000280: eede 873c 2048 113c 1bc6 7abc ed76 debb
00000290: 4b27 1b3c db2c 083d 0b37 c1bc e3fe 6cbc
000002a0: 5960 33bd a0f9 debc d279 7c3c ba3b 66bd
000002b0: 4b1a 783c 3ecd 3cbb f54f 39bc 9ae4 26bd
000002c0: bb27 dabc 93bf 73bd 47b2 cf3c b775 ac39
000002d0: ae6d 0c3d 5f61 24bc 758a a43b bb56 9dbc
000002e0: 7c54 c43b ba72 b2bc 48b2 e33c 9d63 d23c
000002f0: 7a30 dc3c 8314 cebb 0c89 e13b 2d3f 9c3c
00000300: e4d4 68bc 5dbd d2bc 52e7 c43c 91e3 d73c
00000310: 41db 83bc a571 0b3d bd1d 25bd eaa7 5dbd
00000320: 854a 07bd c58b a63c 9806 57bd 6e4c 28bc
00000330: 9733 69bb 391e 6fbd c882 d9bc 11e3 443c
00000340: 9a66 d83b b013 4ebc 82ef 43bc bb5a 4e3c
00000350: 0f21 65bc 9708 b13c 3cfd 233c 8d6d ad3c
00000360: 9f6a 143b f2f4 0abd 131b a43b 56af ecbb
00000370: 0b16 49bc cb1d 3dbc 13b5 bdbc aa53 d5bc
00000380: 916e 55bc 5a99 58bc 9cb0 9fbc 1da6 153d
00000390: dbc6 343c fc28 8bbc 1642 13bc d8a6 4bbd
000003a0: ae3c 4f39 4c0f 123c 3105 a5bc 02da 04bd
000003b0: 91bc c6ba 9bc3 73bb 8e76 7339 bbfc 06bd
000003c0: ff4b e6bc 9585 a6bc aeed a6bc 4c17 9e3c
000003d0: 100c 1abc 8055 163c b38f 70bc 652a 0e3d
000003e0: 8a61 1cbd 1bd0 4fba 5c5b 58bb 8cb1 adbc
000003f0: abb5 84bc f3ca 133b ce37 ef3c 714e 8aba

bias f4 [16]
3.6292835e-08 1.0238019e-06 -4.9091046e-08 -1.5231177e-07 5.8329338e-08 6.838108e-09 -5.133282e-08 1.08681505e-07
1.1911019e-07 1.7783742e-08 2.1170236e-07 4.997773e-08 4.148409e-08 -1.8293964e-07 1.2507256e-08 -5.3771606e-07
00000000: 65e0 1b33 9169 8935 2dd8 52b3 248b 23b4
00000010: c985 7a33 a2f4 ea31 0879 5cb3 4a64 e933
00000020: 85c9 ff33 ddc2 9832 4d50 6334 18a7 5633
00000030: 3d2c 3233 116e 44b4 7edf 5632 9157 10b5

weight f4 [16]
0.56704056 0.5807125 0.5087615 0.56158733 0.63173 0.5568528 0.6022102 0.5881729
0.58903044 0.5504728 0.6022523 0.6063276 0.52130526 0.5232153 0.520794 0.60597706
00000000: 9229 113f 93a9 143f 323e 023f 30c4 0f3f
00000010: 0fb9 213f e88d 0e3f 732a 1a3f 8092 163f
00000020: b3ca 163f c9eb 0c3f 352d 1a3f 4938 1b3f
00000030: 4374 053f 70f1 053f c152 053f 5021 1b3f

bias f4 [16]
-0.027146269 -0.0042835735 0.024069162 -0.04201729 -0.012034772 -0.031940416 -0.027374411 -0.025100213
-0.038736366 -0.013257573 -0.06280061 -0.00027291797 -0.01676275 0.012770493 -0.010266737 0.013874491
00000000: da61 debc 385d 8cbb b12c c53c 521a 2cbd
00000010: 7e2d 45bc f4d3 02bd 4d40 e0bc f69e cdbc
00000020: 06aa 1ebd 4b36 59bc 9b9d 80bd 6e16 8fb9
00000030: 0952 89bc 543b 513c d135 28bc d551 633c

running_mean f4 [16]
0.053729355 -0.1130828 -0.12375348 0.071618356 0.02143995 0.05033273 0.29202712 0.04679545
0.06442831 -0.011027801 0.16163635 0.014303929 0.13508037 -0.12509654 -0.07290504 -0.027807925
00000000: 5013 5c3d f497 e7bd 7772 fdbd a5ac 923d
00000010: d6a2 af3c b129 4e3d 9484 953e 96ac 3f3d
00000020: fdf2 833d f3ad 34bc 0084 253e 075b 6a3c
00000030: 8252 0a3e 4f19 00be 3d4f 95bd 72cd e3bc

running_var f4 [16]
0.02298194 0.075567804 0.09210996 0.07815116 0.117939815 0.044929616 0.16363612 0.07754177
0.12629288 0.020622173 0.21902046 0.021154953 0.09528663 0.088253066 0.01853189 0.13368891
00000000: 9f44 bc3c 4bc3 9a3d 26a4 bc3d b70d a03d
00000010: 6e8a f13d 1e08 383d 3a90 273e 38ce 9e3d
00000020: ec52 013e d5ef a83c e646 603e 274d ad3c
00000030: a325 c33d 06be b43d 31d0 973c bfe5 083e

weight f4 [16, 16, 3, 3]
-0.018059446 -0.017776735 0.0008580404 0.02024725 -0.008776408 0.030683361 -0.015463439 -0.020631643
-0.015006759 -0.0036672682 -0.004736887 -0.0056834924 -0.006994527 0.015021776 -0.031466894 4.6122448e-05
0.002597048 0.023824293 0.0029968244 0.0055955094 -0.018442625 0.008102666 0.0008581015 0.016216252
-0.011461524 0.016884673 0.0009910788 -0.014200706 -0.026160149 -0.013162069 -0.0016489162 -0.0018545159
0.0136044035 -0.0074891513 -0.010146857 -0.0095893135 -0.008543047 0.007199 -0.013377801 0.00046182747
-0.017164908 -0.011692276 0.015500244 0.029580696 -0.020876024 -0.0027110518 -0.0072049173 -0.013339679
0.00665435 -0.013316794 -0.01450873 -0.0077607846 -0.0054022563 -0.006017048 -0.012359356 -0.03448329
-0.017147165 -0.01738582 -0.016521329 -0.018778801 -0.012122485 -0.014135576 0.008705229 0.014243713
0.0023202389 -0.0013978352 0.020509843 0.006001831 -0.0042112805 -0.020300731 -0.007122147 0.0015342681
-0.012995076 -0.013289564 -0.022990197 -0.012392368 -0.02251105 -0.008014453 -0.011418397 -0.0099730585
-0.01730581 -0.0013133041 -0.0050559985 0.015751941 0.021959368 -0.0017208926 0.012172729 0.002264477
0.0067054005 0.027966477 -0.019167336 -0.027008012 0.016354999 -0.026772536 0.001152017 -0.00035449117
-0.0048005977 -0.0027724586 -0.008428463 0.021110686 0.01813116 0.018761333 0.008586223 -0.018061375
-0.0035310662 0.0069490694 0.016378092 0.0062019615 -0.0045070564 -0.007989249 -0.009758757 -0.012526927
0.01364175 -0.008753412 -0.008518191 -0.012323264 -0.0013952146 -0.009896116 -0.011263343 -0.010215236
-0.0070952354 -0.002401239 -0.025797486 -0.026783694 -0.029812645 -0.0033210963 -0.014206586 0.016458467
-0.015225151 0.0080160685 0.01765068 -0.018145543 0.0136158895 0.0001697721 0.022937922 -0.007569907
-0.021711757 -0.011750038 -0.0153905535 -0.009823795 -0.016015053 -0.008457412 0.0051199286 -0.015991986
0.0012429077 0.01066942 0.020908855 0.00041284546 -0.007243467 0.037937067 0.016219676 -0.017562151
-0.012374178 -0.0026835608 0.019796358 0.016745884 -0.01281061 -0.01373107 -0.008391975 0.0032960197
-0.011837159 -0.015428057 -0.0030850712 -0.022594137 -0.0070667327 0.0067011914 0.006799836 -0.0016941793
-0.025173323 0.0013696102 -0.02103597 -0.023474911 -0.009244696 -0.019423766 0.011305591 -0.017398123
-0.010338524 -0.011459573 0.0007702662 -0.0079986965 0.025025105 -0.02187856 -0.013413976 0.014548426
0.024104064 0.021613643 0.028074853 0.05592016 0.028302744 -0.014367653 -0.0143854655 -0.021632958
-0.008743572 0.015452701 -0.028058467 0.008210797 -0.012175376 -0.017054971 0.018917385 -0.015200374
0.016668493 0.02234593 0.011949482 -0.030842941 0.018648779 -0.030343177 0.0334369 0.00228649
0.0102820955 0.012831864 0.010027466 0.05628537 0.0014699586 -0.0056626434 0.027525064 -0.012646071
-0.01616157 -0.0053319917 -0.012870082 -0.0011011254 0.012159583 0.0035614492 -0.024975426 -0.008234904
-0.0015408644 -0.010495503 -0.028105287 -0.015536845 0.022126181 0.007969155 0.017360613 -0.0066068936
-0.01598959 0.019578513 -0.0031363596 0.00827073 0.022247206 0.0100428285 0.019160897 -0.004952749
0.026445994 0.031220876 0.03393378 0.03780539 0.014808876 0.0066786706 -0.004663038 -0.019874906
-0.015486594 -0.015004795 0.015316654 0.0033180993 -0.006615656 -0.0006294983 -0.009895373 0.006134704
00000000: 67f1 93bc 84a0 91bc 1eee 603a 90dd a53c
00000010: ecca 0fbc ac5b fb3c 5d5a 7dbc b103 a9bc
00000020: e9de 75bc 8d56 70bb e337 9bbb 973c babb
00000030: 5832 e5bb e51d 763c 6ee3 00bd 9a73 4138
00000040: 3c33 2a3b 2a2b c33c 5f66 443b 895a b73b
00000050: fd14 97bc 0bc1 043c 38f2 603a f2d7 843c
00000060: 1ec9 3bbc ba51 8a3c 16e7 813a 14aa 68bc
00000070: cf4d d6bc b8a5 57bc 7220 d8ba 3a13 f3ba
00000080: 01e5 5e3c 8e67 f5bb 013f 26bc 7f1c 1dbc
00000090: 23f8 0bbc 97e5 eb3b 902e 5bbc 6f21 f239
000000a0: 6c9d 8cbc f690 3fbc bcf4 7d3c 3753 f23c
000000b0: 3204 abbc e7ab 31bb 3a17 ecbb ab8e 5abc
000000c0: bc0c da3b af2e 5abc 06b6 6dbc 2e4e febb
000000d0: 6905 b1bb a82a c5bb e57e 4abc 5a3e 0dbd
000000e0: 3678 8cbc b56c 8ebc bd57 87bc 00d6 99bc
000000f0: 639d 46bc e798 67bc 60a0 0e3c 765e 693c
00000100: 260f 183b 9137 b7ba 4204 a83c 02ab c43b
00000110: c8fe 89bb b84d a6bc e660 e9bb 7f19 c93a
00000120: 4de9 54bc 79bc 59bc f055 bcbc 5c09 4bbc
00000130: 1869 b8bc 0d4f 03bc 3a14 3bbc 0a66 23bc
00000140: eac4 8dbc 2c23 acba caac a5bb 370a 813c
00000150: 22e4 b33c 938f e1ba 2070 473c 9f67 143b
00000160: fab8 db3b f419 e53c d104 9dbc e83f ddbc
00000170: ebfa 853c 1452 dbbc 47ff 963a 00db b9b9
00000180: 554e 9dbb 23b2 35bb 8917 0abc 51f0 ac3c
00000190: cc87 943c 5eb1 993c 3bad 0c3c 73f5 93bc
000001a0: 7669 67bb 05b5 e33b 592b 863c d339 cb3b
000001b0: eeaf 93bb 57e5 02bc 32e3 1fbc bd3d 4dbc
000001c0: a681 5f3c 796a 0fbc e28f 0bbc 84e7 49bc
000001d0: a2df b6ba 5223 22bc e289 38bc ce5d 27bc
000001e0: 267f e8bb 1b5e 1dbb 4055 d3bc 7a69 dbbc
000001f0: a639 f4bc c0a6 59bb bec2 68bc e8d3 863c
00000200: e972 79bc d455 033c 2998 903c f6a5 94bc
00000210: 2e15 5f3c da04 3239 4fe8 bb3c fb0c f8bb
00000220: dbdc b1bc 3b83 40bc a928 7cbc fcf3 20bc
00000230: 0032 83bc f590 0abc 13c5 a73b a001 83bc
00000240: 10e9 a23a cace 2e3c 0c49 ab3c 2e73 d839
00000250: 9b5a edbb e663 1b3d 20df 843c 80de 8fbc
00000260: 10bd 4abc aede 2fbb f92b a23c aa2e 893c
00000270: 98e3 51bc 48f8 60bc 7f7e 09bc 0902 583b
00000280: a5f0 41bc f6c5 7cbc e82e 4abb 5717 b9bc
00000290: 0d90 e7bb ab95 db3b 29d1 de3b 390f deba
000002a0: 4938 cebc 7e84 b33a a053 acbc 754e c0bc
000002b0: 1177 17bc 971e 9fbc 163b 393c 8286 8ebc
000002c0: ea62 29bc efc0 3bbc b1eb 493a f70c 03bc
000002d0: 7301 cd3c aa3a b3bc 4bc6 5bbc 855c 6e3c
000002e0: e375 c53c 180f b13c 3cfd e53c 8a0c 653d
000002f0: 28db e73c 4e66 6bbc 04b1 6bbc 9a37 b1bc
00000300: 3341 0fbc 532d 7d3c dfda e5bc 9486 063c
00000310: 3a7b 47bc deb6 8bbc a2f8 9a3c fd0a 79bc
00000320: 5d8c 883c d00e b73c c3c7 433c 56aa fcbc
00000330: 53c5 983c 4192 f8bc 21f5 083d f0d8 153b
00000340: 3c76 283c bd3c 523c 3e4a 243c 7d8b 663d
00000350: a0ab c03a b28d b9bb 3e7c e13c 7731 4fbc
00000360: 4565 84bc fdb7 aebb 09dd 52bc a353 90ba
00000370: fd38 473c 3467 693b 4499 ccbc b1eb 06bc
00000380: d4f6 c9ba 55f5 2bbc 0f3d e6bc 408e 7ebc
00000390: f741 b53c 0f91 023c d837 8e3c a47e d8bb
000003a0: 9afc 82bc 1e63 a03c 628b 4dbb f581 073c
000003b0: c63f b63c ad8a 243c 50f7 9c3c ab4a a2bb
000003c0: 45a5 d83c ecc2 ff3c 26fe 0a3d d3d9 1a3d
000003d0: eea0 723c c0d8 da3b 66cc 98bb b3d0 a2bc
000003e0: 7cbb 7dbc acd6 75bc b4f2 7a3c 7874 593b
000003f0: 25c8 d8bb ea04 25ba 3420 22bc a105 c93b

bias f4 [16]
1.2070902e-08 -1.9405176e-08 5.5417214e-08 6.815837e-08 7.3593287e-09 5.8319248e-08 -2.6303505e-07 -4.461229e-08
9.656326e-08 -4.1300517e-08 -4.710389e-08 -5.2501473e-06 -5.322095e-08 4.9800985e-08 -4.8682995e-09 -4.5925015e-07
00000000: 6360 4f32 6fb0 a6b2 df03 6e33 765e 9233
00000010: 57dd fc31 b17a 7a33 4337 8db4 bb9b 3fb3
00000020: 375e cf33 6662 31b3 464f 4ab3 6c2a b0b6
00000030: 0e95 64b3 c3e4 5533 0446 a7b1 dc8e f6b4

weight f4 [16]
0.57532996 0.5595991 0.5735801 0.7044452 0.5558035 0.6119052 0.5517929 0.56662804
0.6132411 0.5438499 0.5914621 0.68763816 0.59455854 0.55046207 0.59315455 0.61174095
00000000: d348 133f e341 0f3f 25d6 123f 8556 343f
00000010: 2349 0e3f d2a5 1c3f 4d42 0d3f 890e 113f
00000020: 5efd 1c3f bf39 0b3f 0f6a 173f 0e09 303f
00000030: fd34 183f 15eb 0c3f fad8 173f 0e9b 1c3f

bias f4 [16]
0.0022269373 -0.015365498 -0.03942753 -0.05908256 -0.09418153 -0.026508171 0.0010219973 0.029942987
-0.035350025 -0.008515139 -0.013857273 -0.053914852 0.0008691768 -0.018022075 -0.01824818 -0.0037511394
00000000: cff1 113b 92bf 7bbc c37e 21bd 8e00 72bd
00000010: 3fe2 c0bd aa27 d9bc 8af4 853a ff4a f53c
00000020: 30cb 10bd 1583 0bbc 9e09 63bc d2d5 5cbd
00000030: 78d9 633a 08a3 93bc 357d 95bc add5 75bb

running_mean f4 [16]
-0.09283032 0.038657334 0.03793661 0.06812126 0.11362969 0.047073565 -0.06790148 -0.1487396
0.12601238 0.07190476 0.08103838 0.08059783 -0.00906618 -0.055217046 0.14478214 -0.10572115
00000000: d31d bebd 2757 1e3d 6b63 1b3d 2983 8b3d
00000010: afb6 e83d 36d0 403d ee0f 8bbd 324f 18be
00000020: 6409 013e ce42 933d 73f7 a53d 7a10 a53d
00000030: 518a 14bc 452b 62bd c541 143e 5584 d8bd

running_var f4 [16]
0.103742704 0.045315515 0.03377003 0.044420756 0.030497085 0.09358678 0.092757635 0.112443715
0.032098874 0.05398335 0.08126623 0.070307545 0.10498223 0.064350225 0.16527124 0.08954119
00000000: 0e77 d43d c39c 393d 7152 0a3d 8af2 353d
00000010: 06d5 f93c 6daa bf3d b7f7 bd3d e448 e63d
00000020: 1c7a 033d a51d 5d3d e96e a63d 67fd 8f3d
00000030: ec00 d73d 0dca 833d dd3c 293e 5f61 b73d

weight f4 [16, 16, 3, 3]
-0.0040766597 -0.0006735718 -0.0054041357 0.009483927 -0.0028680717 0.002071397 0.0041202065 -0.0015921325
-0.006273525 0.0012320344 0.011510562 0.0056853173 0.0030467196 -0.010109608 -0.012216519 0.019294083
0.012468087 0.005797914 -0.0022777156 -0.022291537 0.019656178 0.015985245 0.010336578 0.027998114
-0.008400346 -0.003795203 -0.0028171656 -0.03974333 -0.05183154 -0.010174455 -0.060887653 0.006636484
-0.024399865 -0.036700316 0.017965203 -0.026991513 -0.027102184 -0.03082285 -0.012892573 -0.009270929
0.0065551363 0.003340149 -0.00015731921 -0.0018328056 -0.0062013576 0.009369083 8.028295e-05 0.0060816337
-0.00052702334 -0.0086270245 0.00036589598 0.0047151735 -0.0049101324 -0.010246235 0.0027915135 0.0153473895
-0.017501028 0.0115891155 0.011609834 0.0018047194 0.015649173 0.002388229 0.019758968 -0.016693994
-0.003106597 -0.01577147 0.006808252 -0.032261018 -0.017446097 0.0071872286 -0.0023631668 -0.030616041
-0.006367272 0.012681726 0.01973367 0.007550441 -0.016176587 0.012537144 0.0076412517 -0.023856636
0.0148985665 0.013233135 -0.003522588 0.0019323201 -0.021258432 -0.0039919396 0.0020581335 0.008661519
-0.0001996847 0.02018067 -0.014641808 -0.015920902 0.01971563 -0.021329809 0.014263416 0.023425581
0.013183824 0.0028570981 0.02157903 0.0015013672 0.022398755 -0.021018447 -0.016962377 0.00606256
-0.019611549 -0.023167066 -0.015776852 0.02835234 0.032427974 -0.010031198 -0.0031434195 0.002063906
0.017158039 0.017083809 0.026698789 0.0023964916 0.021565309 -0.0058461158 -0.0038016445 -1.7514376e-05
-0.006103073 -0.009373552 -0.010334102 -0.010605197 -0.010751451 -0.0130206775 -0.0082908785 0.0011298142
0.0013081479 0.021821031 0.012346416 0.031580046 -0.001140842 0.0056071435 0.0066767284 0.01567718
0.013681576 0.010348136 0.016879376 0.027200926 0.012047811 0.015217452 0.021357076 0.0053796913
0.01792439 -0.007286868 -0.0034574345 -0.0128012 0.004922087 0.0010054623 0.018612407 -0.007549323
-0.005298955 0.016351456 0.0037092352 0.0024917992 -0.002196176 0.01612725 0.0073066754 0.0042192405
0.009472489 0.0074307476 0.012690843 0.006799046 0.015691543 0.013968 0.01456868 0.007246339
0.0009936466 0.018023873 0.012724623 0.041661806 -0.019970926 -0.00897828 0.010936999 0.015079634
0.028315097 0.038787685 -0.010157395 -0.031953465 0.0253638 0.01694208 0.020283673 -0.0069056307
0.0010785137 0.004328001 0.0084968675 0.009271212 0.008558256 -0.0018435364 0.002421816 0.0011418293
0.0050660525 0.004924877 0.010165691 0.010452634 -0.0041456916 0.00065700425 0.012693546 -0.000443107
0.005205656 0.00053412654 -0.0015646379 0.014340196 0.012446421 0.014016469 0.015696466 -0.0012323118
0.00533686 -0.004246927 0.003048202 0.01192143 -0.0050455993 0.0066618766 0.0031762577 -0.007422393
0.007859019 0.010160033 0.00636886 0.0033243683 -0.0019191023 0.011946325 0.0035862864 0.011864103
0.013209271 0.0004950787 0.010538236 0.0054211994 0.00713393 0.01718521 0.01882941 0.006583712
0.015902476 -0.006996067 0.012961136 0.016730309 0.007296622 -0.010259195 0.01253264 0.005340714
0.005605757 0.0021351196 -0.0022608389 0.00048220134 0.03759112 -0.00870981 0.021248683 0.039104335
-0.024182335 -0.0050199246 -0.0004087467 0.048039902 0.004275321 -0.008463763 0.008261841 0.024215328
00000000: 8095 85bb a392 30ba 2d15 b1bb 7962 1b3c
00000010: 42f6 3bbb 46c0 073b cc02 873b 1aaf d0ba
00000020: 2492 cdbb 377c a13a cc96 3c3c e64b ba3b
00000030: 79ab 473b c5a2 25bc cb27 48bc a00e 9e3c
00000040: f246 4c3c 6efc bd3b ba45 15bb be9c b6bc
00000050: fe05 a13c 7df3 823c c05a 293c 4d5c e53c
00000060: 9ba1 09bc f1b8 78bb 32a0 38bb e7c9 22bd
00000070: 4f4d 54bd c2b2 26bc 5565 79bd dd76 d93b
00000080: 3ae2 c7bc 1253 16bd c32b 933c 4e1d ddbc
00000090: 6605 debc 3480 fcbc 5f3b 53bc 18e5 17bc
000000a0: 78cc d63b 67e6 5a3b 0ef6 24b9 c03a f0ba
000000b0: c234 cbbb c880 193c 955d a838 7148 c73b
000000c0: f027 0aba 5d58 0dbc bad5 bf39 be81 9a3b
000000d0: 2de5 a0bb d3df 27bc d3f1 363b 9e73 7b3c
000000e0: 515e 8fbc 46e0 3d3c 2c37 3e3c 568c ec3a
000000f0: b232 803c d583 1c3b 8fdd a13c d8c1 88bc
00000100: 0d98 4bbb 2b33 81bc c217 df3b 2124 04bd
00000110: 1eeb 8ebc d882 eb3b 5cdf 1abb 7ece fabc
00000120: 8da4 d0bb 04c7 4f3c 81a8 a13c b169 f73b
00000130: c384 84bc 9868 4d3c 7763 fa3b fe6e c3bc
00000140: 1e19 743c cbcf 583c 38db 66bb e745 fd3a
00000150: 2a26 aebc d1ce 82bb c0e1 063b 0be9 0d3c
00000160: 7462 51b9 ef51 a53c 32e4 6fbc 8d6c 82bc
00000170: ac82 a13c dabb aebc 1ab1 693c 01e7 bf3c
00000180: f700 583c 273e 3b3b 82c6 b03c 86c9 c43a
00000190: 987d b73c e12e acbc aff4 8abc 70a8 c63b
000001a0: 66a8 a0bc dcc8 bdbc 753e 81bc 2b43 e83c
000001b0: 32d3 043d e559 24bc d401 4ebb 9942 073b
000001c0: 048f 8c3c 58f3 8b3c 6bb7 da3c 750e 1d3b
000001d0: bba9 b03c c690 bfbb 0325 79bb d6eb 92b7
000001e0: 49fc c7bb 8793 19bc 5e50 29bc 6cc1 2dbc
000001f0: db26 30bc ae54 55bc 77d6 07bc 4616 943a
00000200: 2976 ab3a 05c2 b23c 9f48 4a3c 145a 013d
00000210: 4e88 95ba 21bc b73b 75c8 da3b 6e6d 803c
00000220: b028 603c 3a8b 293c 9e46 8a3c 7ad4 de3c
00000230: 2f64 453c 9f52 793c 09f5 ae3c 1f48 b03b
00000240: 2cd6 923c aec6 eebb 2096 62bb 20bc 51bc
00000250: 7549 a13b b7c9 833a 0c79 983c 5060 f7bb
00000260: dba2 adbb 7df3 853c a416 733b 744d 233b
00000270: b8ed 0fbb 4b1d 843c d66c ef3b 8e41 8a3b
00000280: 8032 1b3c a17d f33b 41ed 4f3c 88ca de3b
00000290: 8d8b 803c 0ada 643c 79b1 6e3c b372 ed3b
000002a0: 3f3d 823a cda6 933c f07a 503c 92a5 2a3d
000002b0: 119a a3bc a319 13bc 1931 333c 9210 773c
000002c0: 10f5 e73c d6df 1e3d 346b 26bc a3e1 02bd
000002d0: bec7 cf3c 1eca 8a3c f229 a63c a148 e2bb
000002e0: ea5c 8d3a e7d1 8d3b 7236 0b3c 48e6 173c
000002f0: ed37 0c3c d1a2 f1ba 55b7 1e3b 6fa9 953a
00000300: 2101 a63b dd60 a13b 008e 263c 8641 2b3c
00000310: 95d8 87bb cf3a 2c3a 97f8 4f3c d150 e8b9
00000320: 3594 aa3b a004 0c3a 8914 cdba 24f3 6a3c
00000330: 13ec 4b3c 55a5 653c e095 803c 8685 a1ba
00000340: d4e0 ae3b ce29 8bbb 58c4 473b 1a52 433c
00000350: 8e55 a5bb df4b da3b c328 503b 8c37 f3bb
00000360: 1dc3 003c 4476 263c dfb1 d03b a5dd 593b
00000370: 638a fbba 85ba 433c e707 6b3b a861 423c
00000380: b36b 583c 2bc8 013a 91a8 2c3c 51a4 b13b
00000390: bec3 e93b ffc7 8c3c 2340 9a3c 2ebc d73b
000003a0: e945 823c 433f e5bb f25a 543c 000e 893c
000003b0: 8018 ef3b 2f16 28bc b455 4d3c 2801 af3b
000003c0: 7fb0 b73b 5ded 0b3b 952a 14bb f8cf fc39
000003d0: 25f9 193d 97b3 0ebc b811 ae3c de2b 203d
000003e0: 081a c6bc 2e7e a4bb 0e4d d6b9 7dc5 443d
000003f0: fe17 8c3b 98ab 0abc ac5c 073c 395f c63c

bias f4 [16]
1.7401943e-06 4.6129767e-08 -2.1001625e-07 7.130142e-08 1.6968087e-07 1.8170692e-08 -3.8599246e-08 4.11903e-08
-1.1955129e-09 -2.250489e-09 7.5184126e-08 -1.32998075e-08 2.500869e-07 7.484026e-09 -1.2135179e-08 -2.7759516e-08
00000000: 9f90 e935 3720 4633 d480 61b4 5f1e 9933
00000010: 8631 3634 c615 9c32 52c8 25b3 37e9 3033
00000020: 5f4f a4b0 05a7 1ab1 e974 a133 2c7d 64b2
00000030: af43 8634 1893 0032 157b 50b2 d273 eeb2

weight f4 [16]
0.52752596 0.49043146 0.52869314 0.5165103 0.5493211 0.5330031 0.5474704 0.54082596
0.5160416 0.5661867 0.5459536 0.50189906 0.5297965 0.5578031 0.5224916 0.62836593
00000000: f10b 073f d519 fb3e 6f58 073f 053a 043f
00000010: 4fa0 0c3f e472 083f 0527 0c3f 9273 0a3f
00000020: 4d1b 043f 9df1 103f 9dc3 0b3f 757c 003f
00000030: bea0 073f 2fcc 0e3f 02c2 053f 97dc 203f

bias f4 [16]
0.0032515894 -0.010180501 -0.009195566 0.0061825477 0.00879158 0.02227382 -0.02896682 -0.006991276
0.014701268 -0.010271132 -0.035844356 -0.008227638 -0.039374743 0.0035252443 0.008063869 -0.04463926
00000000: 9e18 553b 1ecc 26bc 00a9 16bc f896 ca3b
00000010: 8f0a 103c 9677 b63c d34b edbc 1317 e5bb
00000020: 96dd 703c 4048 28bc 88d1 12bd 37cd 06bc
00000030: 6947 21bd c907 673b 511e 043c a8d7 36bd

running_mean f4 [16]
0.019103639 0.13605931 -0.03537667 -0.019185109 0.034069773 -0.1040834 0.07002919 0.001244328
-0.08646441 -0.078570336 0.090160795 -0.08233462 0.08371005 0.05503393 -0.14898053 0.013003136
00000000: 3c7f 9c3c 2253 0b3e 21e7 10bd 172a 9dbc
00000010: bf8c 0b3d ad29 d5bd 776b 8f3d b818 a33a
00000020: 4114 b1bd 7ce9 a0bd 39a6 b83d 0e9f a8bd
00000030: 2d70 ab3d 426b 613d 5a8e 18be 1b0b 553c

running_var f4 [16]
0.031669434 0.071885094 0.026979366 0.020250648 0.040327936 0.05643478 0.024017328 0.009497071
0.05684695 0.057873793 0.033848025 0.084772915 0.0475468 0.017264588 0.07225366 0.020715227
00000000: cfb7 013d 7e38 933d d503 dd3c b0e4 a53c
00000010: e82e 253d 2828 673d fdbf c43c 9a99 1b3c
00000020: 59d8 683d 120d 6d3d 3aa4 0a3d 6c9d ad3d
00000030: 6fc0 423d 776e 8d3c baf9 933d fbb2 a93c

weight f4 [16, 16, 3, 3]
-0.0059314305 -0.003371142 0.0038337135 -0.008475034 -0.011799453 -0.025752237 -0.022590173 0.007126787
-0.017374786 -0.021906525 0.03137251 -0.021020044 0.02010452 -0.015683098 0.02683295 0.025851887
-0.039718997 0.04555105 0.00045558953 0.009246306 -0.00746839 -0.018720966 -0.006472492 -0.0084069045
-0.0012559543 0.007144662 -0.018392676 0.005174699 -0.0017921742 -0.0068786484 -0.012864236 -0.01833206
0.012290469 -0.024929635 -0.018462071 -0.0070970063 -0.00387415 -0.022684757 -0.000807378 -0.007288904
-0.013432102 -0.0044717607 -0.00022152202 0.0084853275 0.018571736 -0.023083204 -0.015841588 0.0015226176
-0.022702709 -0.013965019 -0.019253662 -0.023662286 0.020745873 0.006657755 -0.03002815 0.030257273
-0.011437883 -0.028726572 0.008935552 -0.01774768 -0.005577941 -0.009994538 -0.008871318 -0.01375285
0.00576031 5.8589263e-05 -0.0029318498 0.013364203 0.010457739 0.0123344865 -0.014463658 -0.012053075
-0.008499046 -0.007811814 0.00042941776 -0.021903252 -0.023645043 0.013526022 -0.017408807 0.005471196
0.016387692 -0.034852725 -0.023406003 -0.008582411 -0.04929691 0.00333916 -0.025435105 -0.0134376325
-0.016796628 -0.030130658 -0.0009485254 -0.009001837 -0.019885197 0.016914424 -0.016344719 -0.03514971
0.028674373 -0.022802396 -0.00036623728 0.008076957 -0.010409057 -0.0006974837 0.0007879291 -0.0093592275
-0.03557126 -0.024448145 -0.015160211 -0.03214907 -0.014439402 0.04319853 0.020268822 0.011908354
0.029038562 0.03192302 0.026901923 0.05416541 0.007403001 -0.021214323 -0.002943275 -0.026748173
0.0069131064 0.0031619165 -0.021617558 -0.0010010388 -0.039727237 0.04430451 -0.0031212273 0.0019071769
-0.0062447074 0.0121929655 0.011442333 -0.018924266 -0.0019195832 0.0006280615 -0.010360072 0.012859401
-0.0051809344 0.053842857 -0.00686508 0.039975334 0.032840285 0.05273006 0.02953843 0.002764614
-0.025834218 -0.025223754 -0.0036250257 0.0028601764 0.02660496 -0.016505145 0.018637642 -0.012019808
-0.00070424774 -0.019043585 -0.018490905 -0.006495404 -0.023587866 -0.022076786 -0.02244308 -0.011922515
-0.0045428514 -0.01249014 0.0003513833 0.0033020922 0.0091646295 0.0029608211 -0.00026517533 -0.0059179496
0.0057576187 0.0046123615 -0.010589892 0.00397303 0.007658133 -0.008701642 -0.008455869 -0.0047579384
0.0028042584 -0.00517016 0.0023912643 -0.018232692 0.015157177 -0.007478147 0.0057586436 -0.007228962
-0.014044274 0.013701342 -0.003580128 0.0063757068 -0.011811345 0.016123248 0.029115006 0.02389747
-0.0021555866 0.015890252 0.018651936 -0.012984148 0.019599764 -0.012568634 -0.011968984 -0.0056039155
-0.00042690375 -0.0039729644 -0.00165518 -0.006492023 0.0034105997 -0.0063254316 -0.010583235 -0.03696459
-0.018831141 0.0039806203 -0.028466165 -0.019370532 -0.01341181 -0.01954173 -0.01769132 -0.008909862
-0.0023428295 -0.0046797064 -0.0032367727 0.011810935 0.008787482 -0.0019904962 0.009402122 0.0027864564
0.0058989315 -0.0013758865 4.421385e-05 0.019271905 0.015520437 0.028407125 -0.019884637 0.023233112
-0.011328329 -0.0046077534 -0.012043561 -0.017400986 -0.029574065 0.004024936 -0.025152378 -0.019706454
-0.018501664 -0.003229137 -0.0006630205 -0.0048756907 0.00067136425 -0.0074351886 -0.0068435133 -0.0032041746
-0.0051195994 -0.0046789427 -0.0013637758 -0.002670423 -0.022231098 -0.014838501 -0.027185965 -0.019320335
00000000: 725c c2bb 61ee 5cbb 0a3f 7b3b deda 0abc
00000010: 7e52 41bc 5bf6 d2bc 070f b9bc d387 e93b
00000020: 9155 8ebc 5075 b3bc 7680 003d 3a32 acbc
00000030: 3cb2 a43c d779 80bc c6d0 db3c 56c7 d33c
00000040: 63b0 22bd bd93 3a3d 31dc ee39 d17d 173c
00000050: 65b9 f4bb b65c 99bc 3317 d4bb 1dbd 09bc
00000060: d59e a4ba c51d ea3b 3dac 96bc 8590 a93b
00000070: 63e7 eaba 4966 e1bb 84c4 52bc 1e2d 96bc
00000080: f75d 493c 3c39 ccbc c53d 97bc 018e e8bb
00000090: 74e5 7dbb 62d5 b9bc 38a6 53ba c2d7 eebb
000000a0: 5212 5cbc d987 92bb 5d48 68b9 0b06 0b3c
000000b0: c123 983c fd18 bdbc 38c6 81bc 9292 c73a
000000c0: 08fb b9bc 89cd 64bc dbb9 9dbc 69d7 c1bc
000000d0: 40f3 a93c 4c29 da3b 98fd f5bc 1ade f73c
000000e0: f565 3bbc fd53 ebbc 6c66 123c 9563 91bc
000000f0: 29c7 b6bb 21c0 23bc 0159 11bc a253 61bc
00000100: fcc0 bc3b bebd 7538 4724 40bb 88f5 5a3c
00000110: f056 2b3c 9616 4a3c fbf8 6cbc 437a 45bc
00000120: 953f 0bbc 3ffa ffbb 7a23 e139 736e b3bc
00000130: 40b3 c1bc 409c 5d3c ea9c 8ebc b847 b33b
00000140: 7b3f 863c bbc1 0ebd f2bd bfbc 3e9d 0cbc
00000150: 8feb 49bd cfd5 5a3b 485d d0bc 8429 5cbc
00000160: 1599 89bc 92d4 f6bc 76a6 78ba 717c 13bc
00000170: 48e6 a2bc 1e90 8a3c 5ce5 85bc 24f9 0fbd
00000180: 85e6 ea3c 17cc babc 8903 c0b9 3755 043c
00000190: c08a 2abc 57d7 36ba 078d 4e3a 7257 19bc
000001a0: 2bb3 11bd 7a47 c8bc 8962 78bc beae 03bd
000001b0: 3e93 6cbc f1f0 303d cd0a a63c 421b 433c
000001c0: 47e2 ed3c b6c1 023d 6c61 dc3c 8ddc 5d3d
000001d0: e094 f23b a9c9 adbc f6e3 40bb fc1e dbbc
000001e0: 5787 e23b 2838 4f3b 4e17 b1bc 4a35 83ba
000001f0: 07b9 22bd a578 353d 818d 4cbb 3dfa f93a
00000200: 67a0 ccbb 01c5 473c a078 3b3c 1007 9bbc
00000210: 869a fbba 7ea4 243a 4bbd 29bc 3db0 523c
00000220: d4c4 a9bb 548a 5c3d 77f4 e0bb 2dbd 233d
00000230: 8983 063d 7afb 573d 94fa f13c 872e 353b
00000240: 48a2 d3bc 0ca2 cebc d791 6dbb cc71 3b3b
00000250: a5f2 d93c cc35 87bc f8ad 983c bbee 44bc
00000260: 449d 38ba 4b01 9cbc 3d7a 97bc 66d7 d4bb
00000270: 573b c1bc 60da b4bc 8dda b7bc a756 43bc
00000280: 33dc 94bb 72a3 4cbc de39 b839 ea67 583b
00000290: 3e27 163c 560a 423b 3b07 8bb9 5ceb c1bb
000002a0: 68aa bc3b 4b23 973b 3a81 2dbc 3130 823b
000002b0: 13f1 fa3b 5591 0ebc 7c8a 0abc 7be8 9bbb
000002c0: a6c7 373b 726a a9bb c2b6 1c3b ba5c 95bc
000002d0: cf55 783c 3e0b f5bb 01b3 bc3b eee0 ecbb
000002e0: f419 66bc 987b 603c 95a0 6abb 4eeb d03b
000002f0: 5f84 41bc e714 843c 9882 ee3c a1c4 c33c
00000300: be44 0dbb 462c 823c f2cb 983c 77bb 54bc
00000310: af8f a03c acec 4dbc 8f19 44bc 0da1 b7bb
00000320: 0dd2 dfb9 a42f 82bb a0f2 d8ba 09bb d4bb
00000330: 5e84 5f3b 9145 cfbb 4e65 2dbc 2f68 17bd
00000340: c443 9abc dd6f 823b e031 e9bc f3ae 9ebc
00000350: 35bd 5bbc fa15 a0bc 63ed 90bc abfa 11bc
00000360: 288a 19bb 3958 99bb 0920 54bb a782 413c
00000370: 5ff9 0f3c fc72 02bb 5c0b 1a3c fb9c 363b
00000380: d34b c13b 1757 b4ba 4372 3938 1de0 9d3c
00000390: 6e49 7e3c 0fb6 e83c 1be5 a2bc 5e53 be3c
000003a0: 759a 39bc a3fc 96bb 5b52 45bc 838c 8ebc
000003b0: 4f45 f2bc 9ce3 833b 5c0c cebc 6e6f a1bc
000003c0: cd90 97bc ee9f 53bb 8dce 2dba 42c4 9fbb
000003d0: 7efe 2f3a e2a2 f3bb 8d3f e0bb 21fd 51bb
000003e0: 50c2 a7bb d151 99bb b9c0 b2ba 4302 2fbb
000003f0: fe1d b6bc 2f1d 73bc 1ab5 debc ae45 9ebc

bias f4 [16]
9.9849995e-09 3.333358e-08 1.0849932e-07 3.6684789e-09 -5.2075237e-08 1.1476386e-08 -3.8714013e-08 -1.713118e-08
-4.4058293e-10 -5.3976386e-08 -1.4313072e-08 -2.4379352e-08 -2.0081899e-07 -1.9954202e-08 4.815237e-09 2.93054e-08
00000000: 7e8a 2b32 a92a 0f33 2200 e933 9018 7c31
00000010: 54a9 5fb3 ae29 4532 8246 26b3 dd27 93b2
00000020: 8936 f2af aad3 67b3 8ee5 75b2 c36a d1b2
00000030: b4a0 57b4 c167 abb2 4673 a531 42bb fb32

weight f4 [16]
0.572574 0.5426383 0.51940835 0.5483759 0.57519805 0.59341764 0.61625725 0.54242533
0.6030143 0.5573056 0.58445895 0.5206089 0.5573517 0.57242054 0.57971495 0.63033867
00000000: 3694 123f 58ea 0a3f f2f7 043f 5d62 0c3f
00000010: 2e40 133f 38ea 173f 09c3 1d3f 63dc 0a3f
00000020: 255f 1a3f 94ab 0e3f 1a9f 153f a046 053f
00000030: 9aae 0e3f 278a 123f 3368 143f e05d 213f

bias f4 [16]
-0.0068934956 -0.009316203 0.0029285762 -0.0023497045 -0.018843774 -0.033802867 -0.014460644 -0.003471471
0.02390595 -0.021744275 0.010235904 -0.0062327245 -0.05020188 -0.0045323144 0.0050657988 -0.044338778
00000000: d5e2 e1bb fda2 18bc 5bed 3f3b 80fd 19bb
00000010: 425e 9abc e074 0abd 56ec 6cbc 9e81 63bb
00000020: 69d6 c33c 0d21 b2bc 7eb4 273c e23b ccbb
00000030: 7da0 4dbd cf83 94bb 00ff a53b 949c 35bd

running_mean f4 [16]
-0.07533388 -0.062438462 -0.022643993 -0.04274625 0.0024413534 0.045026246 -0.048431925 -0.074597485
-0.09135871 0.037968434 -0.03710368 0.0029522292 0.2519031 0.1138491 0.033869825 0.040109843
00000000: a648 9abd 79bf 7fbd e57f b9bc b116 2fbd
00000010: 1dff 1f3b 716d 383d 8e60 46bd 91c6 98bd
00000020: 461a bbbd ca84 1b3d 07fa 17bd 307a 413b
00000030: 71f9 803e b829 e93d 16bb 0a3d 384a 243d
