asdfffff.pt (torch, 208345 bytes, 100 tensors)

weight f4 [16, 3, 3, 3]
0.009617463 0.08183527 0.061589915 -0.05963688 0.08309756 -0.048729736 -0.0073077623 0.041107506
-0.018401584 -0.03741455 0.051322497 -0.021561844 0.012304792 0.03490402 -0.031494733 -0.030244926
-0.033721253 -0.0026679363 0.042688195 0.07041206 0.0028968668 -0.023031868 0.06749103 0.0004730046
-0.07439925 0.045202054 0.009643873 0.026042825 0.066933304 0.04538952 -0.054358803 0.005810441
-0.0022365088 -0.04651999 0.02180371 0.04700336 0.013422461 0.044492375 0.001988328 -0.032965243
0.035227425 0.020239018 -0.025321843 0.022979883 0.03008773 0.038330212 0.042096484 0.008767219
0.0030954157 0.018392153 -5.31696e-05 -0.0005464238 0.015809493 0.020177059 0.052367456 0.013974799
-0.05577124 -0.04085927 0.046775997 0.028757624 0.02491365 0.05037993 -0.067686506 0.04118802
0.007980162 -0.07131707 -0.045905624 0.043170333 0.04661601 -0.059632223 0.048575662 -0.009085077
-0.010526155 0.06289197 -0.053606138 0.06524041 0.038841903 0.021340825 0.019578064 0.060174238
-0.025848845 -0.022073066 0.001185633 0.005423092 0.024409989 0.036015246 0.019117622 -0.020774422
-0.027869044 -0.041270196 -0.029760646 0.006669148 0.010851939 0.04068567 0.027237538 0.029754125
-0.007820023 -0.009990094 -0.036590483 -0.023724938 0.027239729 0.024593422 0.056242336 0.06780499
0.05248174 0.0132199265 0.021771288 -0.011536312 0.0058036535 0.022882825 -0.0044052396 0.013535797
0.0066565396 0.023587804 0.033557687 0.01231562 0.0022771969 -0.026381388 -0.025258312 -0.03423015
-0.017239068 -0.04535077 -0.024035605 -0.020171711 -0.034133684 -0.03883045 -0.019735128 -0.02753511
-0.019865433 -0.008602556 -0.028433476 -0.014292448 -0.0126671875 -0.0154433 -0.022450875 0.0930126
0.13806464 -0.049764533 -0.04250231 0.031237775 -0.0015672548 0.038530797 0.041398406 -0.04237409
0.08874073 0.11600549 0.00058793643 -0.03608735 0.008732882 0.025988638 -0.0014461905 -0.020846723
0.08446789 0.013416079 -0.0109699955 0.044136256 0.014459959 -0.102495134 0.057919007 -0.010091644
0.061722487 -0.058086254 0.01476912 0.03836165 0.02468456 0.054039516 0.106072575 0.01893094
0.02806447 0.02862988 0.0063511035 0.013764316 -0.0076448866 -0.009703732 0.027580818 0.049102943
0.025724445 0.019497048 -0.00962771 0.005439892 -0.046306428 -0.049205687 -0.021197341 -0.0012759368
0.018346282 -0.041331854 0.025454773 -0.036458123 -0.00270981 0.018582951 -0.058183126 -0.054149296
0.05659888 0.064947285 -0.028034545 0.05825228 -0.069255054 0.010895092 0.064957134 0.0632368
-0.092805624 -0.022914974 0.020331975 -0.07725528 0.03749317 0.06815443 -0.0069755805 -0.049366184
0.08481776 -0.119653754 0.09066604 0.07402223 -0.04507293 0.03303271 -0.05943362 -0.011988224
-0.0073784865 0.024537852 0.02518835 0.037344176 0.050979726 0.035985656 0.0021483959 -0.0051643997
-0.0126486635 -0.005763233 0.015754111 0.014499945 0.053551167 0.04330734 0.025581656 0.013830259
-0.002612919 -0.0039133164 0.0058311177 0.022361409 0.012313137 0.059216358 0.050467122 0.02809322
0.035361815 0.010024344 0.005860124 0.04035202 0.10069794 -0.06289055 0.05582835 0.017503735
-0.035285044 0.010536457 0.033446778 0.023775676 0.028834667 0.036676094 -0.024096616 0.024037313
00000000: 9092 1d3c 4099 a73d b545 7c3d cd45 74bd
00000010: 0e2f aa3d d598 47bd f475 efbb 5860 283d
00000020: ebbe 96bc 0040 19bd 8a37 523d 77a2 b0bc
00000030: 0a9a 493c 85f7 0e3d 9f00 01bd 35c4 f7bc
00000040: 4c1f 0abd 8bd8 2ebb d1d9 2e3d 3334 903d
00000050: 5cd9 3d3b 54ad bcbc bd38 8a3d 9afd f739
00000060: a25e 98bd ca25 393d 5601 1e3c c357 d53c
00000070: 5414 893d 5cea 393d 56a7 5ebd 8365 be3b
00000080: 6492 12bb bf8b 3ebd b29d b23c 9886 403d
00000090: e2e9 5b3c a33d 363d 9c4e 023b 9006 07bd
000000a0: a24a 103d 4ccc a53c c16f cfbc 4f40 bc3c
000000b0: 8b7a f63c 2400 1d3d 5d6d 2c3d 62a4 0f3c
000000c0: 75dc 4a3b 24ab 963c 6c02 5fb8 e13d 0fba
000000d0: e982 813c 5c4a a53c 427f 563d 8ef6 643c
000000e0: 6270 64bd 0d5c 27bd 3098 3f3d 1c95 eb3c
000000f0: b617 cc3c 2f5b 4e3d 399f 8abd c5b4 283d
00000100: 3abf 023c af0e 92bd 8907 3cbd 60d3 303d
00000110: 6ef0 3e3d eb40 74bd 46f7 463d 93d9 14bc
00000120: e575 2cbc 81cd 803d 1c92 5bbd c49c 853d
00000130: b018 1f3d f4d2 ae3c 2d62 a03c 4379 763d
00000140: f5c0 d3bc 93d2 b4bc 3e67 9b3a 31b4 b13b
00000150: 75f7 c73c b984 133d 8f9c 9c3c 1f2f aabc
00000160: 9f4d e4bc f00a 29bd 99cc f3bc de88 da3b
00000170: 55cc 313c 04a6 263d 4221 df3c ecbe f33c
00000180: 8e1f 00bc 7ead 23bc e7df 15bd cd5a c2bc
00000190: da25 df3c 2578 c93c 5d5e 663d 58dd 8a3d
000001a0: 18f7 563d 6498 583c b359 b23c cd02 3dbc
000001b0: 932c be3b c374 bb3c d459 90bb 3fc5 5d3c
000001c0: 1a1f da3b 363b c13c c973 093d 74c7 493c
000001d0: 063d 153b c81d d8bc 85ea cebc ea34 0cbd
000001e0: f238 8dbc bbc1 39bd 51e6 c4bc 253f a5bc
000001f0: c3cf 0bbd ae0c 1fbd 90ab a1bc 5091 e1bc
00000200: d5bc a2bc bcf1 0cbc 52ed e8bc df2a 6abc
00000210: 098a 4fbc e505 7dbc e6ea b7bc 647d be3d
00000220: d160 0d3e e5d5 4bbd e716 2ebd 5de6 ff3c
00000230: 586c cdba 78d2 1d3d 6091 293d 7490 2dbd
00000240: b3bd b53d 4994 ed3d bf1f 1a3a 54d0 13bd
00000250: 5d14 0f3c 20e6 d43c 1a8e bdba bfc6 aabc
00000260: 80fd ac3d 1dcf 5b3c 7fbb 33bc 38c8 343d
00000270: 77e9 6c3c f8e8 d1bd 7b3c 6d3d 6c57 25bc
00000280: b8d0 7c3d daeb 6dbd 2efa 713c 1b21 1d3d
00000290: 4637 ca3c 8a58 5d3d 943c d93d 0f15 9b3c
000002a0: 76e7 e53c 3689 ea3c eb1c d03b ba83 613c
000002b0: f581 fabb 67fc 1ebc 2bf1 e13c 2b20 493d
000002c0: 12bc d23c 46b8 9f3c 8bbd 1dbc 1f41 b23b
000002d0: cfab 3dbd e78b 49bd 0ca6 adbc 563d a7ba
000002e0: f14a 963c 974b 29bd 8786 d03c 1d55 15bd
000002f0: 1197 31bb 463b 983c 6e51 6ebd a7cb 5dbd
00000300: 3ad4 673d 1503 853d b4a8 e5bc f199 6e3d
00000310: 98d5 8dbd 5481 323c 3f08 853d 4c82 813d
00000320: e010 bebd 2fb8 bbbc 3e8f a63c 0438 9ebd
00000330: 7092 193d 8d94 8b3d 6993 e4bb 3234 4abd
00000340: efb4 ad3d 070d f5bd 1eaf b93d f898 973d
00000350: 659e 38bd 4f4d 073d ab70 73bd 426a 44bc
00000360: 3bc7 f1bb 9b03 c93c cc57 ce3c 35f6 183d
00000370: 1ed0 503d b265 133d 1acc 0c3b 203a a9bb
00000380: 573c 4fbc 81d9 bcbb c40e 813c 2d91 6d3c
00000390: 7858 5b3d 0a63 313d 9f90 d13c 5098 623c
000003a0: 823d 2bbb 473b 80bb f612 bf3b 462f b73c
000003b0: 0abd 493c da8c 723d 9db6 4e3d c123 e63c
000003c0: 8dd7 103d 253d 243c 4806 c03b 2948 253d
000003d0: b93a ce3d c3cc 80bd 45ac 643d fe63 8f3c
000003e0: 0d87 10bd 1ba1 2c3c 7dff 083d 35c5 c23c
000003f0: ae36 ec3c ac39 163d 4466 c5bc e6e9 c43c

bias f4 [16]
-1.301035e-06 9.163859e-06 1.942196e-06 7.816374e-07 -1.982436e-06 4.2563084e-07 9.231357e-07 6.415013e-07
2.4367935e-07 6.035411e-07 -5.384886e-07 -1.2889042e-07 3.832409e-06 6.261127e-07 4.2073125e-07 2.6323565e-07
00000000: 399f aeb5 7abe 1937 ac56 0236 b7d1 5135
00000010: fe09 05b6 4282 e434 67cd 7735 a233 2c35
00000020: 09d3 8234 0703 2235 a88c 10b5 2165 0ab4
00000030: 2598 8036 2312 2835 dde0 e134 d552 8d34

weight f4 [16]
0.21913642 0.11981274 0.18858652 0.20514874 0.26725215 0.22295249 0.32858488 0.16002467
0.3978503 0.22056629 0.19258949 0.16256337 0.2717875 0.17551686 0.35498914 0.32555133
00000000: 4c65 603e 6260 f53d d31c 413e 8312 523e
00000010: 46d5 883e a84d 643e 473c a83e 82dd 233e
00000020: 09b3 cb3e 21dc 613e 2e36 453e 0377 263e
00000030: bb27 8b3e b1ba 333e 23c1 b53e aaae a63e

bias f4 [16]
-0.16182911 -0.21262759 -0.1480473 -0.13725252 -0.049922608 -0.063678026 -0.09072308 0.009379709
-0.18372454 -0.0154373655 0.0041017793 -0.09395215 -0.008538968 0.016041823 -0.110713765 -0.057266213
00000000: 88b6 25be 0cbb 59be b699 17be ed8b 0cbe
00000010: a67b 4cbd a069 82bd 06cd b9bd 5aad 193c
00000020: 4922 3cbe 01ed 7cbc 3868 863b fc69 c0bd
00000030: 07e7 0bbc 246a 833c e6bd e2bd fa8f 6abd

running_mean f4 [16]
0.11547921 0.17625053 0.115240075 0.10658426 -0.14949471 0.23343717 0.1411015 0.015269134
0.25288188 0.053903293 0.0629733 0.07811409 -0.04286528 -0.09557958 0.060291 0.05455568
00000000: 5d80 ec3d 057b 343e fd02 ec3d d948 da3d
00000010: 2415 19be 270a 6f3e e97c 103e 642b 7a3c
00000020: bc79 813e b3c9 5c3d 25f8 803d 48fa 9f3d
00000030: 8193 2fbd 3abf c3bd b2f3 763d c775 5f3d

running_var f4 [16]
0.0045258133 0.0095080435 0.0046173716 0.0039427755 0.007284515 0.015443062 0.00517412 0.0016374676
0.01901784 0.0008865999 0.0013202992 0.0016886487 0.0008075458 0.0024839554 0.0012403375 0.0022875643
00000000: 464d 943b a0c7 1b3c 524d 973b 6632 813b
00000010: f1b2 ee3b e604 7d3c aa8b a93b 4ca0 d63a
00000020: 4dcb 9b3c b66a 683a e40d ad3a a655 dd3a
00000030: 7bb1 533a dbc9 223b d292 a23a f6ea 153b

weight f4 [16, 16, 3, 3]
0.0052398127 0.0049521527 0.007463799 0.009622072 0.006084179 0.008651069 0.0069463807 0.004194415
0.007954762 0.005256777 0.0036453644 0.004896926 0.00677879 0.0056567723 0.005583123 0.0061357156
0.0044271564 0.0046927957 0.0030788009 0.0017112468 0.0029904367 -0.00025556626 0.0016163869 0.0031526936
0.0024805414 0.0015751634 0.0018721967 0.0041222908 0.0030981859 0.004396643 0.0018251223 0.00037704082
0.0011163913 0.0027239881 0.0020540683 0.0014351382 -0.017783437 0.008983024 -0.029682394 -0.01938026
0.007194178 -0.013184298 -0.023899337 -0.002126388 -0.024510669 0.006327344 -0.00140173 0.0009957238
0.0011686573 0.006270503 0.007870497 0.009598188 -0.0037172935 0.0010518231 0.010343155 0.012529989
0.007203397 0.009347833 0.009881021 0.0062260428 0.0060477485 0.010059571 0.0048201014 0.008600207
0.01093197 0.009298755 0.0050099706 0.0090223905 0.011657033 0.003982699 0.009931446 0.012695748
0.005266209 0.008543225 0.007022654 0.0032203596 0.0010978179 0.00355547 0.004050013 0.0028914232
0.0007430373 0.0069260034 0.009501899 0.0050213053 0.0060294867 0.0109838545 0.00025668487 0.004494405
0.0024792426 0.0025308144 -0.017041184 -0.011255514 -0.008666766 -0.029424846 -0.027849773 -0.015109959
-0.0025533228 -0.015742023 -0.042634524 0.0044171317 0.003707193 0.0038231807 0.0020745248 0.001971293
0.001364011 0.0020304169 0.0013967615 -0.002071968 -0.013544166 -0.037140187 -0.036091726 -0.028367663
0.007712001 -0.034509435 0.0037440886 0.002131316 -0.0060757995 0.0043837023 0.009940182 0.0037395065
0.006094476 0.0054506916 0.0075574624 -0.00038505564 0.0035263423 0.007759725 0.00814404 0.0057786196
0.005578011 0.010315845 0.0065747774 0.009264596 0.008590769 0.005659172 0.009162469 -0.0052061104
-0.009595081 -0.007016991 -0.010112972 -0.0074689705 -0.0077547478 -0.011000986 -0.007618831 -0.014457259
0.012389746 0.034486588 -0.010986967 -0.009890641 0.068883315 0.005040705 0.027054733 0.037455834
0.019915454 0.050674126 0.013963373 -0.019961761 0.029985812 0.00791458 0.013423021 0.012124106
0.046341173 0.03231559 0.00030608065 0.03956811 0.0066217696 0.007374232 0.04947864 0.016611287
-0.042261753 0.021228636 0.01131545 -0.03348359 0.014590021 -0.0025633108 0.028471734 0.011957488
0.042019732 0.019235207 0.009005388 0.005483128 0.017708262 0.035421845 0.031738136 0.0014577366
-0.030127121 -0.043741763 -0.04326067 -0.0031003808 -0.0075108623 -0.011183201 0.036804307 0.020485187
0.0069523877 -0.013230238 0.0160048 -0.0103021115 0.07252273 0.051976305 0.01776916 0.0471369
0.056334782 -0.009864275 0.06015044 0.03441056 0.001631769 0.027363474 -0.0012887861 0.008680714
-0.0036050673 0.019874966 0.008201905 0.03811932 0.017952284 -0.022928601 0.007060667 0.009087274
0.043035533 -0.01235098 0.014663584 0.058754675 0.061376292 0.035731144 0.03207796 -0.005697796
0.005251477 0.044995155 0.003047339 -0.016009241 -0.022373095 -0.0047660936 0.019513689 -0.0044959933
0.044940967 0.012940978 -0.046172835 -0.0033921986 -0.013025919 -0.03610968 0.029817523 -0.040627953
-0.045341857 0.0027908098 0.01630575 0.0037009127 0.011587263 -0.0088743875 0.013938286 0.003920066
0.022045031 -0.007825014 -0.01336622 0.028642213 -0.009572102 -0.009730824 -0.02375011 0.0315599
00000000: bcb2 ab3b ab45 a23b e292 f43b e5a5 1d3c
00000010: cb5d c73b 37bd 0d3c 779e e33b 4e71 893b
00000020: b154 023c 0b41 ac3b 11e7 6e3b 6576 a03b
00000030: 9d20 de3b 725c b93b a1f2 b63b 1d0e c93b
00000040: ae11 913b 06c6 993b b5c5 493b ea4b e03a
00000050: 34fb 433b 86fd 85b9 f2dc d33a 6c9d 4e3b
00000060: 9490 223b b775 ce3a 7f64 f53a 4814 873b
00000070: ef0a 4b3b b711 903b f138 ef3a 90ad c539
00000080: e053 923a f084 323b 8c9d 063b 3f1b bc3a
00000090: 92ae 91bc 892d 133c 7e28 f3bc 5ac3 9ebc
000000a0: 24bd eb3b f402 58bc 8bc8 c3bc df5a 0bbb
000000b0: 99ca c8bc 9c55 cf3b 41ba b7ba f282 823a
000000c0: a22d 993a cb78 cd3b 42f3 003c b841 1d3c
000000d0: d69d 73bb 54dd 893a 5676 293c 954a 4d3c
000000e0: 790a ec3b a727 193c 02e4 213c d503 cc3b
000000f0: 312c c63b e6d0 243c f1f1 9d3b e2e7 0c3c
00000100: 011c 333c ce59 183c ae2a a43b a6d2 133c
00000110: 24fd 3e3c 4d81 823b 81b7 223c d401 503c
00000120: 2a90 ac3b e2f8 0b3c 4b1e e63b ab0c 533b
00000130: a8e4 8f3a e302 693b f9b5 843b 087e 3d3b
00000140: 64c8 423a 87f3 e23b daad 1b3c c389 a43b
00000150: 0093 c53b a0f5 333c a993 8639 cd45 933b
00000160: ca7a 223b 05dc 253b f499 8bbc 0c69 38bc
00000170: 0dff 0dbc 600c f1bc 3525 e4bc c38f 77bc
00000180: a655 27bb 6af5 80bc 8aa1 2ebd 96bd 903b
00000190: 61f4 723b 548e 7a3b c0f4 073b cf30 013b
000001a0: 9dc8 b23a be10 053b 8a13 b73a dbc9 07bb
000001b0: 5ae8 5dbc 4f20 18bd ebd4 13bd 4d63 e8bc
000001c0: f4b4 fc3b c459 0dbd 625f 753b 8dad 0b3b
000001d0: 8017 c7bb 29a5 8f3b 25dc 223c 8212 753b
000001e0: 2cb4 c73b b79b b23b 97a4 f73b 4be1 c9b9
000001f0: 351a 673b 4b45 fe3b 946e 053c 935a bd3b
00000200: bfc7 b63b ca03 293c 3b71 d73b 88ca 173c
00000210: 4cc0 0c3c 9370 b93b 2e1e 163c 0598 aabb
00000220: b034 1dbc c9ee e5bb e1b0 25bc 44be f4bb
00000230: 8a1b febb 7b3d 34bc 63a7 f9bb 24de 6cbc
00000240: 5cfe 4a3c cf41 0d3d ae02 34bc 5b0c 22bc
00000250: b212 8d3d 802c a53b e3a1 dd3c 4a6b 193d
00000260: bc25 a33c ac8f 4f3d a2c6 643c d986 a3bc
00000270: cea4 f53c 28ac 013c 3bec 5b3c 30a4 463c
00000280: 3ed0 3d3d 5a5d 043d 7379 a039 2c12 223d
00000290: 6efb d83b 8ba3 f13b 1daa 4a3d 6514 883c
000002a0: a91a 2dbd ade7 ad3c 7064 393c 1726 09bd
000002b0: fc0a 6f3c 38fd 27bb 8e3d e93c 57e9 433c
000002c0: e21c 2c3d 2793 9d3c 568b 133c d0ab b33b
000002d0: eb10 913c 7f16 113d d9ff 013d 8611 bf3a
000002e0: 27cd f6bc 902a 33bd 1a32 31bd c22f 4bbb
000002f0: ae1d f6bb bf39 37bc 1dc0 163d 8dd0 a73c
00000300: dbd0 e33b a4c3 58bc 801c 833c 30ca 28bc
00000310: cc86 943d 1be5 543d a190 913c 9f12 413d
00000320: 4dbf 663d c59d 21bc 4f60 763d 16f2 0c3d
00000330: 15e1 d53a 5d29 e03c 7cec a8ba 8e39 0e3c
00000340: fe42 6cbb d3d0 a23c 4861 063c 0123 1c3d
00000350: ab10 933c c3d4 bbbc 2b5d e73b cae2 143c
00000360: 0746 303d c45b 4abc 873f 703c bea8 703d
00000370: b565 7b3d d25a 123d 2e64 033d 94b4 babb
00000380: 9514 ac3b d74c 383d ddb5 473b d025 83bc
00000390: c847 b7bc e42c 9cbb 2cdb 9f3c 2053 93bb
000003a0: 0514 383d 6506 543c ba1f 3dbd a64f 5ebb
000003b0: aa6a 55bc bee7 13bd e143 f43c 7f69 26bd
000003c0: 62b8 39bd 05e6 363b a393 853c 038b 723b
000003d0: 81d8 3d3c e165 11bc 695d 643c e673 803b
000003e0: c897 b43c 7d34 00bc fdfd 5abc 13a3 ea3c
000003f0: 4ed4 1cbc 096e 1fbc 978f c2bc f444 013d

bias f4 [16]
5.157431e-07 1.5692863e-06 1.8993363e-07 -2.2217496e-07 1.3299041e-07 -2.6524174e-07 -1.7759087e-06 -1.7656772e-07
1.348484e-07 1.0389862e-06 6.294384e-07 -1.9568595e-06 6.1958076e-07 6.0618197e-07 -8.277972e-08 -7.6858197e-07
00000000: 9971 0a35 44a0 d235 8ff0 4b34 fd8e 6eb4
00000010: 20cc 0e34 8c66 8eb4 c25b eeb5 9196 3db4
00000020: d9ca 1034 4b73 8b35 adf6 2835 9752 03b6
00000030: 4451 2635 82b8 2235 a2c4 b1b3 8d50 4eb5

weight f4 [16]
0.095934935 0.41503903 0.23070134 0.30432147 0.24617435 0.33068526 0.388036 0.2936665
0.1733347 0.25376734 0.41009763 0.3564445 0.3474749 0.26564106 0.18933104 0.25217938
00000000: 8979 c43d ff7f d43e f93c 6c3e 06d0 9b3e
00000010: 2115 7c3e 944f a93e a8ac c63e 755b 963e
00000020: a77e 313e cbed 813e 51f8 d13e e57f b63e
00000030: 3be8 b13e 1b02 883e ffdf 413e a81d 813e

bias f4 [16]
-0.0766367 -0.20587692 -0.09227197 -0.19475868 -0.019434381 -0.05207836 -0.12118664 -0.114468485
-0.06788424 0.014278393 -0.21146679 -0.2550918 -0.11545343 -0.10114454 -0.0888992 0.0030019714
00000000: b4f3 9cbd 66d1 52be 16f9 bcbd d26e 47be
00000010: da34 9fbc 1e50 55bd b330 f8bd 746e eabd
00000020: e406 8bbd ecef 693c c08a 58be 649b 82be
00000030: d972 ecbd de24 cfbd c910 b6bd b9bc 443b

running_mean f4 [16]
-0.016173515 0.047734126 -0.052941315 0.044561546 -0.06473578 -0.058476858 -0.013587168 0.028505206
0.0073959385 -0.049530663 -0.009851438 -0.007505866 0.00531738 -0.03472451 -0.09128854 -0.04626752
00000000: 527e 84bc dc84 433d fed8 58bd 2b86 363d
00000010: 3194 84bd 6e85 6fbd b79c 5ebc c083 e93c
00000020: a159 f23b aae0 4abd ed67 21bc c4f3 f5bb
00000030: 6b3d ae3b 4a3b 0ebd 7cf5 babd 0383 3dbd

running_var f4 [16]
0.0020844818 0.036930107 0.15960674 0.05684594 0.010562534 0.028929057 0.007566571 0.025794037
0.00563056 0.036270954 0.0065549496 0.0059331693 0.0073533794 0.021807138 0.12635066 0.017092166
00000000: cd9b 083b 0644 173d f36f 233e 4ad7 683d
00000010: 7b0e 2d3c a1fc ec3c fff0 f73b 044e d33c
00000020: 9080 b83b da90 143d e7ca d63b 086b c23b
00000030: 9ef4 f03b e2a4 b23c 1162 013e df04 8c3c

weight f4 [16, 16, 3, 3]
-0.00075385737 -0.0051138382 -0.005138188 0.0003670124 -0.004084599 -0.0040760282 0.00021963318 -0.0043034307
-0.0039426796 -0.005487661 -0.013235345 -0.014826644 -0.005435347 -0.01213156 -0.01482932 -0.006855135
-0.009931806 -0.010962904 -0.01546492 -0.0012802923 0.00034723483 -0.017277462 -0.004387549 -0.0012118117
-0.013512352 0.0011223551 0.0024256727 0.00018239798 -0.0053989836 -0.007126167 0.0007383269 -0.004984259
-0.006261836 0.00078926765 -0.0039388454 -0.004616187 -0.0057968544 -0.0066972184 -0.00553017 -0.0032635326
-0.0052668382 -0.002884495 -0.0030756486 -0.0021246376 -0.0017317013 0.013135413 -0.0012717803 -0.007970064
0.0115208225 0.00039315762 -0.0039843176 0.0090135615 0.0029550376 0.0025885722 -0.0077206497 -0.016094996
-0.019410057 -0.006962687 -0.015282544 -0.019542754 -0.009022425 -0.012582609 -0.014936528 -0.004658247
-0.010578113 -0.011967474 -0.004705816 -0.010966331 -0.012124527 -0.0053572864 -0.009515153 -0.009894059
-0.019101065 -0.011892168 -0.022700578 -0.01974124 -0.01377298 -0.023661226 -0.019334 -0.011554377
-0.026422126 -0.00817803 -0.008507667 -0.008347419 -0.010275551 -0.008962881 -0.009146738 -0.011450828
-0.009459185 -0.010134594 0.0017024879 -0.0055366736 -0.009650063 0.0024019629 -0.006898869 -0.009586885
0.0014107494 -0.0022265615 -0.0034640029 -0.011491445 -0.01356591 -0.015468952 -0.011101369 -0.015215118
-0.01688253 -0.012402289 -0.011941045 -0.013981415 -0.009245295 -0.010784049 -0.012663808 -0.0057129897
-0.010268384 -0.008160591 -0.009299174 -0.0067380443 -0.005472607 0.003154109 -0.0067164814 -0.0069783917
0.0054510194 -0.005300468 -0.0052515212 0.0032471311 -0.0059123645 -0.005264924 -0.015139075 -0.009186257
-0.004886961 -0.008859424 -0.0060561807 -0.003088437 -0.011595173 -0.009470621 -0.009176329 0.0044178944
0.0057901395 0.005868762 0.0040893587 0.005906878 0.0052042333 0.0058441707 0.0075545036 0.005638284
-0.00048677903 -0.0004507721 -0.00031481034 -0.00063841813 -0.00067887036 -0.0005195083 -0.0006456585 -0.0007303724
-0.0005755792 -0.0027330832 -0.003774939 -0.0026908664 -0.0033804425 -0.004435723 -0.0032457781 -0.003530548
-0.0042362167 -0.0037551504 -0.0013989051 -0.0012912942 -0.0013834062 -0.0014515771 -0.0012795841 -0.0012383288
-0.0015563732 -0.0011811511 -0.0012455836 0.000488743 0.0002526017 0.00070034247 0.00013577932 -0.00010891964
0.00036362658 0.00014166164 2.5061105e-05 0.00034222874 0.0012863391 0.0017084285 0.0017056697 0.0011597957
0.0018555212 0.0018398388 0.0016717762 0.0018494145 0.0017124602 0.0014450552 9.6525764e-05 0.0007048292
0.00064759504 -0.00039532868 0.0009099479 0.0013763179 4.853776e-05 0.001443946 -0.0031035633 -0.0041825417
-0.003106533 -0.003622349 -0.00460586 -0.0035112966 -0.0040039285 -0.004203487 -0.004151033 -0.0019552205
-0.0026721545 -0.0018500895 -0.0023562498 -0.0029585515 -0.0021771283 -0.0023020594 -0.0026569695 -0.0022105847
-0.0023973712 -0.001996305 -0.0029787223 -0.0022546717 -0.0019046826 -0.0031687564 -0.0023305693 -0.0019144472
-0.0034639803 0.00012286688 -8.12497e-05 -0.00036309953 0.0002745648 0.00020690702 -0.000106859654 0.00031709493
9.942642e-05 -0.00016268209 -0.0032313995 -0.0048868484 -0.0037998352 -0.0036672954 -0.0050399113 -0.0040559256
-0.003788261 -0.0046156934 -0.004543187 -0.0013932792 -0.0020795139 -0.0013782168 -0.0020369503 -0.002470981
-0.0016566555 -0.0022028899 -0.0019912135 -0.0023440735 -0.0024359443 -0.004039847 -0.002032343 -0.0028266956
00000000: 839e 45ba fc91 a7bb 3f5e a8bb 926b c039
00000010: 1ad8 85bb 3490 85bb 554d 6639 cb03 8dbb
00000020: 9831 81bb d6d1 b3bb 0fd9 58bc 74eb 72bc
00000030: ff1a b2bb 73c3 46bc adf6 72bc 0aa1 e0bb
00000040: 03b9 22bc c19d 33bc 9360 7dbc 7bcf a7ba
00000050: 120d b639 7789 8dbc 6ec5 8fbb a7d5 9eba
00000060: e962 5dbc fd1b 933a 09f8 1e3b 1642 3f39
00000070: f5e9 b0bb 9f82 e9bb 488c 413a ff52 a3bb
00000080: 1630 cdbb dbe6 4e3a 6e11 81bb 6243 97bb
00000090: 8af3 bdbb 5774 dbbb 6e36 b5bb fee0 55bb
000000a0: 7195 acbb cc09 3dbb d290 49bb 813d 0bbb
000000b0: 41fa e2ba ea35 573c deb1 a6ba df94 02bc
000000c0: d5c1 3c3c b920 ce39 e18e 82bb 9ead 133c
000000d0: 4ea9 413b 09a5 293b 81fd fcbb a7d9 83bc
000000e0: d701 9fbc 4027 e4bb a363 7abc 2018 a0bc
000000f0: cbd2 13bc 4a27 4ebc 57b8 74bc 35a4 98bb
00000100: d24f 2dbc 3913 44bc 3f33 9abb 20ac 33bc
00000110: f4a5 46bc 2d8c afbb 72e5 1bbc b11a 22bc
00000120: d679 9cbc 5ed7 42bc 90f6 b9bc 62b8 a1bc
00000130: 11a8 61bc 30d5 c1bc 5662 9ebc 924e 3dbc
00000140: 3773 d8bc 25fd 05bc be63 0bbc 9dc3 08bc
00000150: c95a 28bc 0cd9 12bc 33dc 15bc 419c 3bbc
00000160: b3fa 1abc 910b 26bc 0426 df3a fc6c b5bb
00000170: 4c1b 1ebc 406a 1d3b e80f e2bb 4f12 1dbc
00000180: e5e8 b83a 81eb 11bb 5304 63bb 9d46 3cbc
00000190: 8d43 5ebc 7d71 7dbc 84e2 35bc d548 79bc
000001a0: 3b4d 8abc f832 4bbc 5fa4 43bc 4e12 65bc
000001b0: 9479 17bc 94af 30bc dc7b 4fbc 0834 bbbb
000001c0: b93c 28bc 00b4 05bc 905b 18bc d0ca dcbb
000001d0: 8e53 b3bb 2bb5 4e3b ee15 dcbb feaa e4bb
000001e0: 779e b23b 8caf adbb f414 acbb d2cd 543b
000001f0: 82bc c1bb 6285 acbb e209 78bc f481 16bc
00000200: cd22 a0bb 1e27 11bc ed72 c6bb 6067 4abb
00000210: aef9 3dbc aa2a 1bbc 5058 16bc fcc3 903b
00000220: 36bb bd3b be4e c03b 0700 863b 7c8e c13b
00000230: 4688 aa3b 7580 bf3b c58b f73b 5bc1 b83b
00000240: 6036 ffb9 9b55 ecb9 210d a5b9 845b 27ba
00000250: 38f6 31ba 9d2f 08ba 6941 29ba 7676 3fba
00000260: 77e2 16ba 871d 33bb f864 77bb 3f59 30bb
00000270: 6a8a 5dbb 8b59 91bb 1fb7 54bb c460 67bb
00000280: f6cf 8abb f818 76bb 775b b7ba a540 a9ba
00000290: 6953 b5ba d842 beba b8b7 a7ba 6b4f a2ba
000002a0: 38ff cbba dbd0 9aba da42 a3ba fd1e 003a
000002b0: a06f 8439 3097 373a fc5f 0e39 c96b e4b8
000002c0: 22a5 be39 028b 1439 503a d237 2a6d b339
000002d0: 619a a83a 59ed df3a c790 df3a 4904 983a
000002e0: f634 f33a bf26 f13a 801f db3a 0e68 f23a
000002f0: a174 e03a 0268 bd3a e06d ca38 49c4 383a
00000300: 5ec3 293a 1e44 cfb9 9289 6e3a 9165 b43a
00000310: 0695 4b38 ca42 bd3a 2765 4bbb b40d 89bb
00000320: fa96 4bbb ee64 6dbb c1ec 96bb c81d 66bb
00000330: 6333 83bb 68bd 89bb 6305 88bb 2823 00bb
00000340: 501f 2fbb b47e f2ba 506b 1abb 42e4 41bb
00000350: 27ae 0ebb 26de 16bb 8d20 2ebb 75df 10bb
00000360: 371d 1dbb 71d4 02bb ab36 43bb 1dc3 13bb
00000370: 8ba6 f9ba e9aa 4fbb 77bc 18bb 30ee faba
00000380: f203 63bb d4d5 0039 9a64 aab8 655e beb9
00000390: 77f3 8f39 2ef5 5839 d719 e0b8 c33f a639
000003a0: 2783 d038 a495 2ab9 e3c5 53bb db21 a0bb
000003b0: a806 79bb 0257 70bb d725 a5bb 92e7 84bb
000003c0: 7944 78bb 3e3f 97bb 04df 94bb b19e b6ba
000003d0: 7448 08bb 48a5 b4ba 5b7e 05bb 2ff0 21bb
000003e0: 2224 d9ba 5c5e 10bb 057f 02bb 079f 19bb
000003f0: 5da4 1fbb b160 84bb 0f31 05bb 1540 39bb

bias f4 [16]
1.0828965e-07 8.029802e-09 1.9633929e-07 -9.6331405e-08 -2.0920186e-06 1.0169454e-06 -1.0712018e-06 4.9595354e-07
2.3050913e-07 -6.4805135e-08 8.183404e-08 -6.6647004e-07 -2.0609528e-08 2.5234808e-08 1.7895127e-07 -2.6488683e-08
00000000: dd8c e833 71f3 0932 55d1 5234 c0de ceb3
00000010: 9b64 0cb6 fa7d 8835 37c6 8fb5 ab21 0535
00000020: de81 7734 002b 8bb3 bdbc af33 79e7 32b5
00000030: d508 b1b2 eec3 d832 c025 4034 3b89 e3b2

weight f4 [16]
0.16190076 0.041232765 0.22009027 0.17652157 0.22078712 0.5144717 0.18756387 0.1404119
0.14232063 0.10762941 0.17405652 0.25198296 0.24105671 0.4044017 0.17418154 0.117225915
00000000: 50c9 253e b0e3 283d 585f 613e 12c2 343e
00000010: 0516 623e 6bb4 033f be10 403e 23c8 0f3e
00000020: 80bc 113e cf6c dc3d df3b 323e e903 813e
00000030: 92d7 763e bd0d cf3e a55c 323e 2414 f03d

bias f4 [16]
-0.00892242 -0.024022752 -0.073355205 -0.10446449 -0.07945054 -0.14749803 0.021251593 0.06911194
-0.015563828 -0.022225687 0.019364273 -0.061069414 -0.032964047 -0.15092713 -0.06202487 -0.044001523
00000000: 582f 12bc 5dcb c4bc 413b 96bd 7bf1 d5bd
00000010: f7b6 a2bd b909 17be d217 ae3c 908a 8d3d
00000020: 6dff 7ebc a512 b6bc d3a1 9e3c ec23 7abd
00000030: 4f05 07bd a48c 1abe ca0d 7ebd f13a 34bd

running_mean f4 [16]
-0.03248531 -0.0030501601 -0.0011249979 0.028080888 0.025721949 0.0589659 -0.066949934 -0.06387024
-0.029009413 0.019903181 -0.05825434 -0.00838811 -0.042068403 0.09081852 -0.010816843 -0.02748163
00000000: 510f 05bd 32e5 47bb aa74 93ba e409 e63c
00000010: d6b6 d23c 3a86 713d 0c1d 89bd 66ce 82bd
00000020: 26a5 edbc ff0b a33c 1a9c 6ebd 496e 09bc
00000030: eb4f 2cbd 0fff b93d 2139 31bc 2821 e1bc

running_var f4 [16]
0.008833974 0.001767655 0.06261412 0.0037015884 0.013921043 0.28959677 0.012354731 0.0049435017
0.0071412222 0.010015812 0.012882842 0.00368293 0.013681366 0.19720714 0.0038248177 0.013404075
00000000: 5fbc 103c a9b0 e73a d53b 803d 5996 723b
00000010: 1615 643c 0746 943e 7f6b 4a3c 19fd a13b
00000020: ea00 ea3b 5c19 243c 8e12 533c 505d 713b
00000030: cf27 603c abf0 493e cba9 7a3b c49c 5b3c

weight f4 [16, 16, 3, 3]
0.016576828 0.018435333 -0.020831307 -0.03968061 -0.015529836 0.024248883 -0.025387026 -0.02931815
0.013410036 -0.019107966 0.0032411343 -0.00072562206 0.0040206388 -0.020826288 -0.012922287 0.006884944
-0.0096127605 0.0058842585 0.012418119 0.028450921 -0.0024230592 0.07798878 0.031191096 -0.021551833
0.05562087 0.06119785 -0.023354845 2.5164456e-05 0.052424975 0.038741708 -0.01660474 0.0793468
0.055519193 -0.046156295 0.016733017 -0.031943947 0.04260239 0.01351148 0.059972055 0.028528064
-0.0018591097 0.020540996 0.0668359 0.0676718 -0.018394267 0.05275569 0.09805284 0.026708784
0.03771756 0.09706692 0.07099569 0.08799066 0.09762121 0.09176162 0.021098176 0.011562219
0.00906011 -0.014524579 0.026744265 0.028547287 0.023550455 -0.011794182 0.033490576 0.027347254
0.004402738 -0.011034966 0.03352828 0.024370868 0.0032569303 0.0359395 0.014517013 0.02820238
0.015811568 0.0021500322 0.0049414043 0.03517872 -0.015516569 -0.024197087 0.0047257 -0.013000573
0.03310667 -0.029242638 -0.018103896 0.0074736923 0.0004039262 -0.03371609 0.011575039 0.010890474
0.007965496 0.01433743 -0.025194379 0.014840308 -0.0027971203 0.027870793 -0.020659765 0.014207455
0.016272685 0.024133997 0.029463403 0.03362065 -0.033176646 -0.019304425 0.0552796 0.012573256
0.035990328 0.066344835 0.010116265 0.0645515 0.0038229257 -0.026400335 -0.022971388 -0.018448751
0.034288824 -0.014310394 0.04086566 0.036217667 0.03505081 -0.022016367 0.034071397 0.022030659
0.057037488 0.09890652 0.052038778 -0.05183338 0.035274353 0.010225272 0.027308574 0.020290537
0.018159114 -0.0061351014 0.022860155 -0.011823471 -0.024654815 0.01989425 -0.029867029 -0.008295951
-0.009050547 -0.009647095 0.02133434 0.054763798 -0.013137771 -0.007104745 -0.02502123 0.009659045
0.021283016 0.025846643 0.008138216 0.018737808 0.019877844 0.01755354 0.01099761 0.0129135065
0.018462995 0.0022124175 0.0027536561 0.0030045882 0.0018418193 0.0030965605 0.0027540945 0.0034808638
0.002392752 0.002701938 -0.0071972823 -0.005399607 -0.0049799704 0.004066628 0.0064819166 -0.009041194
0.0020269668 0.0077636074 -0.0038985477 0.0049600466 0.0087729385 0.0062004034 -0.002297344 0.011751147
0.009781543 -0.004144331 0.0048402846 0.0005987454 -0.0144553855 -0.022630082 -0.012928681 -0.011540753
-0.009063224 -0.011989051 -0.008301678 -0.010510188 -0.016843572 -0.025230415 -0.007880534 -0.008696457
-0.021160915 0.004834824 0.0038882305 0.0007728794 0.0027474298 0.007570105 0.013917405 0.009948159
0.005717828 0.013479583 0.011851314 0.0062938933 0.014019225 0.009186463 0.005789598 -0.0035977126
0.0031068174 0.0052736895 -0.0039789584 0.005483236 0.005087101 -0.0035109173 0.0020978488 0.0039468785
0.0123270275 0.013431896 0.010731197 0.014717797 0.011675767 0.014128087 0.01449102 0.015959501
0.01101077 -0.00092215714 -0.01345681 -0.0066298577 -0.001502812 -0.010943507 -0.007034634 0.0011826763
-0.010120582 -0.0064376537 0.013687325 0.016642364 0.007258548 0.02040273 0.014084874 0.008904495
0.019394657 0.01365977 0.0072173625 -0.00866359 -0.02423509 -0.024463475 -0.0025192867 -0.008132281
-0.0077921287 0.0033896586 -0.013470489 -0.0047124983 0.016451964 0.021244934 0.014217423 0.021735981
00000000: 21cc 873c b205 973c 6ba6 aabc 2388 22bd
00000010: da70 7ebc 98a5 c63c 74f8 cfbc 9e2c f0bc
00000020: c5b5 5b3c 4f88 9cbc 3669 543b ac37 3eba
00000030: 90bf 833b e49b aabc 00b8 53bc 199b e13b
00000040: d77e 1dbc bdd0 c03b 5e75 4b3c e811 e93c
00000050: 30cc 1ebb 95b8 9f3d 7884 ff3c 788d b0bc
00000060: b6d2 633d 99aa 7a3d a952 bfbc 4218 d337
00000070: 92bb 563d a0af 1e3d aa06 88bc 9380 a23d
00000080: 1868 633d 620e 3dbd ae13 893c a8d7 02bd
00000090: d87f 2e3d 415f 5d3c 42a5 753d b0b3 e93c
000000a0: 5fad f3ba 9745 a83c 43e1 883d 8397 8a3d
000000b0: 93af 96bc 5a16 583d edcf c83d 61cc da3c
000000c0: ba7d 1a3d 05cb c63d 3066 913d 7234 b43d
000000d0: a1ed c73d 84ed bb3d 15d6 ac3c 766f 3d3c
000000e0: db70 143c 80f8 6dbc ca16 db3c 00dc e93c
000000f0: e2ec c03c 623c 41bc 6a2d 093d 5907 e03c
00000100: d844 903b 01cc 34bc f354 093d 6aa5 c73c
00000110: 3972 553b 4c35 133d c4d8 6d3c ad08 e73c
00000120: 4387 813c 8ee7 0c3b 81eb a13b 9017 103d
00000130: 3539 7ebc f838 c6bc 0bda 9a3b 5b00 55bc
00000140: dc9a 073d 428e efbc 9f4e 94bc e0e5 f43b
00000150: 0fc6 d339 e219 0abd 3ba5 3d3c f56d 323c
00000160: b681 023c 8ae7 6a3c 7164 cebc c324 733c
00000170: e44f 37bb 4a51 e43c ab3e a9bc 63c6 683c
00000180: 4b4e 853c a9b4 c53c 3c5d f13c cfb5 093d
00000190: 3ce4 07bd 5024 9ebc dd6c 623d 0f00 4e3c
000001a0: 986a 133d cddf 873d b1be 253c 9433 843d
000001b0: 0d8a 7a3b 8445 d8bc 7e2e bcbc d621 97bc
000001c0: 7072 0c3d 2576 6abc c062 273d fa58 143d
000001d0: 7091 0f3d ab5b b4bc 738e 0b3d a479 b43c
000001e0: 24a0 693d 808f ca3d 9d26 553d 3d4f 54bd
000001f0: d77b 103d e687 273c 3bb6 df3c 5738 a63c
00000200: 6cc2 943c f608 c9bb 3845 bb3c 3bb7 41bc
00000210: e5f8 c9bc 44f9 a23c b3ab f4bc beeb 07bc
00000220: bf48 14bc d90e 1ebc 5bc5 ae3c 0150 603d
00000230: ce3f 57bc ecce e8bb 53f9 ccbc f940 1e3c
00000240: b859 ae3c 57bc d33c 2756 053c 0880 993c
00000250: dcd6 a23c 71cc 8f3c 522f 343c 2c93 533c
00000260: b53f 973c 35fe 103b af76 343b a0e8 443b
00000270: 3369 f13a aaef 4a3b 0a7e 343b 341f 643b
00000280: b8cf 1c3b ff12 313b 2ed7 ebbb 30ef b0bb
00000290: 052f a3bb 5941 853b 4266 d43b 8421 14bc
000002a0: dcd6 043b dc65 fe3b c77e 7fbb e387 a23b
000002b0: 5fbc 0f3c c12c cb3b 098f 16bb e287 403c
000002c0: c442 203c 2bcd 87bb 409b 9e3b 20f5 1c3a
000002d0: 48d6 6cbc b962 b9bc d2d2 53bc 6d15 3dbc
000002e0: eb7d 14bc b96d 44bc c303 08bc ec32 2cbc
000002f0: 88fb 89bc 04b0 cebc 5b1d 01bc 967b 0ebc
00000300: a859 adbc 716d 9e3b afd1 7e3b 0f9b 4a3a
00000310: 390e 343b a50e f83b d405 643c 9afd 223c
00000320: 9e5c bb3b 78d9 5c3c 042c 423c 013d ce3b
00000330: e4b0 653c d282 163c abb6 bd3b 9ac7 6bbb
00000340: bf9b 4b3b eace ac3b ec61 82bb b8ac b33b
00000350: b2b1 a63b 6b17 66bb 107c 093b d154 813b
00000360: 4df7 493c 7511 5c3c e7d1 2f3c ea22 713c
00000370: b74b 3f3c 7e79 673c be6b 6d3c 80bd 823c
00000380: 8466 343c ebbc 71ba f479 5cbc 473f d9bb
00000390: 01fa c4ba 654c 33bc c982 e6bb 0804 9b3a
000003a0: ccd0 25bc f4f2 d2bb cd40 603c 9155 883c
000003b0: 1dd9 ed3b a023 a73c 3ec4 663c 29e4 113c
000003c0: 8be1 9e3c 3acd 5f3c a07f ec3b bbf1 0dbc
000003d0: ab88 c6bc a067 c8bc 9e1a 25bb 423d 05bc
000003e0: 1d55 ffbb 0925 5e3b 53b3 5cbc 4d6b 9abb
000003f0: 45c6 863c db09 ae3c 32f0 683c a80f b23c

bias f4 [16]
-1.0534541e-06 9.54694e-09 1.9765794e-07 -2.0588193e-06 -4.2663125e-08 -5.7633525e-08 -1.8607456e-07 -1.427707e-07
-1.5730974e-06 3.1074634e-07 1.2998073e-06 7.3399013e-07 8.804952e-07 -3.8785842e-07 2.064818e-06 1.3648447e-07
00000000: 6864 8db5 e303 2432 cd3b 5434 3f2a 0ab6
00000010: 9a3c 37b3 bb88 77b3 c9cb 47b4 834c 19b4
00000020: 3723 d3b5 a7d4 a634 0a75 ae35 6b07 4535
00000030: 2b5b 6c35 db3a d0b4 4e91 0a36 918c 1234

weight f4 [16]
0.5778026 0.24809788 0.32714793 0.27866164 0.15862973 0.19168139 0.11285369 0.15019363
0.28229517 0.19351979 0.35167882 0.3391031 0.31482628 0.16998696 0.36355868 0.25398076
00000000: dfea 133f 5f0d 7e3e ef7f a73e bdac 8e3e
00000010: d56f 223e 2048 443e d61f e73d 5ccc 193e
00000020: fe88 903e 0d2a 463e 3f0f b43e ec9e ad3e
00000030: e930 a13e 1011 2e3e 5d24 ba3e c409 823e

bias f4 [16]
-0.2938671 -0.05001913 -0.13744798 -0.006882379 -0.04173365 -0.14688024 -0.05505912 -0.029080806
0.09137301 -0.0036643785 0.036024015 -0.03621177 0.012014964 -0.022897184 0.0027823371 0.095145606
00000000: c075 96be dce0 4cbd 2abf 0cbe 9485 e1bb
00000010: e7f0 2abd c667 16be ac85 61bd df3a eebc
00000020: c621 bb3d 1226 70bb eb8d 133d cb52 14bd
00000030: 69da 443c e092 bbbc df57 363b b3db c23d

running_mean f4 [16]
0.14403027 0.019878194 0.041541915 0.015367857 -0.020981729 0.048416752 -0.008596592 -0.0051408843
-0.010565159 -0.031550925 -0.01964057 -0.018658075 -0.0076531875 -0.006798501 0.0040390496 -0.026623618
00000000: ac7c 133e 98d7 a23c db27 2a3d 77c9 7b3c
00000010: e0e1 abbc a550 463d b8d8 0cbc dd74 a8bb
00000020: 7d19 2dbc 8b3b 01bd 43e5 a0bc d2d8 98bc
00000030: 97c7 fabb f6c5 debb 015a 843b c619 dabc

running_var f4 [16]
0.16366197 0.012035054 0.012091076 0.00647874 0.0052630394 0.058210094 0.0015486443 0.006176859
0.016256358 0.006613622 0.016530298 0.008400133 0.0060828915 0.0057199923 0.0037547103 0.024692856
00000000: 0197 273e ad2e 453c a619 463c 9c4b d43b
00000010: 9375 ac3b b56d 6e3d e1fb ca3a 4067 ca3b
00000020: 0e2c 853c 15b7 d83b 8c6a 873c b6a0 093c
00000030: fe52 c73b c66e bb3b 9611 763b ac48 ca3c

weight f4 [16, 16, 3, 3]
-0.0047258493 -0.007407012 -0.006725519 -0.0039229537 -0.006579657 -0.0060703717 -0.0040611895 -0.006720985
-0.006148736 0.0007234992 0.0007419334 0.0008574166 0.0005986464 0.0006263737 0.000706258 0.00038676782
0.00039190068 0.00044938014 -0.0013934554 -0.0025395725 -0.0030779457 -0.0006115744 -0.0018108279 -0.0024138184
-0.0008797772 -0.0021000854 -0.0025615129 3.586306e-05 -0.0009886122 -0.0016686346 -0.00030118445 -0.0010014249
-0.0017517031 -8.0012e-05 -0.000600346 -0.0015444008 0.0007334565 0.0008787015 0.0009081554 0.00069364446
0.00082606176 0.0008473551 0.0006182233 0.00074592885 0.0007573715 -0.00028977563 -0.0011307538 -0.0012388623
1.897466e-05 -0.0008723792 -0.0010626225 3.817443e-05 -0.00088148663 -0.0010371862 0.00018534105 0.00026220016
0.00024304871 0.00011851762 0.00020495475 0.00020999099 3.3057826e-05 0.0001230656 0.00014454496 -0.00037960135
-0.00029849063 7.519824e-05 -0.00013809849 1.8598123e-05 0.00041544487 -0.00028119277 -7.57776e-05 0.00034860807
0.0013835648 0.0020584671 0.0014712205 0.0014932585 0.0020901803 0.0014947096 0.0011807608 0.0016919655
0.0011807237 0.00073091884 0.0010789084 0.0007286606 0.00080266263 0.0011925192 0.0007900696 0.00058041624
0.0010068998 0.00068505877 0.0010074768 0.001585784 0.00097446877 0.0010930077 0.0016184761 0.000959324
0.00079044566 0.0012399006 0.0006503611 0.0009056241 0.0012178876 0.0010815774 0.00083978765 0.0011614701
0.001020409 0.00047923246 0.000805804 0.0006996782 -0.0005904539 -9.61935e-05 -0.00021207507 -0.000509508
-8.16209e-05 -0.00023377001 -0.0008283219 -0.0005120417 -0.00057021354 0.00036346543 0.0005745281 0.00045408713
0.00032208697 0.00052799244 0.00039645238 0.0002085592 0.00039776307 0.00027617352 -0.0027374742 -0.0038326972
-0.0024408333 -0.003369656 -0.004377885 -0.003054078 -0.0026591024 -0.0035329463 -0.0026267297 0.0014036911
0.0021734198 0.0015277858 0.0015300787 0.0022717253 0.0015873727 0.0012631527 0.001912327 0.001300799
0.008923056 0.0014278579 -0.017593853 0.018115195 0.004003655 -0.0129983155 0.01723738 0.0070995046
-0.011308551 -0.00022274243 0.0018628737 0.00064790045 0.003682273 0.0029807913 0.003347817 0.0020196473
0.0024923813 0.0021869561 0.00044581183 -0.00580202 -0.01195445 0.0061148736 0.00090991636 -0.007931534
0.0053509073 0.00072137243 -0.01005171 0.0017138872 0.0011011615 -0.004274695 0.0015704077 0.0021601787
-0.0041188775 0.0022548123 0.0022128832 -0.0037368787 -0.00095204473 -0.00025098427 0.00067519007 -0.0009145701
-0.00034526462 0.0005130894 -0.0013715723 -0.0007593554 0.00019244397 0.004128513 -0.0010217655 -0.004501286
0.006022427 0.00087098795 -0.002914989 0.0059989262 0.0006992882 -0.003241722 -2.6596805e-05 0.0008161336
0.0015744334 -9.124622e-05 0.00073693815 0.0015668096 -9.254087e-06 0.00082505064 0.0016145952 -0.0026118208
-0.0050098156 -0.005097647 -0.0008907773 -0.0031192154 -0.0037953672 -0.0012781866 -0.0034015859 -0.003874276
-6.3329986e-05 0.0016836291 0.0046217483 -0.00034238616 0.0013675897 0.0047144038 0.0003805186 0.0021196015
0.0053620534 -0.0005295586 0.0008960748 0.0016183341 -0.0008792816 0.00047212336 0.0014818667 -0.00046856966
0.0009052156 0.0019319657 0.0006866186 0.002977622 0.005408089 0.00040902308 0.0022079945 0.00566965
0.0012037406 0.0034959402 0.0064157303 0.0034397193 0.0052773724 0.0055412245 0.0042599645 0.0022838668
0.0068155536 0.0048278263 0.0035871034 0.0058236117 0.00018083394 0.0011232503 0.0032439062 -0.00028264525
00000000: 4cdb 9abb 85b6 f2bb be61 dcbb 1f8c 80bb
00000010: 2a9a d7bb f8e9 c6bb ba13 85bb b53b dcbb
00000020: 567b c9bb 36a9 3d3a 4f7e 423a 41c4 603a
00000030: 7bee 1c3a 3a33 243a 2c24 393a 19c7 ca39
00000040: 0578 cd39 c89a eb39 9ba4 b6ba f56e 26bb
00000050: 5cb7 49bb 1052 20ba 4d59 edba 2731 1ebb
00000060: d9a0 66ba 96a1 09bb 0edf 27bb ab6b 1638
00000070: 5294 81ba 16b6 daba 4be8 9db9 3e42 83ba
00000080: 6799 e5ba 1ecc a7b8 8a60 1dba 7e6d caba
00000090: 6f45 403a a958 663a 4711 6e3a b1d5 353a
000000a0: 118c 583a 0a21 5e3a 4310 223a 708a 433a
000000b0: 578a 463a 07ed 97b9 cd35 94ba 5261 a2ba
000000c0: c62b 9f37 61b0 64ba b247 8bba 7b1d 2038
000000d0: 9113 67ba 32f2 87ba 1c58 4239 e977 8939
000000e0: e4da 7e39 aa8c f838 1fe9 5639 0731 5c39
000000f0: 92a7 0a38 2c0b 0139 fe90 1739 3b05 c7b9
00000100: bc7e 9cb9 bfb3 9d38 88ce 10b9 2a03 9c37
00000110: 11d0 d939 0e6d 93b9 caea 9eb8 62c5 b639
00000120: bb58 b53a 59e7 063b f8d5 c03a 71b9 c33a
00000130: 68fb 083b 22ea c33a c2c3 9a3a f1c4 dd3a
00000140: 83c2 9a3a 229b 3f3a 296a 8d3a 9603 3f3a
00000150: c769 523a 4e4e 9c3a ac1c 4f3a 1327 183a
00000160: f3f9 833a 8495 333a 500d 843a 15da cf3a
00000170: 7e73 7f3a 4143 8f3a 0c23 d43a 257b 7b3a
00000180: e935 4f3a 2984 a23a ff7c 2a3a 6867 6d3a
00000190: 87a1 9f3a b7c3 8d3a 3225 5c3a 783c 983a
000001a0: 3fbf 853a 7e41 fb39 973c 533a 9c6a 373a
000001b0: b1c8 1aba 7ebb c9b8 7860 5eb9 8190 05ba
000001c0: e32b abb8 2920 75b9 be23 59ba 893a 06ba
000001d0: 627a 15ba 818f be39 ee9b 163a 8b12 ee39
000001e0: c8dd a839 f968 0a3a f0da cf39 afb0 5a39
000001f0: db8a d039 62cb 9039 3267 33bb fd2d 7bbb
00000200: 63f6 1fbb 72d5 5cbb 5c74 8fbb ed26 48bb
00000210: 5644 2ebb 0189 67bb 3625 2cbb 0ffc b73a
00000220: ef6f 0e3b fc3f c83a ec8c c83a 3ae1 143b
00000230: 640f d03a 5f90 a53a 0ca7 fa3a 927f aa3a
00000240: 0232 123c f626 bb3a fc20 90bc 5166 943c
00000250: 1831 833b e3f6 54bc 6835 8d3c f6a2 e83b
00000260: 8047 39bc f78f 69b9 ab2b f43a ddd7 293a
00000270: 4a52 713b 6159 433b 0d67 5b3b 0f5c 043b
00000280: 3857 233b 0953 0f3b dabb e939 df1e bebb
00000290: 99dc 43bc 475f c83b 7487 6e3a 44f3 01bc
000002a0: aa56 af3b 7c1a 3d3a edaf 24bc 83a4 e03a
000002b0: d954 903a be12 8cbb 23d6 cd3a c991 0d3b
000002c0: a6f7 86bb 79c5 133b 0506 113b 6ce6 74bb
000002d0: a492 79ba 8a96 83b9 3dff 303a c3bf 6fba
000002e0: a204 b5b9 d980 063a 54c6 b3ba 7a0f 47ba
000002f0: c9ca 4939 7a48 873b c3ec 85ba 867f 93bb
00000300: c857 c53b 0353 643a 6609 3fbb a492 c43b
00000310: 7050 373a 1273 54bb 341c dfb7 ccf1 553a
00000320: 385d ce3a 715b bfb8 152f 413a 685d cd3a
00000330: 0042 1bb7 3648 583a d3a0 d33a 152b 2bbb
00000340: 6129 a4bb 2a0a a7bb 0d83 69ba c06b 4cbb
00000350: b2bb 78bb d388 a7ba 24ed 5ebb 91e7 7dbb
00000360: 07d0 84b8 38ad dc3a 0972 973b 4b82 b3b9
00000370: b240 b33a 497b 9a3b 5880 c739 03e9 0a3b
00000380: 2ab4 af3b 13d2 0aba 90e6 6a3a 481e d43a
00000390: 977f 66ba 5387 f739 323b c23a 5baa f5b9
000003a0: fe4b 6d3a 033a fd3a 32fe 333a 3524 433b
000003b0: 5736 b13b 2672 d639 00b4 103b 79c8 b93b
000003c0: d5c6 9d3a 251c 653b 0c3b d23b ea6c 613b
000003d0: cfed ac3b 2993 b53b 2c97 8b3b edac 153b
000003e0: 0255 df3b be32 9e3b 9c15 6b3b ffd3 be3b
000003f0: 3e9e 3d39 073a 933a b797 543b 0130 94b9

bias f4 [16]
1.11246436e-07 1.9104338e-07 -3.8013604e-07 -1.921222e-06 -3.0704744e-08 -1.9394685e-07 4.3435182e-07 4.596819e-07
1.5885225e-07 -1.503228e-07 2.7620717e-07 1.3055084e-07 1.15308616e-07 -2.48681e-08 1.8365595e-06 -1.0248308e-06
00000000: 60e6 ee33 9b21 4d34 8015 ccb4 58ee 00b6
00000010: 39e0 03b3 b43f 50b4 dc30 e934 33ca f634
00000020: f990 2a34 6b68 21b4 a049 9434 8b2d 0c34
00000030: 959f f733 889d d5b2 b47f f635 eb8c 89b5

weight f4 [16]
0.052501854 0.09674802 0.19384326 0.5434801 0.15417819 0.19366121 0.3129111 0.110114135
0.09782702 0.05135122 0.09750179 0.07797049 0.17087746 0.03260043 0.23732899 0.41624233
00000000: 2f0c 573d d323 c63d d97e 463e 8321 0b3f
00000010: e3e0 1d3e 204f 463e e235 a03e 8583 e13d
00000020: 8859 c83d a855 523d 05af c73d feae 9f3d
00000030: 80fa 2e3e 0788 053d 5f06 733e b71d d53e

bias f4 [16]
0.008351893 -0.040898357 0.030773705 -0.23215309 0.05070524 -0.004160153 -0.08303795 0.056014657
0.0037133782 -0.003300545 0.04476788 0.033532575 0.099344596 -0.013203508 0.06082143 -0.014807499
00000000: 61d6 083c 0985 27bd 2319 fc3c 8ab9 6dbe
00000010: 4cb0 4f3d e551 88bb cd0f aabd a06f 653d
00000020: 265c 733b f54d 58bb 865e 373d 7459 093d
00000030: 2e75 cb3d 8753 58bc e41f 793d 279b 72bc

running_mean f4 [16]
-0.0013270148 0.012219416 -0.0121715255 0.16322738 -0.0084706675 -0.033927012 0.11407919 -0.008632506
-0.026317317 0.0076135835 -0.0043023373 -0.0040377 -0.0131945 -0.014356563 -0.00744632 0.008719024
00000000: 3aef adba f233 483c 146b 47bc 1425 273e
00000010: 8ec8 0abc 0df7 0abd 5aa2 e93d 5b6f 0dbc
00000020: 6a97 d7bc 5e7b f93b 9ffa 8cbb af4e 84bb
00000030: be2d 58bc ca37 6bbc 4200 f4bb 3dda 0e3c

running_var f4 [16]
0.001787113 0.0012986386 0.017988011 0.06199203 0.01695694 0.019717975 0.012193561 0.011215071
0.0063092173 0.0019606524 0.006918008 0.00549708 0.025193704 0.00023543142 0.029280407 0.022765698
00000000: 903d ea3a 1537 aa3a 985b 933c 5beb 7d3d
00000010: 48e9 8a3c 9787 a13c 80c7 473c 6bbf 373c
00000020: 8dbd ce3b 4a7e 003b 75b0 e23b d920 b43b
00000030: 0763 ce3c 24de 7639 77dd ef3c 217f ba3c

weight f4 [16, 16, 3, 3]
0.0014465207 0.0015717006 0.001728156 0.0015426653 0.0016876434 0.0018217807 0.0017527287 0.0019022282
0.0020024336 -0.0003631602 -0.00011432518 -0.00064752647 -8.155583e-05 0.0003777299 -0.00030187576 -0.00015366974
0.00027579977 -0.00024775084 0.0059657474 0.0060345875 0.006836486 0.0061293133 0.0062488657 0.007026534
0.006275542 0.0064459606 0.0071337214 -0.0033993 -0.018466342 -0.022364615 0.0010819003 -0.014779029
-0.019705482 -0.005937072 -0.014538416 -0.022071498 0.0057070563 0.0062597846 0.0066733295 0.005995429
0.006651606 0.006908126 0.006497026 0.007089113 0.007358502 -0.009209947 -0.011325125 -0.016123064
-0.010781294 -0.01255128 -0.017352453 -0.009739034 -0.011229548 -0.016812246 -0.011495674 -0.012199541
-0.012170821 -0.009815904 -0.0108364755 -0.0108803315 -0.008989024 -0.0100889625 -0.009756409 0.005048646
0.005474013 0.005766097 0.0052055405 0.005620063 0.005865397 0.0057051564 0.0060801296 0.00630549
-0.007963323 -0.008601868 -0.008976927 -0.00818342 -0.008918091 -0.009477964 -0.008500724 -0.009233741
-0.009727951 0.000922374 0.00090910867 0.0006098217 0.0010230731 0.0009924187 0.00068307226 0.0010372074
0.0010612997 0.00080447365 0.0037959581 0.0040695574 0.0043606963 0.003906853 0.0041936683 0.00440778
0.0041671693 0.0043766336 0.0046137515 0.003328402 0.0035811483 0.0038407147 0.0034750379 0.003813799
0.0039733 0.003827466 0.0040963152 0.0043252474 0.006858945 0.007415936 0.008016915 0.0068386355
0.0074223867 0.007921947 0.0070108115 0.0074530304 0.008068541 -0.0036290193 -0.0034687314 -0.002152689
-0.0037601131 -0.0037343933 -0.0024645554 -0.003609938 -0.0036294118 -0.0025444785 0.003581939 0.0046175607
0.0056153066 0.0034481485 0.0050353743 0.006272737 0.0037364513 0.005186019 0.0058071767 0.0022357323
0.0029520653 0.00211854 -0.00092011504 -0.0001118839 0.0031675678 -0.00029772046 0.0015833674 0.003479691
-0.0017860149 -0.0017884778 0.0002059341 -0.003632531 -0.004163686 -0.0019721196 -0.0025023476 -0.002761346
-0.0007197532 0.010176347 0.028129224 0.0224961 0.013348387 0.018089272 0.01951681 0.011767982
0.014022171 0.0120327845 0.012828164 0.017165463 0.015099252 0.0019842 0.007451084 0.011782057
0.0037547576 0.009626339 0.014423047 0.051044334 0.04444268 -0.010409338 0.09586009 0.085967764
0.02721374 0.068381846 0.053155255 0.021730283 0.002535675 0.00327043 0.0061826548 0.00018381508
0.0012168342 0.004937519 0.00014065919 0.0023750605 0.0062877084 -0.052103046 -0.029454814 0.009665437
-0.03134532 -0.004672537 0.036554676 -0.007773333 0.026695423 0.034865748 0.005133985 0.05834886
-0.02686274 0.020490482 0.059499055 -0.018207982 0.020379743 0.032023147 0.007883909 0.0009851833
0.0014655852 0.004829954 -0.0028542494 -5.4026244e-05 0.0017753724 -0.00090814853 -0.00017778174 0.0041518174
-0.015872536 -0.0027517113 -0.02422248 -0.0036660088 0.007086996 -0.019424008 -0.014721601 -0.0111205205
-0.03027804 -0.0033089742 0.003168774 0.004705403 -0.0040059537 0.00038253877 0.0045367707 -0.002902502
0.0043467144 0.0057856617 0.0058430736 -0.002959381 0.007253756 -0.0006901412 -0.009845808 0.00011123342
0.0028609924 -0.00086723914 0.005220958 -0.002272154 -0.0012426127 0.0007798607 -0.0041486155 -0.003277895
-0.00059662334 -0.0029516823 -0.0018549463 0.0009011776 0.006031604 0.007414466 0.010706608 0.0024166452
00000000: 2e99 bd3a 8501 ce3a 4b83 e23a 4233 ca3a
00000010: ea33 dd3a d1c8 ee3a d1bb e53a 3054 f93a
00000020: 433b 033b 8966 beb9 ddc1 efb8 c4be 29ba
00000030: f408 abb8 0d0a c639 1445 9eb9 6822 21b9
00000040: 3899 9039 8ee4 81b9 517c c33b cabd c53b
00000050: 9a04 e03b 68d8 c83b 49c3 cc3b d73e e63b
00000060: 10a3 cd3b a338 d33b fec1 e93b cac6 5ebb
00000070: ba46 97bc ff35 b7bc 8dce 8d3a be23 72bc
00000080: 646d a1bc c58b c2bb 8932 6ebc 49cf b4bc
00000090: 4202 bb3b e11e cd3b f2ab da3b 4e75 c43b
000000a0: b7f5 d93b 905d e23b 01e5 d43b ca4b e83b
000000b0: 971f f13b 51e5 16bc 048d 39bc 8414 84bc
000000c0: 06a4 30bc e2a3 4dbc bb26 8ebc 7890 1fbc
000000d0: 23fc 37bc d6b9 89bc 5a58 3cbc 95e0 47bc
000000e0: 2068 47bc e3d2 20bc 798b 31bc 6b43 32bc
000000f0: b346 13bc 2d4c 25bc 58d9 1fbc 1d6f a53b
00000100: 595f b33b 87f1 bc3b 3d93 aa3b 8128 b83b
00000110: 8432 c03b 52f2 ba3b d33b c73b 499e ce3b
00000120: 9978 02bc d9ee 0cbc f613 13bc c013 06bc
00000130: 2f1d 12bc 7649 1bbc 9f46 0bbc 1e49 17bc
00000140: fc61 1fbc 79cb 713a 4051 6e3a 71dc 1f3a
00000150: a318 863a 0c14 823a 3410 333a e8f2 873a
00000160: 4f1b 8b3a 50e3 523a 9cc5 783b ec59 853b
00000170: 2ce4 8e3b 0f05 803b 0a6b 893b 236f 903b
00000180: c08c 883b dd69 8f3b f42e 973b 5221 5a3b
00000190: b3b1 6a3b 80b4 7b3b 76bd 633b eef0 793b
000001a0: 7532 823b 39d6 7a3b 623a 863b ceba 8d3b
000001b0: 00c1 e03b 6101 f33b 6159 033c a216 e03b
000001c0: 7e37 f33b 0ecb 013c f3ba e53b 8d38 f43b
000001d0: ea31 043c d7d4 6dbb a853 63bb 2114 0dbb
000001e0: 3b6c 76bb b9bc 74bb 6184 21bb b694 6cbb
000001f0: 6ddb 6dbb 44c1 26bb f7be 6a3b e84e 973b
00000200: 9b00 b83b 55fa 613b c8ff a43b 888b cd3b
00000210: 40df 743b 7bef a93b 214a be3b 5d85 123b
00000220: 7077 413b 34d7 0a3b e033 71ba 36a3 eab8
00000230: f896 4f3b 5d17 9cb9 fe88 cf3a 870b 643b
00000240: b718 eaba 5b6b eaba 04f0 5739 c20f 6ebb
00000250: 886f 88bb ad3e 01bb 6dfe 23bb b3f7 34bb
00000260: d2ad 3cba b1ba 263c 426f e63c be49 b83c
00000270: 31b3 5a3c f42f 943c b8e1 9f3c 7ece 403c
00000280: 3fbd 653c 2825 453c 382d 523c 969e 8c3c
00000290: da62 773c 5a09 023b 3928 f43b 8709 413c
000002a0: 6112 763b cbb7 1d3c a54e 6c3c dd13 513d
000002b0: 8709 363d ee8b 2abc 4b52 c43d de0f b03d
000002c0: 59ef de3c c80b 8c3d 53b9 593d b503 b23c
000002d0: 912d 263b b654 563b de97 ca3b 7cbe 4039
000002e0: 2e7e 9f3a e9ca a13b ea7d 1339 e7a6 1b3b
000002f0: 1f09 ce3b 016a 55bd 394b f1bc c85b 1e3c
00000300: f363 00bd 151c 99bb 5bba 153d 72b7 febb
00000310: 5cb0 da3c 63cf 0e3d fd3a a83b 37ff 6e3d
00000320: 400f dcbc a8db a73c 48b5 733d e828 95bc
00000330: 6bf3 a63c b42a 033d 832b 013c 4421 813a
00000340: e118 c03a 9744 9e3b 5c0e 3bbb 3d9a 62b8
00000350: 9db3 e83a d110 6eba ec6a 3ab9 f80b 883b
00000360: 1f07 82bc 0e56 34bb 396e c6bc 6c41 70bb
00000370: 083a e83b 191f 9fbc df32 71bc d832 36bc
00000380: a709 f8bc 60db 58bb 35ab 4f3b c82f 9a3b
00000390: 6044 83bb 7c8f c839 31a9 943b e737 3ebb
000003a0: e26e 8e3b a695 bd3b 4177 bf3b 2df2 41bb
000003b0: eab0 ed3b 98ea 34ba 5050 21bc fd45 e938
000003c0: 7d7f 3b3b 6f57 63ba 9214 ab3b 6be8 14bb
000003d0: 2adf a2ba 916f 4c3a 1cf1 87bb f4d1 56bb
000003e0: b766 1cba 0371 41bb ab21 f3ba 013d 6c3a
000003f0: c3a4 c53b 0cf5 f23b c56a 2f3c 9460 1e3b

bias f4 [16]
6.743707e-07 -2.592489e-06 -3.4832956e-07 5.2341664e-09 -8.9358316e-08 -2.4570554e-08 -1.5778047e-08 -5.9133598e-08
-2.5397054e-07 -6.574911e-08 1.0967727e-06 6.3647224e-07 2.3616927e-08 2.7280794e-07 4.1033036e-07 2.938951e-10
00000000: 6706 3535 9ffa 2db6 0d02 bbb4 37d8 b331
00000010: 41e5 bfb3 380f d3b2 4b88 87b2 14fa 7db3
00000020: 7259 88b4 f531 8db3 d334 9335 0ada 2a35
00000030: 2cde ca32 7076 9234 604b dc34 0f92 a12f

weight f4 [16]
0.13606083 0.39050218 0.14448416 0.022668052 0.08090752 0.029314373 0.009294095 0.31748924
0.12003555 0.13360813 0.44827938 0.26081413 0.037922964 0.13698101 0.06495614 -0.00039436689
00000000: 8853 0b3e e7ef c73e a8f3 133e 5ab2 b93c
00000010: d8b2 a53d b224 f03c 4346 183c f38d a23e
00000020: 33d5 f53d 92d0 083e e084 e53e 6e89 853e
00000030: 1c55 1b3d c044 0c3e ba07 853d 07c3 ceb9

bias f4 [16]
0.007259607 -0.20855844 -0.0005884403 -0.011229269 -0.0077888314 0.017920732 -0.017106798 -0.02795225
0.032180604 -0.06508082 -0.14272693 0.02354239 -0.028647404 0.023536835 0.006626874 -0.007901009
00000000: ffe1 ed3b 5890 55be 8f41 1aba f8fa 37bc
00000010: 7439 ffbb 80ce 923c 8e23 8cbc 1efc e4bc
00000020: cfcf 033d 1849 85bd 0227 12be f8db c03c
00000030: f6ad eabc 52d0 c03c 4026 d93b 3c73 01bc
