epoch60+datasetplus.pt (torch, 208345 bytes, 100 tensors)

weight f4 [16, 3, 3, 3]
0	0xbc0c9703	-0.008580926
1	0xbc38c104	-0.011276487
2	0xbc4b80ae	-0.012420816
3	0xbb2c7e3a	-0.0026320354
4	0xbad94a19	-0.0016577869
5	0x3bd3c6c3	0.006462903
6	0xbca2d232	-0.01987562
7	0xbc2ae8ba	-0.010431463
8	0x3b80a202	0.003925563
9	0x3cab964a	0.020945687
10	0x3c88dcaa	0.016706783
11	0x3cb9facd	0.022702599
12	0x3cf77bdc	0.030210428
13	0x3cee6666	0.029101562
14	0x3d1871d0	0.037217915
15	0x3cba6d83	0.022757297
16	0x3cd95634	0.026530363
17	0x3d0970d0	0.033554852
18	0x3cb8c50e	0.0225549
19	0x3cb3db1e	0.02195507
20	0x3cd28316	0.025697272
21	0x3cff0e4d	0.031134749
22	0x3cf8df65	0.03037996
23	0x3d12a551	0.03580219
24	0x3cdfbf3f	0.027312873
25	0x3d019a4b	0.031641286
26	0x3d1105f7	0.03540608
27	0xbd23ee89	-0.040022407
28	0x3d91fb21	0.07127977
29	0xbcfaaf21	-0.030601086
30	0x3cfcdb9d	0.030866439
31	0x3d9c07f5	0.07618705
32	0x3d3c8246	0.046022676
33	0x3c9b9c2f	0.018995373
34	0x3d7158e3	0.05892266
35	0x3ce80449	0.028322356
36	0x3c939a25	0.018017838
37	0x3d869a23	0.06572368
38	0xbde5f9e6	-0.11229305
39	0xbd987d5d	-0.07445786
40	0x3db12a07	0.08650594
41	0xbc9f0c06	-0.019414913
42	0xbd1b22da	-0.037875034
43	0x3c1affb5	0.009460379
44	0xbbc04623	-0.005867736
45	0x3c971db2	0.018446777
46	0x3db9ce69	0.09072573
47	0xbcc4686d	-0.023975575
48	0x3bc22e09	0.005925898
49	0x3dbc4edf	0.09194731
50	0x3ce684f7	0.028139574
51	0xbc9bf4c0	-0.019037604
52	0x3d3847d3	0.044990372
53	0x3ad5d63f	0.0016314461
54	0xbd18bc20	-0.037288785
55	0x3d7e58f7	0.062096562
56	0xbdc30a2f	-0.09523427
57	0xbd8d501d	-0.06900046
58	0xbd1b6cea	-0.037945665
59	0x3daa6490	0.08319962
60	0xbdf858f2	-0.1212634
61	0x3da5af0f	0.080900304
62	0x3d72f57f	0.059316155
63	0x3db52e27	0.088466935
64	0x3d51733d	0.05113529
65	0x3bfe576c	0.0077618863
66	0x3d8c2be5	0.0684431
67	0x3d98c215	0.07458893
68	0x3dae1c9b	0.0850155
69	0x3d4fd052	0.05073578
70	0x3ccaf564	0.024775214
71	0x3c015283	0.0078932075
72	0xbd566ab1	-0.052347843
73	0x3d85b56f	0.06528746
74	0xbd1aa76d	-0.037757326
75	0x3d44678f	0.047950324
76	0x3d93924f	0.072056405
77	0x3d6510a2	0.055924065
78	0xbdbbdd54	-0.09173074
79	0xbc81079e	-0.015750702
80	0xbcb48e52	-0.02204052
81	0xbaf5609e	-0.0018720811
82	0x3ce104bf	0.027468083
83	0xbd2a639d	-0.041598905
84	0x3d1d1777	0.038352456
85	0x3c73f519	0.014889979
86	0xbd177ae1	-0.03698242
87	0x3d9371d4	0.07199445
88	0xbc882f5e	-0.016624149
89	0xbd35321e	-0.04423725
90	0x3d03f736	0.03221818
91	0x3dc16e5e	0.09444879
92	0x3cb2bc66	0.021818351
93	0x3c41e6b0	0.011834785
94	0x3dc05636	0.093914434
95	0xbd128a1d	-0.035776246
96	0x3d98fae2	0.07469727
97	0x3d609a41	0.054834608
98	0x3d49f158	0.04930243
99	0x3becd777	0.007227834
100	0x3d4ed71e	0.05049812
101	0x3c601b2d	0.013678354
102	0xba9661d5	-0.0011473248
103	0x3d4ed957	0.05050024
104	0x3c92e23c	0.017930143
105	0x3cf40690	0.029788285
106	0x3d23e779	0.04001567
107	0xbd6dc1c3	-0.058046114
108	0xbc06201b	-0.0081863655
109	0xbca61e64	-0.020278163
110	0x3d0d376d	0.034476686
111	0x3ca72fb3	0.020408487
112	0x3d339851	0.043846432
113	0x3c2a8b09	0.010409125
114	0x3cc32d6d	0.023825372
115	0xbc98a338	-0.018632516
116	0x3d959ce4	0.07305315
117	0x3ce26e5c	0.027640514
118	0x3d0c162d	0.034200836
119	0x3d881a56	0.06645648
120	0xbd531c87	-0.051540878
121	0x3d956281	0.07294179
122	0xbd1aa809	-0.037757907
123	0xbc0e1b09	-0.008673438
124	0x3cd407df	0.02588266
125	0x3c410191	0.011780159
126	0x3cc4e350	0.024034172
127	0x3dbf29ed	0.093341686
128	0x3d70bc4d	0.058773328
129	0x3bce3aee	0.006293646
130	0x3dc1bf9e	0.09460376
131	0x3c9987e7	0.018741561
132	0x3cc02012	0.023452792
133	0x3d091bd4	0.033473805
134	0x3d5550a3	0.052078854
135	0x3db5cd95	0.08877102
136	0x3d417206	0.04722788
137	0x3d1b3f90	0.037902415
138	0x3d8e9eea	0.06963904
139	0xbc50b3dd	-0.012738195
140	0xbd14aaab	-0.036295574
141	0xbd309a4e	-0.043115906
142	0x3cb0e0de	0.0215916
143	0x3c941668	0.01807709
144	0xbd80eed9	-0.062955566
145	0xbd0cd11a	-0.034379102
146	0x3dac4a30	0.08412588
147	0x3db0908c	0.0862132
148	0xbd0f4615	-0.034978945
149	0x3c401663	0.011724087
150	0xbd116c53	-0.035503697
151	0x3de4a904	0.1116505
152	0x3d73e7ed	0.059547354
153	0x3db7ad5a	0.08968611
154	0xbd7c3292	-0.061571665
155	0xbd7ec66e	-0.062200956
156	0xbccbb5da	-0.024866987
157	0x3d1fc48e	0.03900581
158	0x3de5a583	0.112132095
159	0xbd8217e5	-0.06352214
160	0x3e1256a5	0.14290865
161	0xbd9d7a36	-0.076893255
162	0xbc09fbe6	-0.008421874
163	0x3d3fb88d	0.04680686
164	0x3ce4e8c8	0.02794303
165	0x3d2ca20d	0.04214673
166	0x3d3963e6	0.045261286
167	0xbb1a8a0e	-0.0023580822
168	0x3d72ae8e	0.0592485
169	0x3d257a51	0.040399853
170	0x3d1ba941	0.03800321
171	0xbc173c70	-0.009230718
172	0xbcccafb7	-0.024986131
173	0xbcc6c841	-0.02426541
174	0x3c335b80	0.010947108
175	0x3cb76b92	0.02239016
176	0xbc1203a6	-0.008912003
177	0xbc356fab	-0.011073987
178	0x3bd66947	0.0065433118
179	0x3c077a52	0.0082689095
180	0xbb23eabc	-0.0025011739
181	0x3b499196	0.0030756942
182	0x3bb58956	0.0055400534
183	0x3cbf6681	0.023364307
184	0x3cea4284	0.02859617
185	0xbbc652b6	-0.0060523404
186	0xbb2509a1	-0.0025182741
187	0x3d306d16	0.043072782
188	0x3d0fa33d	0.035067786
189	0xbc1e888a	-0.009676108
190	0x3d288953	0.041146588
191	0xbd2e67ef	-0.042579588
192	0x3b93122f	0.0044882516
193	0x3da5d533	0.08097305
194	0x3c273538	0.010205559
195	0x3d0cece3	0.0344056
196	0x3ce6788c	0.028133653
197	0xbcf643d0	-0.030061632
198	0xbc87b57d	-0.016566033
199	0x3bf7ff1b	0.0075682527
200	0x3c996cea	0.018728692
201	0xbd15e93f	-0.036599394
202	0x3d1f6a2c	0.038919613
203	0x3d83767c	0.064190835
204	0x3c594d8a	0.013263116
205	0x3cd3bebf	0.02584779
206	0xbd44ac90	-0.04801613
207	0x3cbed958	0.023296997
208	0x3c96e492	0.018419538
209	0x3bccd7d1	0.0062513133
210	0xbd6dcf68	-0.058059126
211	0x3da2cd09	0.079492636
212	0x3d84139e	0.06449054
213	0x3d6bc455	0.057560284
214	0x3c2af6f0	0.010434851
215	0xbaa26af2	-0.0012391491
216	0xbb527436	-0.0032112724
217	0xbc755bf3	-0.014975536
218	0x3bc2bff8	0.0059432946
219	0x3a90bd55	0.0011042753
220	0xbd1887c7	-0.037238862
221	0xbcb4b633	-0.022059536
222	0x3c875c08	0.016523376
223	0xbcbe7550	-0.023249298
224	0x3b997b57	0.0046838927
225	0x3c791348	0.015202351
226	0xbc284836	-0.010271123
227	0x3cf8eb79	0.03038572
228	0x3b4a1b61	0.0030839073
229	0xbd2ae7af	-0.041724857
230	0xb99ecc8c	-0.00030288508
231	0x3c87d013	0.01657871
232	0xbc937626	-0.018000674
233	0x3c220425	0.009888683
234	0xbd23b533	-0.039967727
235	0xbd754c35	-0.05988713
236	0xbccc0295	-0.024903575
237	0xbd3e6661	-0.046484355
238	0xbda74485	-0.08167366
239	0xbd49af62	-0.049239524
240	0xbcff34e7	-0.031153155
241	0xbd4f3c7a	-0.050594784
242	0xbce8254b	-0.028338095
243	0x3af7eb89	0.00189148
244	0xbc87dab5	-0.01658378
245	0x3db0cd1f	0.08632874
246	0xbc0dd20b	-0.008656035
247	0xbc112b19	-0.008860373
248	0x3dd074e0	0.10178542
249	0x3d214013	0.039367747
250	0x3d6e4999	0.058175657
251	0x3d1c5bad	0.038173366
252	0x3c3bc6d1	0.011460976
253	0x3d2009b5	0.039071757
254	0x3db1c721	0.08680559
255	0x3d91c9be	0.071185574

bias f4 [16]
0	0xb3f6ca33	-1.14920475e-07
1	0x3584d47f	9.896611e-07
2	0xb4053253	-1.2404898e-07
3	0xb5af424d	-1.3057812e-06
4	0xb2be9f9d	-2.2191495e-08
5	0x36ca655f	6.0318703e-06
6	0xb5331d35	-6.67252e-07
7	0xb60b4a0a	-2.075571e-06
8	0xb6b52edd	-5.399676e-06
9	0x333505b6	4.214754e-08
10	0xb4e404fc	-4.2471936e-07
11	0xb63d66f1	-2.8223114e-06
12	0x3674de83	3.6488352e-06
13	0x3507a7e8	5.0535755e-07
14	0x34c80032	3.7253045e-07
15	0xb69c64b7	-4.660887e-06

weight f4 [16]
0	0x3e4f179c	0.2022385
1	0x3ebf6556	0.37382
2	0x3ef07e33	0.46971282
3	0x3eadd0c3	0.33948335
4	0x3ecc406f	0.3989291
5	0x3def7b3b	0.11693426
6	0x3eb4fa5f	0.35347268
7	0x3efdd864	0.49579155
8	0x3ef93d41	0.48679546
9	0x3e8f1671	0.2794681
10	0x3e7d95eb	0.2476422
11	0x3e806200	0.25074768
12	0x3ed83493	0.4222761
13	0x3e5651db	0.20929663
14	0x3e82d990	0.25556612
15	0x3f16e493	0.58942527

bias f4 [16]
0	0xbd8b5d4c	-0.06804904
1	0xbe8c16a3	-0.2736102
2	0xbce50aaf	-0.027959196
3	0x3d220587	0.039556053
4	0xbcf9ec86	-0.030508291
5	0xbdafd212	-0.085849896
6	0x3cedea84	0.02904249
7	0xbe0ed86d	-0.13949747
8	0x3e0866bf	0.13320445
9	0xbe1eebf1	-0.15519692
10	0xbecf6ddb	-0.405135
11	0xbd5eaf3e	-0.054366343
12	0xbe5bacce	-0.21452639
13	0xbd005a46	-0.03133609
14	0xbd07c463	-0.033146273
15	0xbe207ed2	-0.15673378

running_mean f4 [16]
0	0x3e6135f3	0.21993236
1	0x3e566c90	0.20939851
2	0x3e4eaca2	0.20183042
3	0x3e8dc942	0.2769261
4	0x3eb0e9d2	0.3455339
5	0x3e6f63fb	0.23377983
6	0x3e484c94	0.19560462
7	0x3e402758	0.18765008
8	0xbe708284	-0.23487288
9	0x3e7de382	0.24793819
10	0x3e2cc9b5	0.1687382
11	0x3e45f9cb	0.1933357
12	0x3e7e7b7c	0.24851793
13	0x3eb6b4cf	0.3568482
14	0x3e94a30b	0.29030642
15	0x3ea3d794	0.3200041

running_var f4 [16]
0	0x3c6df906	0.014524704
1	0x3c5ccc8c	0.013476502
2	0x3c4c7c25	0.01248077
3	0x3cbb3d8a	0.022856493
4	0x3d0fc9c9	0.035104547
5	0x3c7c1d79	0.015387886
6	0x3c3078bf	0.010770976
7	0x3c2bc686	0.010484343
8	0x3c8aedeb	0.016959151
9	0x3c8a3dcf	0.016875176
10	0x3c0b4123	0.0084994165
11	0x3c2f173c	0.010686692
12	0x3c911f49	0.017715113
13	0x3d171599	0.03688583
14	0x3cc6fd7d	0.024290795
15	0x3cf086d3	0.029361164

weight f4 [16, 16, 3, 3]
0	0xbcecccb5	-0.028906206
1	0xbd071808	-0.032981902
2	0xbd3844e5	-0.044987578
3	0xbc4b1933	-0.012396145
4	0xbc366c29	-0.011134186
5	0xbcddebec	-0.027090035
6	0xbccc32aa	-0.024926502
7	0xbc2a0ed6	-0.010379514
8	0xbc9226fc	-0.017840855
9	0x3d88bacf	0.06676256
10	0x3d852722	0.065016046
11	0x3d88b6f7	0.06675523
12	0x3d91040e	0.070808515
13	0x3dac0b0b	0.08400544
14	0x3d662928	0.056191593
15	0x3cf599b1	0.029980512
16	0x3d845ed8	0.064634025
17	0x3d5d56ee	0.05403798
18	0x3d32810b	0.043580096
19	0x3a4857ef	0.00076424977
20	0xbd6c63e7	-0.05771246
21	0x3d2b34ff	0.041798588
22	0xbc5db41a	-0.013531709
23	0xbd3ed3f7	-0.046588864
24	0xbcddb274	-0.027062632
25	0x3c0cd5b8	0.008595876
26	0xbca8a78c	-0.020587705
27	0xbc7761af	-0.015098973
28	0x3aac5751	0.0013148581
29	0x3cae5c1c	0.021284156
30	0xbd0c5021	-0.034256104
31	0x3c1b7b6e	0.009489877
32	0x3caf74a6	0.021417927
33	0xbd3b3e2c	-0.04571359
34	0x3c59ec2f	0.013300939
35	0xbca8568d	-0.020549083
36	0x3d4d9f4a	0.050200738
37	0x3c3f2062	0.0116654355
38	0x3d1a433c	0.037661776
39	0x3d467ed0	0.04846078
40	0xbbfb4bd8	-0.0076689534
41	0x3ce723ea	0.028215367
42	0xbb1aa960	-0.002359949
43	0x3d052f94	0.032516077
44	0xbc617a4b	-0.013762067
45	0x3cb341a4	0.021881886
46	0x3c4fb934	0.012678433
47	0x3a7add7a	0.0009569746
48	0x3be7e19b	0.007076455
49	0x3baaa141	0.0052072112
50	0x3cfae9ec	0.03062912
51	0x3cbe825e	0.023255523
52	0x3d0d0925	0.03443255
53	0x3d568991	0.052377287
54	0xbcad1c5d	-0.021131689
55	0xbbd78f3e	-0.006578355
56	0xbc814ef9	-0.015784727
57	0xbca8a3dd	-0.020585949
58	0xbc6ef489	-0.014584669
59	0x3b22f43a	0.0024864809
60	0x3c5d659b	0.013512994
61	0x3cfc817c	0.030823462
62	0xbcd89d9d	-0.026442343
63	0x3c14f739	0.009092146
64	0x3d451060	0.04811132
65	0x3d16c12d	0.03680532
66	0x3d1b1ad6	0.03786739
67	0x3db25865	0.08708266
68	0x3d524416	0.051334463
69	0x3ce8c17d	0.028412575
70	0x3d4cecdd	0.050030578
71	0x3cac3909	0.02102329
72	0xbc89e16f	-0.016831128
73	0x3c8b0f50	0.016975075
74	0xbc0743f8	-0.008255951
75	0xbc3f2a38	-0.011667781
76	0x3cdc7121	0.026909413
77	0x3c6ab7a4	0.01432601
78	0xbcb0fb1e	-0.021604117
79	0xbc91c51d	-0.017794186
80	0xbcb7cdea	-0.022437055
81	0x3d6fa8c1	0.058510546
82	0x3d3e97cd	0.046531487
83	0x3cb320b1	0.021866174
84	0x3d916f36	0.0710129
85	0x3ce2f48d	0.027704502
86	0x3b23e1d6	0.0025006435
87	0x3da8f27f	0.082493775
88	0x3ce97afa	0.028501023
89	0x3bd3033e	0.0064395955
90	0x3c27e1c6	0.0102467
91	0x3c1256e3	0.008931848
92	0x3d605432	0.054767795
93	0x3d8e03ee	0.06934343
94	0x3d7aad0b	0.061200183
95	0x3d31fb10	0.043452322
96	0x3d81852a	0.06324227
97	0x3d8e7780	0.069563866
98	0x3d2fa337	0.042880263
99	0xbb94739c	-0.0045303833
100	0xbc3235ee	-0.010877116
101	0x3b49afd4	0.0030774968
102	0xbc839056	-0.016060036
103	0xba0ea2ae	-0.0005441111
104	0xbbc383b3	-0.0059666275
105	0xbc473251	-0.012157992
106	0x3a5e9351	0.000849058
107	0xba4d28e5	-0.0007826223
108	0x3d3a7390	0.045520365
109	0x3d66f331	0.05638427
110	0xbaaf6e6f	-0.0013384352
111	0x3d430e72	0.047621198
112	0x3dbc9b5b	0.09209319
113	0x3d8133f4	0.063087374
114	0x3c5c4370	0.013443813
115	0x3d081f34	0.033232883
116	0xbb819383	-0.0039543523
117	0xba62a2b5	-0.0008645461
118	0xbc1bb9c5	-0.00950474
119	0xb981eb11	-0.00024779935
120	0x3bb8836d	0.0056309015
121	0xbcbfd810	-0.023418456
122	0xbc476a44	-0.012171332
123	0xbc8ecfbd	-0.017433042
124	0xbca7ab2c	-0.020467363
125	0xbc0e6eea	-0.008693436
126	0x3c0f5d67	0.008750296
127	0xbaef9f04	-0.0018281643
128	0xbcdf1a63	-0.027234262
129	0xbca88119	-0.020569371
130	0xbccbc9ab	-0.024876436
131	0xbb728bd3	-0.0037009611
132	0xbc25ef1b	-0.010127808
133	0x3bfeeccd	0.0077796937
134	0xbccba459	-0.02485864
135	0x3ddcd7cc	0.107833475
136	0x3d8d251f	0.06891846
137	0x3d19c657	0.037542667
138	0x3db4f42e	0.08835636
139	0x3d1b95dc	0.037984714
140	0x3d94189e	0.07231258
141	0x3d68b9fd	0.056817997
142	0x3d19fda5	0.03759541
143	0x3d8ba3ee	0.068183765
144	0x3c7272b7	0.014797858
145	0x3c4ec1c7	0.012619442
146	0x3c2444b2	0.010026144
147	0xba9876fe	-0.0011632142
148	0xbb6bd40a	-0.003598454
149	0x3c2f7785	0.010709648
150	0x3b25aac3	0.0025278784
151	0x3ac0def6	0.0014714885
152	0x3b9ccbac	0.0047850218
153	0x3cf193f5	0.029489497
154	0x3d83008a	0.06396587
155	0x3ca86c4c	0.020559452
156	0x3d54e32d	0.051974464
157	0x3dc8beaa	0.09801991
158	0x3d1c07b2	0.038093276
159	0xbbfafaab	-0.0076592765
160	0x3d9d43cd	0.076789476
161	0x3d085176	0.033280812
162	0xbc3484d1	-0.011017994
163	0xbd1c5844	-0.038170114
164	0xbd34d3bb	-0.044147234
165	0x3c0915dc	0.008367028
166	0x3c97e9f2	0.018544171
167	0xbca92dd3	-0.020651734
168	0xbd13e4fc	-0.03610705
169	0xbc04e2e3	-0.008110735
170	0xbc93babc	-0.018033378
171	0xbd243d7e	-0.040097706
172	0xbcef7edc	-0.029235296
173	0xbce1d311	-0.027566465
174	0xbd92194b	-0.071337305
175	0xbc4d8b36	-0.0125453975
176	0xbc6562a5	-0.0140005695
177	0xbcd4f407	-0.025995268
178	0xbc9656d2	-0.018351946
179	0xbd304b82	-0.04304076
180	0xbc05849d	-0.008149293
181	0x3bfc9e8e	0.007709331
182	0xbd2e2fdf	-0.042526122
183	0xbd4c4dd7	-0.04987892
184	0x3cdafef6	0.026732903
185	0xbd657e53	-0.056028675
186	0x3cacba2f	0.021084873
187	0xbbccb5d3	-0.006247261
188	0x3b3df6be	0.002898618
189	0x3c69e4cf	0.014275744
190	0x3d2a12b7	0.041521754
191	0xbbea9959	-0.0071593937
192	0x3c7f659d	0.015588191
193	0x3b4ba1c9	0.0031071773
194	0x3caa1d7a	0.020766009
195	0x3c736c21	0.014857323
196	0xbba6c1e4	-0.0050890315
197	0x3cd6f419	0.026239442
198	0xbc0096b5	-0.007848431
199	0xbc5fc96d	-0.0136588635
200	0xbbd1ed9d	-0.0064064995
201	0x3b7fcbfb	0.0039031494
202	0xbb69d58d	-0.0035680265
203	0xbc50a959	-0.012735688
204	0x3c49c42e	0.012314839
205	0xbb2f8b0c	-0.002678576
206	0xbc6531e4	-0.013988946
207	0xbd402319	-0.04690847
208	0xbc7b2ae6	-0.015330052
209	0xbc9c195d	-0.019055063
210	0x3c1389ca	0.009005019
211	0x3d5db033	0.054123115
212	0xbccb3e2f	-0.024809925
213	0xbd1ad379	-0.037799332
214	0xbc55b364	-0.013043258
215	0xbcf3e0bd	-0.02977025
216	0x3d24302f	0.040085014
217	0x3d27f6a5	0.041006703
218	0x3d3d3944	0.04619719
219	0x3c975346	0.018472325
220	0x39b234cb	0.0003399014
221	0x3d1b626f	0.03793567
222	0x3d0c732b	0.03428952
223	0x3d60c569	0.054875765
224	0x3d65480b	0.05597691
225	0x3c5c057a	0.01342904
226	0x3c823dbc	0.015898578
227	0x3c1621c5	0.009163325
228	0x3cab3cbf	0.02090299
229	0x3cadfe09	0.021239297
230	0x39d96a74	0.0004146878
231	0x3d19af35	0.037520606
232	0xbc4d3a82	-0.012526156
233	0x3caf979b	0.021434596
234	0x3c9fe45d	0.019518072
235	0x3d863ac1	0.06554175
236	0x3db681db	0.08911487
237	0x3d75d314	0.060015753
238	0x3db7a30d	0.08966646
239	0x3db14c92	0.08657183
240	0x3d864f78	0.06558126
241	0x3d878d5c	0.06618759
242	0x3d2ea4c5	0.042637605
243	0xbd04b7fa	-0.032402016
244	0xbb94bbd9	-0.0045389947
245	0xbc572c67	-0.013133145
246	0xbcbbfa88	-0.022946611
247	0xbc998f08	-0.01874496
248	0xbcf8b1dc	-0.030358247
249	0xbc6b9e9f	-0.01438108
250	0xbaf084dc	-0.0018350142
251	0xbc887db6	-0.016661506
252	0xbc8cd038	-0.01718913
253	0x3c6dc1a0	0.014511496
254	0x3cd629ca	0.026142973
255	0x3d09f599	0.033681486

bias f4 [16]
0	0x35e218df	1.6845551e-06
1	0xb69fe1b8	-4.7648464e-06
2	0xb4c9da12	-3.7597835e-07
3	0xb5509dc5	-7.7715623e-07
4	0xb2952314	-1.7361835e-08
5	0x34396b11	1.7268418e-07
6	0x33b1385a	8.252455e-08
7	0xb2b84e49	-2.145602e-08
8	0x3319594e	3.570431e-08
9	0xb4b2ac2a	-3.328035e-07
10	0xb3f808ca	-1.1549999e-07
11	0x36d51ecc	6.35148e-06
12	0xb4b69a79	-3.4012535e-07
13	0x33207d3d	3.7366807e-08
14	0x34384082	1.7159803e-07
15	0xb28b01f6	-1.6182621e-08

weight f4 [16]
0	0x3f211d79	0.62935597
1	0x3f3d95c1	0.7405663
2	0x3eb3a60d	0.35087624
3	0x3e71298f	0.2355101
4	0x3ebffa4b	0.37495646
5	0x3e9a41d9	0.30128363
6	0x3e3b6a4f	0.18302272
7	0x3f15ce03	0.58517474
8	0x3ec281c4	0.37989628
9	0x3eb7ccc0	0.358984
10	0x3eb5f8a5	0.35541263
11	0x3f14d7c3	0.58141726
12	0x3ea69f2c	0.32543314
13	0x3f34c2f3	0.7060997
14	0x3f08c9ee	0.5343312
15	0x3ecf07b8	0.40435576

bias f4 [16]
0	0xbe60bcb6	-0.21946988
1	0xbe5449d4	-0.20731288
2	0xbe2bbec9	-0.16771998
3	0xbc3905f4	-0.011292923
4	0x3da0a28f	0.078435056
5	0xbcc44897	-0.023960395
6	0xbd106194	-0.035249308
7	0xbe46f397	-0.1942886
8	0x3d35ef22	0.044417508
9	0xbcc48e45	-0.02399362
10	0x3d24c23e	0.040224306
11	0xbe2eceff	-0.1707115
12	0x3b9489cb	0.0045330278
13	0xbe57b0aa	-0.21063486
14	0x3dc9a7d3	0.09846463
15	0xbaedd71b	-0.0018145771

running_mean f4 [16]
0	0x3d6fbb08	0.058527976
1	0xbd8f2729	-0.06989891
2	0x3de5fc74	0.11229792
3	0xbe0333fa	-0.12812796
4	0xbd178f1a	-0.037001707
5	0xbdca6662	-0.09882809
6	0xbd97340b	-0.07382973
7	0x3e8307a1	0.25591758
8	0xbe0288f1	-0.12747552
9	0xbdc0802a	-0.09399445
10	0xbe8968da	-0.26837808
11	0xbc68bf48	-0.014205761
12	0xbe3495f9	-0.17635335
13	0xbe89a579	-0.26884058
14	0xbe7f3343	-0.24921899
15	0xbd929753	-0.07157769

running_var f4 [16]
0	0x3e86886d	0.2627596
1	0x3d1b3d6e	0.03790038
2	0x3dfadc29	0.122490235
3	0x3ce92794	0.028461255
4	0x3f0778d0	0.5291872
5	0x3d6c6cb2	0.057720847
6	0x3c842130	0.016129106
7	0x3f5a4865	0.85266715
8	0x3e976188	0.29566598
9	0x3e11baef	0.14231466
10	0x3d3ffde5	0.046872992
11	0x3bccee2f	0.0062539796
12	0x3d03190a	0.0320063
13	0x3edcde10	0.4313817
14	0x3f441a81	0.7660294
15	0x3e104ef5	0.1409262

weight f4 [16, 16, 3, 3]
0	0xb9ff23d7	-0.00048664093
1	0x3cc3c7f0	0.023899049
2	0x3d08f224	0.03343405
3	0xbb84b29a	-0.0040496113
4	0xbb86d575	-0.0041148015
5	0x3c37ae3d	0.011210975
6	0xbc6ad3db	-0.014332737
7	0xbbb7f222	-0.0056135813
8	0xbb3d07af	-0.002884369
9	0x3bc071d4	0.0058729444
10	0x3cf9a4e1	0.030474128
11	0x3cc0fc4d	0.023557806
12	0x3b528a97	0.0032126063
13	0x3c1635ab	0.009168069
14	0x3c3004ce	0.010743333
15	0xbad68cf4	-0.0016368912
16	0x3b93c3db	0.004509432
17	0xbc0295f9	-0.007970327
18	0xba8fd212	-0.001097264
19	0x3c218cfb	0.0098602725
20	0x3c9baa2e	0.019002046
21	0xbc024e36	-0.007953217
22	0xb88fdf05	-6.860312e-05
23	0x3c11d25c	0.008900251
24	0xbc297730	-0.010343358
25	0xbb355224	-0.0027667368
26	0xbb7c102d	-0.003846179
27	0xbbf57085	-0.00749022
28	0xbc00e711	-0.0078675905
29	0xbc117c5b	-0.008879746
30	0xbbf95442	-0.0076089213
31	0xbc0dab7f	-0.008646845
32	0xbc23eafd	-0.010004756
33	0xbbd6d2b9	-0.006555882
34	0xbbf90169	-0.007599045
35	0xbc1c5a37	-0.009542993
36	0x3bffcef3	0.0078066527
37	0x3c1ea599	0.009683036
38	0x3c88daf6	0.016705971
39	0x3bc88313	0.006119141
40	0x3c0c44e1	0.008561344
41	0x3c857616	0.01629166
42	0x3bb506a6	0.005524474
43	0x3c07cc87	0.008288509
44	0x3c760e59	0.015018069
45	0xbbb90f82	-0.0056476006
46	0xbbf04fe1	-0.007333741
47	0xbc0ef09b	-0.008724357
48	0xbbc07fd0	-0.0058746114
49	0xbc0d7fe0	-0.008636445
50	0xbc2551da	-0.010090316
51	0xbbb0c3b0	-0.0053944215
52	0xbc01877b	-0.007905836
53	0xbc216b31	-0.009852217
54	0xbb808ab5	-0.003922785
55	0xbb9cbefa	-0.0047835084
56	0xbbb9cd4f	-0.0056702266
57	0xbb80ae6d	-0.003927043
58	0xbbae76ca	-0.0053242194
59	0xbbd018c1	-0.006350607
60	0xbb5c6f5a	-0.0033635707
61	0xbb9a1a8f	-0.004702873
62	0xbbc74b3d	-0.006081967
63	0x3ba72273	0.005100542
64	0x3c97e70b	0.018542787
65	0x3cca78a2	0.024715725
66	0xbc05c5f6	-0.008164873
67	0x3b6abeba	0.0035819248
68	0x3c4f733f	0.012661754
69	0xbb913ce6	-0.0044323085
70	0xbb090aff	-0.0020911095
71	0x3ba5a879	0.005055484
72	0xbc561f0e	-0.013068927
73	0xbc5822e3	-0.013191911
74	0xbc64b553	-0.013959247
75	0xbc654b8e	-0.013995064
76	0xbc76af66	-0.015056467
77	0xbc8317bb	-0.016002527
78	0xbc50c4fc	-0.012742277
79	0xbc6a8f5c	-0.014316406
80	0xbc812fd5	-0.015769878
81	0xbc162475	-0.0091639655
82	0xbc242be3	-0.010020229
83	0xbc3a616a	-0.011375764
84	0xbc1ef2c8	-0.009701438
85	0xbc37bd88	-0.011214621
86	0xbc4a0881	-0.012331129
87	0xbc138a00	-0.00900507
88	0xbc394e23	-0.011310133
89	0xbc5253f8	-0.0128374025
90	0xbc483fcb	-0.012222241
91	0xbb9fb4e2	-0.004873858
92	0xbb8ce948	-0.00430027
93	0xbc1aefa7	-0.009456552
94	0xbc783737	-0.015149883
95	0xbc21e06f	-0.009880169
96	0xbc13525e	-0.008991806
97	0xbc0aae0e	-0.008464349
98	0xbc14abe4	-0.009074185
99	0xbc11fb06	-0.008909946
100	0x3c35e45e	0.01110181
101	0x3ccd76c5	0.025081048
102	0xbccd5265	-0.025063703
103	0xbc204836	-0.009782841
104	0x3bc6bae8	0.0060647614
105	0xbcab8e8c	-0.020941995
106	0xbc4c2ede	-0.012462346
107	0xbc02cb9f	-0.007983117
108	0xbbff35b6	-0.0077883853
109	0xbbf44fdc	-0.007455809
110	0xbc139288	-0.009007104
111	0xbc055b6a	-0.008139471
112	0xbc114183	-0.008865717
113	0xbc3d77cf	-0.011564209
114	0xbbb7a2e0	-0.005604133
115	0xbbe23874	-0.0069037024
116	0xbc1ca46a	-0.009560684
117	0x3a155abc	0.00056974194
118	0x3ca42ebf	0.020041822
119	0x3cf7412f	0.03018245
120	0xbbfb974c	-0.007677948
121	0xbb5bcc9e	-0.003353871
122	0x3c5412d2	0.01294394
123	0x3bbc84c4	0.0057531316
124	0x3b14c93a	0.0022702948
125	0xbba50b2c	-0.005036732
126	0xbcb63513	-0.022242105
127	0xbcb9672b	-0.022632202
128	0xbcac856d	-0.021059716
129	0xbcc652c2	-0.024209384
130	0xbcc38e40	-0.023871541
131	0xbcc192bf	-0.023629544
132	0xbcb2b7e7	-0.021816207
133	0xbcbe83b7	-0.023256166
134	0xbcc08e0d	-0.023505235
135	0xbc51d0ea	-0.012806157
136	0xbc5b529e	-0.013386397
137	0xbc5bb375	-0.013409485
138	0xbc568589	-0.013093361
139	0xbc752249	-0.0149617875
140	0xbc751577	-0.014958731
141	0xbc480950	-0.0122092515
142	0xbc6de709	-0.014520415
143	0xbc737e9a	-0.014861727
144	0x3d18a4e0	0.037266612
145	0x3dce57ce	0.10075341
146	0x3d8d615c	0.069033355
147	0x3d3c34db	0.045948844
148	0x3ddd7923	0.108141206
149	0x3d3eaa7e	0.046549313
150	0x3c4a388f	0.012342586
151	0x3d75596a	0.059899725
152	0x3ce7a823	0.028278416
153	0x3d1bedaa	0.03806845
154	0x3dfa45f7	0.12220376
155	0x3dd682d0	0.10474169
156	0x3d5d097f	0.053964134
157	0x3e03a1ce	0.12854692
158	0x3d8fac6f	0.07015311
159	0x3cd1b217	0.025597615
160	0x3d2fa833	0.042885017
161	0x3d5e32ac	0.054247543
162	0x3d447744	0.047965303
163	0x3dad9f40	0.0847764
164	0x3d531274	0.05153127
165	0x3d404e55	0.046949703
166	0x3dba46fd	0.09095571
167	0x3d566963	0.0523466
168	0x3cbd03ca	0.023073096
169	0x3d127f24	0.035765782
170	0x3d0030a1	0.031296376
171	0xbbe79990	-0.0070678666
172	0xbc9a081f	-0.0188027
173	0xbc43f274	-0.011959661
174	0xbc0f6478	-0.008751981
175	0xbc951491	-0.018198283
176	0xbc183cb6	-0.009291818
177	0xbb3db7ed	-0.002894874
178	0xbc2ae96c	-0.010431629
179	0xbbaee1ef	-0.005336992
180	0x3d5a52ac	0.0533015
181	0x3d162322	0.0366546
182	0x3d432f04	0.04765226
183	0x3d72f60e	0.059316687
184	0x3d20e660	0.039282203
185	0x3d5af712	0.05345828
186	0x3d928c9b	0.071557246
187	0x3d7a8670	0.061163366
188	0x3d874286	0.06604485
189	0xbbe6dfe0	-0.007045731
190	0xbc72d5d7	-0.014821491
191	0xbc3d80f7	-0.011566392
192	0xbba7a87a	-0.0051165195
193	0xbc800947	-0.015629424
194	0xbc352eb3	-0.011058497
195	0xbaf192ac	-0.0018430552
196	0xbc330b70	-0.01092802
197	0xbc0dc895	-0.0086537795
198	0xbc323310	-0.010876432
199	0xbca7cbe6	-0.020482969
200	0xbc6c2970	-0.014414176
201	0xbc4a5b90	-0.012350932
202	0xbcb7edb3	-0.022452211
203	0xbc758473	-0.014985192
204	0xbc0cea69	-0.00860081
205	0xbc82fb57	-0.015988989
206	0xbc4553f2	-0.01204394
207	0x3bce1f16	0.006290327
208	0x3dcb02a0	0.0991261
209	0x3db2785c	0.08714363
210	0x3c9cd65a	0.01914518
211	0x3dba7a08	0.09105307
212	0x3d7a6ef5	0.061140973
213	0xbc067062	-0.008205505
214	0x3d804556	0.06263225
215	0x3c697219	0.014248394
216	0x3ac4a150	0.0015001688
217	0xbc097998	-0.008390807
218	0xbb38c24f	-0.0028191989
219	0x3ad7c06a	0.0016460542
220	0xbbeb8165	-0.007187056
221	0xbb4760b3	-0.0030422627
222	0x3a19441a	0.0005846635
223	0xba97f48c	-0.0011593266
224	0xba9216a6	-0.0011145666
225	0xbb7b3833	-0.0038333058
226	0xbc4eb87f	-0.0126172295
227	0xbb8c29ad	-0.004277429
228	0xbb90d62d	-0.004420063
229	0xbc5b4904	-0.0133841075
230	0xbbe936c1	-0.007117123
231	0xba9f4c82	-0.0012153538
232	0xbbc8ddae	-0.006129942
233	0xbb2dedc6	-0.002653943
234	0x3b8b689e	0.0042544147
235	0x38f51952	0.00011687227
236	0x3bfdbba3	0.0077433153
237	0x3c08c5a3	0.0083479015
238	0xbb9ea9b9	-0.00484201
239	0x3b395db3	0.002828461
240	0x3c62645f	0.013817876
241	0x3bf4858f	0.0074622105
242	0x3c1f18f0	0.009710535
243	0x3ac3772a	0.0014912833
244	0x3d4c54a9	0.049885426
245	0x3d193198	0.037400812
246	0x3c9796fe	0.018504616
247	0x3d859991	0.06523431
248	0x3d39c874	0.045357183
249	0x3bc6b30f	0.006063826
250	0x3cf185b9	0.02948271
251	0xb968aad7	-0.00022188887
252	0x3aa88819	0.0012857943
253	0xbbf23d60	-0.0073925704
254	0xba6c651b	-0.00090177514
255	0x3b94355e	0.0045229634

bias f4 [16]
0	0xb4be631f	-3.5462378e-07
1	0x34b6e110	3.4063896e-07
2	0x3462ff0d	2.1140677e-07
3	0xb6eae902	-7.000869e-06
4	0xb3ef9c9e	-1.1157793e-07
5	0x35a13544	1.2010937e-06
6	0x34f1e889	4.505894e-07
7	0x33cd21f5	9.552233e-08
8	0xb25f97c9	-1.301482e-08
9	0xb451f04d	-1.9552063e-07
10	0x353af10d	6.9641175e-07
11	0x359b771b	1.1583064e-06
12	0xb4962567	-2.796689e-07
13	0xb2a8d3d8	-1.965411e-08
14	0xb6005f8f	-1.9129109e-06
15	0x366a8cae	3.4950604e-06

weight f4 [16]
0	0x3eb13dc5	0.3461744
1	0x3e6ea3a2	0.23304608
2	0x3e24719e	0.16058967
3	0x3e8c032b	0.27346167
4	0x3e434c57	0.1907209
5	0x3e9a6785	0.30157104
6	0x3ed33592	0.41251808
7	0x3e77cba6	0.2419878
8	0x3dc39cb6	0.095513746
9	0x3e42cb12	0.19022778
10	0x3e0e93d7	0.13923584
11	0x3eb47e7c	0.3525275
12	0x3e0dbfbb	0.1384267
13	0x3d31a9ab	0.0433747
14	0x3e711063	0.23541407
15	0x3f149f50	0.5805559

bias f4 [16]
0	0xbc9eee46	-0.019400727
1	0xbe9196b2	-0.28435284
2	0x3dc38e1c	0.095485896
3	0x3ddab23a	0.10678525
4	0x3d66d17b	0.05635212
5	0x3dcbeeed	0.09957681
6	0xbe38acab	-0.18034618
7	0xb8f269e1	-0.00011559181
8	0xba0bbfff	-0.0005331039
9	0x3ce0a4ff	0.027422426
10	0xbd3b241e	-0.04568874
11	0x3d789546	0.060689233
12	0x3d920fe8	0.0713194
13	0xbce8d29a	-0.028420735
14	0x3ddc59e1	0.107593305
15	0xbe9f98ec	-0.31171358

running_mean f4 [16]
0	0xbdbe0b69	-0.0927952
1	0x3eacd420	0.3375559
2	0xbdd307c4	-0.103042156
3	0xbe382e04	-0.17986304
4	0xbdbda7cd	-0.09260521
5	0xbe2620d9	-0.16223468
6	0x3dfac7f7	0.122451715
7	0xbd5819e4	-0.052759066
8	0x3d1668cb	0.036721032
9	0xbd60fc39	-0.05492804
10	0xbe2124fb	-0.15736763
11	0xbe15bcf2	-0.14622858
12	0xbdd37736	-0.10325472
13	0xbd3dd6bc	-0.046347365
14	0xbe057ddb	-0.13036291
15	0x3eaec59a	0.34135133

running_var f4 [16]
0	0x3cfc935a	0.030831981
1	0x3e8e2b41	0.27767375
2	0x3cbf2027	0.023330761
3	0x3cbf6861	0.023365201
4	0x3ce03d78	0.02737306
5	0x3d2a4d96	0.041577898
6	0x3d8ea76f	0.06965529
7	0x3cd2df05	0.02574111
8	0x3d0f5108	0.034989387
9	0x3cc0489a	0.02347212
10	0x3c76c746	0.015062159
11	0x3cf95153	0.030434286
12	0x3c9e56f0	0.019328564
13	0x3b72749b	0.0036995772
14	0x3d0c2857	0.03421816
15	0x3dff7bab	0.1247476

weight f4 [16, 16, 3, 3]
0	0xbc332aa4	-0.010935459
1	0xbb239c87	-0.0024965124
2	0xbc062777	-0.00818812
3	0xbc1aa0ac	-0.009437721
4	0x3a958f8b	0.0011410577
5	0xbbc0d9db	-0.0058853454
6	0xbcbc40e3	-0.02298016
7	0xbc92cacf	-0.017918972
8	0xbbad8737	-0.00529566
9	0x3b168d2e	0.0022972333
10	0x3ac8b603	0.0015313033
11	0x3b022922	0.0019860943
12	0x3af31d2e	0.0018548125
13	0x3a93b311	0.0011268576
14	0x3ac8379a	0.001527536
15	0x3b093bfc	0.0020940294
16	0x3abc081e	0.0014345681
17	0x3ae6a47e	0.001759663
18	0x3b09c170	0.0021019839
19	0x3b0abdb8	0.002117021
20	0x3b4d7edf	0.0031356139
21	0x3af0cae5	0.0018371014
22	0x3ad91336	0.0016561511
23	0x3b2a3129	0.0025969243
24	0x3b0b7b73	0.0021283298
25	0x3af0c46b	0.0018369084
26	0x3b35d9b5	0.0027748172
27	0x3b9406f7	0.004517432
28	0x3b6b77c2	0.0035929536
29	0x3ba6c8af	0.0050898413
30	0x3b6e0d5a	0.0036323876
31	0x3b46574d	0.0030264438
32	0x3b8874a0	0.0041642934
33	0x3b8b7f25	0.0042571
34	0x3b90f4d6	0.004423718
35	0x3bbc86aa	0.005753358
36	0x3ac8239b	0.00152694
37	0x3adc8d36	0.0016826752
38	0x3b29d318	0.0025913175
39	0x3a6ae269	0.00089601293
40	0x3aa1dc74	0.0012349025
41	0x3b19c26a	0.0023461827
42	0x3acb47d6	0.001550908
43	0x3ab137bc	0.0013520638
44	0x3b2bea9d	0.002623237
45	0x3b40779c	0.0029368168
46	0x3adcd356	0.0016847651
47	0x3b386753	0.0028137758
48	0x3abb432d	0.0014286988
49	0x3a773aea	0.0009431081
50	0x3b0ba61d	0.0021308728
51	0x3a9a7841	0.0011785106
52	0x3a590cd2	0.00082798034
53	0x3b2d7707	0.002646865
54	0xbaf37653	-0.0018574692
55	0xbb481bf4	-0.003053424
56	0xbb376917	-0.0027986222
57	0xbadff401	-0.0017086269
58	0xbbc551fb	-0.0060217357
59	0xbb1a6456	-0.002355834
60	0xbadd638d	-0.001689063
61	0xbb0661cb	-0.0020505066
62	0xba80de88	-0.0009831944
63	0x3bbbbd7a	0.0057293745
64	0x3b9b7cf2	0.0047451193
65	0x3bd60f1c	0.006532563
66	0x3ba0aaca	0.004903172
67	0x3b7a52f8	0.0038196426
68	0x3bb832e3	0.0056213005
69	0x3bc01522	0.005861894
70	0x3ba99d58	0.0051762275
71	0x3bc36c61	0.0059638475
72	0x397e9cee	0.00024281789
73	0x39332fbd	0.00017088554
74	0xb9fa00db	-0.00047684353
75	0x3a200315	0.0006103975
76	0x39e7ea2e	0.0004423423
77	0xb9a0b167	-0.00030649753
78	0x39ddb908	0.00042290264
79	0x396b6a9b	0.0002245106
80	0xb9125ff2	-0.00013959387
81	0x3a64a192	0.00087215856
82	0x3aa883a3	0.0012856614
83	0x3b0df5e7	0.0021661462
84	0x3975540c	0.0002339633
85	0x3a776870	0.00094378646
86	0x3ad6d318	0.0016389815
87	0x3a08a3f3	0.00052124186
88	0x3aa45676	0.0012537974
89	0x3b07ee8d	0.0020741553
90	0x3b449af2	0.0029999581
91	0x3ae02ada	0.0017102615
92	0x3b19808a	0.0023422563
93	0x3b70559f	0.0036672128
94	0x3b2a5b1e	0.0025994251
95	0x3aeaa552	0.0017902052
96	0x3b373843	0.0027957119
97	0x3b19aa6a	0.0023447522
98	0x3abfb25c	0.0014625299
99	0xbacd2e3e	-0.001565404
100	0x3aeef5aa	0.0018231173
101	0xbb917a32	-0.0044396156
102	0xbae6eaad	-0.0017617546
103	0x3c041541	0.008061708
104	0xbb0603b6	-0.002044899
105	0x3aad7aae	0.0013235414
106	0xbb80428a	-0.003914182
107	0xbb15c2ff	-0.0022851822
108	0x3b18c0be	0.0023308243
109	0x3b1ae061	0.0023632275
110	0x3b4a986a	0.00309136
111	0x3b00a03f	0.0019626764
112	0x3b000931	0.0019536729
113	0x3b341f31	0.0027484412
114	0x3b11693f	0.0022187976
115	0x3b09cae5	0.0021025476
116	0x3b430857	0.002975961
117	0x3ba722ad	0.005100569
118	0x3c0b0a28	0.008486308
119	0x3a4a3746	0.0007713925
120	0x3bf30bd5	0.007417182
121	0x3c064ab5	0.0081965225
122	0x39d0c375	0.00039818478
123	0x3b225427	0.0024769397
124	0x3b4e8924	0.0031514848
125	0x3a99ab97	0.0011724111
126	0x3b7aa86d	0.0038247362
127	0x3b7c49bb	0.0038496095
128	0x3b91282e	0.0044298386
129	0x3b3f60ed	0.002920206
130	0x3b3afd69	0.0028532392
131	0x3b804998	0.003915023
132	0x3b668242	0.0035172855
133	0x3b3fa4d1	0.0029242525
134	0x3b912738	0.004429724
135	0xbada898e	-0.0016673075
136	0xbb82e0b0	-0.00399407
137	0xba976a76	-0.0011552114
138	0xbb698452	-0.0035631848
139	0xbbfc17c1	-0.0076932614
140	0xbac80b6f	-0.0015262197
141	0x39d2a9d2	0.00040180847
142	0xbb52db21	-0.0032174068
143	0xb78daea3	-1.6889831e-05
144	0x3b8572de	0.004072531
145	0x3c38d070	0.011280164
146	0xbad37350	-0.0016132388
147	0x3d168287	0.036745574
148	0x3c6fb4ef	0.01463054
149	0x3c993b00	0.018704891
150	0x3d426751	0.04746181
151	0x3cfa1220	0.03052622
152	0x3c93d892	0.018047605
153	0x3bed241b	0.00723697
154	0x3c760e5a	0.01501807
155	0xbcbdf67c	-0.023188822
156	0x3cb98106	0.022644531
157	0x3d69274b	0.05692224
158	0x3b923999	0.0044624326
159	0x3cfa20c6	0.030533206
160	0x3d580b32	0.05274505
161	0x3c07f1a7	0.0082973605
162	0xbc6f9c33	-0.014624643
163	0xbc8f31a2	-0.017479721
164	0xbc773ba6	-0.015089905
165	0xbc5bbadf	-0.013411253
166	0xbc7eb05b	-0.015544976
167	0xbc89133a	-0.0167328
168	0xbc6e4d9a	-0.014544869
169	0xbc862ddd	-0.016379291
170	0xbc5a4e2e	-0.013324304
171	0xbc31f8d7	-0.010862551
172	0xbc2a9e42	-0.010413708
173	0xbc21b5fd	-0.00987005
174	0xbc4628f0	-0.012094721
175	0xbc6fe86d	-0.014642817
176	0xbc3815ad	-0.011235637
177	0xbc201634	-0.009770919
178	0xbc56c467	-0.013108349
179	0xbc282f2f	-0.010265156
180	0xbce0c58e	-0.027437951
181	0xbc9fecdd	-0.019522125
182	0xbcb84739	-0.0224949
183	0xbc922b3f	-0.017842887
184	0xbce5fa43	-0.028073436
185	0xbc86a87b	-0.01643776
186	0xbcc167c4	-0.02360905
187	0xbce483f5	-0.027894953
188	0xbc76b01e	-0.015056638
189	0xbcd70047	-0.02624525
190	0xbcec0165	-0.028809259
191	0xbc59dc00	-0.013297081
192	0xbca2509b	-0.019813826
193	0xbc3b8221	-0.011444599
194	0xbce74a6e	-0.028233733
195	0xbc922e76	-0.01784442
196	0xbce50914	-0.02795843
197	0xbc5c33dd	-0.0134401
198	0x3d07580a	0.033042945
199	0x3d7ce2f7	0.061739888
200	0x3d1a910e	0.03773599
201	0x3d4292c6	0.047503255
202	0x3d9a728c	0.07541379
203	0x3d2532b1	0.040331546
204	0x3d4609ec	0.048349306
205	0x3d74dece	0.059782796
206	0x3ce46ec4	0.027884848
207	0xbc5b4c63	-0.013384911
208	0xbc1096ad	-0.008824986
209	0xbc6d87a1	-0.0144976685
210	0xbc4d05db	-0.012513603
211	0xbcb3ae45	-0.021933684
212	0xbc2b5936	-0.010458281
213	0xbc89fe1d	-0.016844803
214	0xbcad8343	-0.021180755
215	0xbc5c6ed2	-0.013454156
216	0x3ca37cd9	0.019956993
217	0x3cfdcd5e	0.030981716
218	0x3c969ba4	0.018384762
219	0x3ccdcb84	0.025121458
220	0x3d0b60bd	0.034027804
221	0x3c9ebd3d	0.019377345
222	0x3c859adb	0.016309192
223	0x3cb963ed	0.022630656
224	0xbb9d957d	-0.00480908
225	0xbc153dcb	-0.009108971
226	0x3c2ca406	0.010537153
227	0xbb60b9c3	-0.003429041
228	0xbbb93af7	-0.005652781
229	0x3bc35372	0.005960875
230	0xbc011097	-0.0078774905
231	0xbb4eed22	-0.0031574448
232	0x3c1636ab	0.009168307
233	0xbc1cc732	-0.009568976
234	0x3ccbbbd3	0.024869835
235	0x3cfc3414	0.030786552
236	0x3bda3ee7	0.0066603306
237	0x3ccf294d	0.025288248
238	0x3d126250	0.03573829
239	0x3c13562b	0.008992712
240	0x3cf8ce29	0.030371742
241	0x3d0a6d65	0.033795733
242	0x3cb07a19	0.021542596
243	0x3d33c96b	0.04389326
244	0x3d6ccfad	0.057815243
245	0x3d50548f	0.05086189
246	0x3d0f1776	0.034934483
247	0x3d572d5f	0.052533504
248	0x3d266c8a	0.040630855
249	0x3d3ca2b2	0.046053596
250	0x3d621cbe	0.055203192
251	0x3d344b49	0.04401711
252	0xbc925212	-0.0178614
253	0xbc9ec64b	-0.019381663
254	0xbc9b60fb	-0.018967142
255	0xbc93aa04	-0.018025406

bias f4 [16]
0	0xb34b4640	-4.7328513e-08
1	0xb497279a	-2.8154756e-07
2	0x359243bc	1.0897561e-06
3	0x345de9c5	2.0667274e-07
4	0x33f9352b	1.1604637e-07
5	0xb2af9b47	-2.0443293e-08
6	0xb352f19e	-4.9114185e-08
7	0x3389a441	6.409437e-08
8	0xb5065179	-5.003745e-07
9	0x330b83fe	3.2483506e-08
10	0xb2ae735f	-2.030873e-08
11	0x34e6c7e4	4.2986278e-07
12	0x3609fc79	2.056155e-06
13	0x35a2310e	1.2084217e-06
14	0xb5234dfe	-6.0835725e-07
15	0xb6b830f6	-5.489327e-06

weight f4 [16]
0	0x3de4b14a	0.11166628
1	0x3ec4c28a	0.38429672
2	0x3e852e1f	0.2601175
3	0x3ebd9be2	0.37032992
4	0x3de05b42	0.10954906
5	0x3dbd684f	0.09248411
6	0x3de67afc	0.11253926
7	0x3df9c935	0.1219658
8	0x3eb6f6d8	0.35735202
9	0x3ded8180	0.11596966
10	0x3e080eed	0.13286944
11	0x3eb564e1	0.35428527
12	0x3dd25d27	0.10271674
13	0x3dbfbf50	0.09362662
14	0x3f0930c4	0.53590035
15	0x3ee26194	0.4421507

bias f4 [16]
0	0xbd53d9c8	-0.051721364
1	0xbe2ec9ab	-0.17069118
2	0xbb39397c	-0.0028263023
3	0x3bff4f4a	0.0077914344
4	0xbd27a4c7	-0.04092863
5	0xbd442a2a	-0.047891773
6	0x3d3ef0aa	0.046616234
7	0x3c10026d	0.008789641
8	0x3db5e5d4	0.08881727
9	0xbe10726a	-0.14106146
10	0xbc9835e9	-0.018580394
11	0xbd6e8e8a	-0.058241405
12	0x3ca0411b	0.019562295
13	0x3cb50a7f	0.022099731
14	0xbe449379	-0.19196881
15	0xbe340cbb	-0.17582981

running_mean f4 [16]
0	0x3c5da957	0.013529143
1	0xbb96fd95	-0.004607866
2	0x3d5d20b3	0.053986263
3	0x3e0a4f4c	0.13506812
4	0xbcf62bff	-0.030050276
5	0x3da646e4	0.0811899
6	0xbc1e487b	-0.009660835
7	0xbdc1f3ea	-0.09470351
8	0xbddba372	-0.10724534
9	0x3d489407	0.048969295
10	0xbde5046f	-0.11182486
11	0x3ed830d1	0.42224744
12	0x3ccc9efa	0.02497815
13	0xbcc001e5	-0.023438403
14	0x3e0d8f8c	0.1382429
15	0x3b899cd5	0.004199604

running_var f4 [16]
0	0x3b2c739b	0.0026314023
1	0x3eb6ba56	0.35689038
2	0x3cf9a1cc	0.030472659
3	0x3d03b75b	0.032157283
4	0x3b8b6e4e	0.0042550927
5	0x3d8ff6f4	0.070295244
6	0x3d5eb070	0.054367483
7	0x3d639f46	0.055571817
8	0x3cec0706	0.028811943
9	0x3d57b4b0	0.05266255
10	0x3bac2762	0.0052537182
11	0x3d67dcc1	0.05660701
12	0x3c949090	0.018135339
13	0x3ba94784	0.005165996
14	0x3ccb2f1b	0.024802735
15	0x3c57e1ee	0.013176424

weight f4 [16, 16, 3, 3]
0	0x3c0ed4ef	0.0087177595
1	0x3c10c96f	0.008837088
2	0x3c0aae86	0.008464461
3	0x3c12a1af	0.008949681
4	0x3c1a6747	0.009424037
5	0x3c13badd	0.00901672
6	0x3c04bfe8	0.008102395
7	0x3c0f5808	0.008749016
8	0x3c08a390	0.008339778
9	0x3b42838f	0.0029680466
10	0x3bb389de	0.0054790815
11	0x3b60feba	0.0034331516
12	0x3b8973ed	0.0041947276
13	0x3bedbae1	0.0072549437
14	0x3ba8246f	0.0051312963
15	0x3b5dd7a8	0.0033850465
16	0x3bcc214b	0.006229555
17	0x3b8753d5	0.0041298666
18	0x3c63902f	0.0138893565
19	0x3c55dc0b	0.013052951
20	0x3c638300	0.013886213
21	0x3c852e09	0.016257303
22	0x3c8b049e	0.016969975
23	0x3c8f8f22	0.017524306
24	0x3c8bd889	0.017071025
25	0x3c9e293f	0.019306777
26	0x3c998203	0.018738752
27	0xbc88965d	-0.016673261
28	0xbc7b042d	-0.01532082
29	0xbc7fb4d0	-0.015607074
30	0xbc9b5514	-0.018961467
31	0xbc8df912	-0.01733068
32	0xbc9cb2c5	-0.019128213
33	0xbc9a3791	-0.018825324
34	0xbc96f026	-0.018425059
35	0xbc913f33	-0.017730331
36	0x3b27a605	0.0025581133
37	0x3b27c6bd	0.0025600635
38	0x3b07c6ed	0.0020717934
39	0x3b233ce3	0.0024908117
40	0x3b2da123	0.002649375
41	0x3b108b43	0.0022055663
42	0x3b0f426e	0.0021859664
43	0x3aff9e3d	0.0019502115
44	0x3affb435	0.0019508662
45	0x3a2ce5a9	0.00065955013
46	0x3a3b97c9	0.00071561016
47	0x3a01a592	0.00049456314
48	0x3a1ee18d	0.00060608314
49	0x3a3034ad	0.00067217165
50	0x3a0391c8	0.00050189765
51	0x39c0df4d	0.00036787466
52	0x3a00ec78	0.0004918049
53	0x39dc6c91	0.00042042558
54	0x3b6b8998	0.0035940167
55	0x3b7c8829	0.0038533306
56	0x3b6674c5	0.0035164815
57	0x3b887bf5	0.0041651675
58	0x3b9aabab	0.0047201714
59	0x3b910ae3	0.0044263466
60	0x3b6d2c6e	0.0036189812
61	0x3b8fb2e8	0.004385341
62	0x3b89fd53	0.004211107
63	0x3bbb9bc5	0.0057253563
64	0x3bc1b32f	0.005911253
65	0x3bb323a5	0.0054668956
66	0x3bdd3e67	0.0067518237
67	0x3bec6de2	0.0072152475
68	0x3bd8cf0b	0.0066164783
69	0x3be1f5e4	0.0068957675
70	0x3bf2a26b	0.0074046156
71	0x3bdb9421	0.006701008
72	0xbcc99d8b	-0.024611255
73	0xbca08894	-0.019596376
74	0xbcb80638	-0.022463903
75	0xbd0f247d	-0.034946907
76	0xbcef2bae	-0.029195633
77	0xbd004cb1	-0.03132314
78	0xbd22eec3	-0.039778482
79	0xbd38897d	-0.045052994
80	0xbd2ee104	-0.04269506
81	0x3b29a276	0.0025884188
82	0x3b474481	0.0030405822
83	0x3b0885f8	0.0020831805
84	0x3b50fbcc	0.0031888364
85	0x3b810680	0.0039375424
86	0x3b32c76b	0.0027279507
87	0x3b490c26	0.0030677407
88	0x3b76ef29	0.0037679172
89	0x3b294398	0.0025827643
90	0xbae2a377	-0.0017291148
91	0xbb0ad532	-0.0021184203
92	0xbabf0cef	-0.0014575998
93	0xba9fdee1	-0.001219716
94	0xbaceb411	-0.0015770217
95	0xba84b95f	-0.0010126046
96	0xba32eca4	-0.00068254233
97	0xba8b1800	-0.0010612011
98	0xba3a5748	-0.0007108343
99	0x3c4f6bb0	0.012659952
100	0x3c6736cc	0.014112186
101	0x3c28c406	0.010300642
102	0x3c6b71c4	0.014370386
103	0x3c8d2d1b	0.017233422
104	0x3c5662b0	0.013085052
105	0x3c4f4518	0.012650751
106	0x3c8287c5	0.01593388
107	0x3c4d5534	0.012532521
108	0x3bdfa097	0.0068245637
109	0x3be9cdf0	0.0071351454
110	0x3bdd405c	0.006752057
111	0x3c03ea9d	0.008051542
112	0x3c10a961	0.008829446
113	0x3c0935b8	0.008374624
114	0x3c03bdf8	0.008040898
115	0x3c138101	0.009002925
116	0x3c0b94ab	0.008519332
117	0x3b81c063	0.003959702
118	0x3b8d5a7f	0.0043137665
119	0x3b82b3a5	0.0039887005
120	0x3b977b40	0.004622847
121	0x3baa9b50	0.005206503
122	0x3b9da2ef	0.004810683
123	0x3b8aa605	0.004231217
124	0x3ba1be82	0.0049360404
125	0x3b9815bb	0.0046412623
126	0x3bc703b8	0.0060734414
127	0x3c04afa6	0.0080985185
128	0x3bd37c90	0.006454058
129	0x3b936ab0	0.004498802
130	0x3bfa8fdc	0.007646544
131	0x3bab24eb	0.005222907
132	0x3b314870	0.0027051233
133	0x3bc79ced	0.006091705
134	0x3b96847f	0.0045934315
135	0x3c1df3cb	0.009640644
136	0x3c2292d8	0.009922706
137	0x3c115a5c	0.008871641
138	0x3c263eab	0.010146777
139	0x3c31a3ba	0.010842258
140	0x3c21f04e	0.009883953
141	0x3c1bc89f	0.009508281
142	0x3c276b05	0.010218387
143	0x3c1869cf	0.0093025705
144	0xbc3b75d4	-0.011441667
145	0xbc4c0dd1	-0.012454466
146	0xbc603df6	-0.013686648
147	0xbc494b30	-0.0122859925
148	0xbc5ff9a8	-0.0136703625
149	0xbc73c8e4	-0.014879439
150	0xbc4c9e24	-0.012488876
151	0xbc62aace	-0.013834668
152	0xbc69b2ee	-0.014263852
153	0x3b943045	0.0045223557
154	0x3c260fb6	0.010135582
155	0x3c0a6664	0.008447263
156	0x3c345c94	0.0110084005
157	0x3cba0104	0.022705562
158	0x3caefd45	0.021361003
159	0x3c0add80	0.008475661
160	0x3c9c97e5	0.019115398
161	0x3c863333	0.016381836
162	0xbbfa74d4	-0.0076433215
163	0xbc1956aa	-0.009359041
164	0xbc4d0cac	-0.012515228
165	0xbbe5916e	-0.007005862
166	0xbc11c8b0	-0.008897945
167	0xbc4dccc9	-0.012561032
168	0xbbe7708f	-0.0070629786
169	0xbc08a969	-0.008341172
170	0xbc3d5624	-0.011556182
171	0x3b55985e	0.0032592039
172	0x3c29b8ec	0.01035903
173	0x3c6fc6fd	0.014634845
174	0x3b9b5ee2	0.0047415355
175	0x3c879cb7	0.01655422
176	0x3ca52b47	0.020162238
177	0x3bd2a20d	0.0064280094
178	0x3c8ee060	0.017440975
179	0x3ca0766c	0.019587718
180	0xbc7177d7	-0.014738045
181	0xbc6f7f28	-0.014617719
182	0xbc6afcf3	-0.014342534
183	0xbc7dc50a	-0.015488872
184	0xbc7ee0bc	-0.015556511
185	0xbc7a1331	-0.015263365
186	0xbc823cc8	-0.015898123
187	0xbc82df52	-0.015975628
188	0xbc7d233a	-0.015450293
189	0xbbb69f0e	-0.00557316
190	0xbbb583d8	-0.0055393986
191	0xbbae2c0c	-0.0053153094
192	0xbbc680b1	-0.0060578217
193	0xbbc6fb54	-0.006072441
194	0xbbbc189f	-0.0057402398
195	0xbbcae54b	-0.0061918846
196	0xbbcb045b	-0.0061955876
197	0xbbbc2583	-0.0057417764
198	0xbc802ca2	-0.015646283
199	0xbc86f608	-0.016474739
200	0xbc8e92dc	-0.017404012
201	0xbc822a1c	-0.01588922
202	0xbc8c4ef4	-0.017127492
203	0xbc940868	-0.018070415
204	0xbc85ba17	-0.016324086
205	0xbc8f40c2	-0.017486934
206	0xbc935464	-0.017984577
207	0x3d01a4b6	0.03165122
208	0x3ce43391	0.02785662
209	0x3cc2aa58	0.023762867
210	0x3d0ff8fc	0.03514956
211	0x3cf7c720	0.030246317
212	0x3cd0d58b	0.02549245
213	0x3d11ed6c	0.035626814
214	0x3cff15ed	0.031138385
215	0x3cd9b95d	0.026577646
216	0xbb1dcee5	-0.0024079618
217	0xbb73d307	-0.003720464
218	0xbae86f78	-0.0017733416
219	0xbbd22e2c	-0.0064141955
220	0xbc0b8f80	-0.0085181
221	0xbbc392b4	-0.005968416
222	0xbb8ac090	-0.004234381
223	0xbbfb089c	-0.0076609384
224	0xbb869c18	-0.0041079633
225	0x3c6da37d	0.014504311
226	0x3c73287b	0.014841194
227	0x3c626d62	0.013820024
228	0x3c864989	0.016392486
229	0x3c8e74c6	0.017389666
230	0x3c7fb5d0	0.015607312
231	0x3c86e7be	0.016467925
232	0x3c8f819d	0.01751786
233	0x3c7c7ba0	0.015410334
234	0xbb439518	-0.0029843505
235	0xbb9d6d0d	-0.0048042596
236	0xbbd122fc	-0.0063823443
237	0xbb35f87c	-0.0027766516
238	0xbb9d8f59	-0.004808348
239	0xbbd7a7ae	-0.0065812683
240	0xbb228abd	-0.0024801933
241	0xbb94908b	-0.0045338324
242	0xbbce7bc5	-0.0063013756
243	0xbd0d8f87	-0.034560706
244	0xbd0d5836	-0.034507953
245	0xbd1208b8	-0.035652846
246	0xbd0b0f66	-0.033950232
247	0xbd09d881	-0.03365374
248	0xbd12d1c0	-0.035844564
249	0xbd0cd561	-0.03438318
250	0xbd092aa9	-0.03348795
251	0xbd0fa9ab	-0.035073917
252	0xbc120f8c	-0.0089148395
253	0xbc1ca542	-0.009560885
254	0xbc217314	-0.009854097
255	0xbc13407a	-0.00898754

bias f4 [16]
0	0xb2b06dd3	-2.0539039e-08
1	0x3427ac35	1.5615736e-07
2	0x33ce40df	9.6044225e-08
3	0x33233f47	3.8008945e-08
4	0xb118ce8e	-2.2236324e-09
5	0xb4385141	-1.7165895e-07
6	0x34df2efd	4.1571175e-07
7	0x35c3d03f	1.458924e-06
8	0xb0e13156	-1.6384927e-09
9	0xb4a95d02	-3.1546375e-07
10	0xb4b5b95c	-3.3848744e-07
11	0xb4443fb7	-1.8277102e-07
12	0xb4d41dea	-3.9509843e-07
13	0xb2b0056e	-2.0491566e-08
14	0x345df1ad	2.067015e-07
15	0xb40608f0	-1.2482974e-07

weight f4 [16]
0	0x3dbc9afc	0.092092484
1	0x3e102812	0.14077786
2	0x3d637c40	0.055538416
3	0x3dd0833a	0.101812795
4	0x3cb52fca	0.022117514
5	0x3eadb85b	0.33929715
6	0x3e757637	0.23970877
7	0x3e0d24c0	0.1378355
8	0x3ced6254	0.02897755
9	0x3d8da7d2	0.06916775
10	0x3e85ae36	0.26109475
11	0x3e6c58f2	0.23080805
12	0x3e67c1eb	0.22632568
13	0x3d500528	0.050786167
14	0x3db666c2	0.08906318
15	0x3ca49509	0.020090597

bias f4 [16]
0	0x3ca6ff45	0.020385394
1	0x3c0aca6e	0.008471115
2	0xbcb74856	-0.02237336
3	0xbd017e3c	-0.031614527
4	0xbcc6f621	-0.024287285
5	0xbdfb9f02	-0.12286188
6	0x3d25f675	0.040518243
7	0xbc7b0b5d	-0.015322533
8	0xbd2c381a	-0.04204569
9	0x3d32e644	0.04367663
10	0xbe876268	-0.26442266
11	0x3c8180d3	0.015808498
12	0x3c84767e	0.016169783
13	0xbdae7b3f	-0.08519601
14	0x3cb8138d	0.02247026
15	0xbd2ed750	-0.042685807

running_mean f4 [16]
0	0xbcd32051	-0.025772246
1	0xbd312501	-0.04324818
2	0x3c0d04ee	0.008607132
3	0x3c836bd0	0.01604262
4	0x3c4fd1c1	0.012684287
5	0x3d11445b	0.03546558
6	0xbd2211ee	-0.03956788
7	0xbd135a27	-0.035974648
8	0xbb869a33	-0.0041077374
9	0xbcc4cfbd	-0.024024839
10	0xbdf98a0f	-0.12184536
11	0x3cf4a436	0.029863458
12	0x3dd050f2	0.10171689
13	0xbce119c9	-0.027478116
14	0xbbb8523f	-0.005625039
15	0xbb3f04f3	-0.0029147237

running_var f4 [16]
0	0x3cb0934b	0.02155461
1	0x3d394c98	0.04523906
2	0x3b2a696b	0.0026002775
3	0x3be842e5	0.0070880526
4	0x3bbd8622	0.005783812
5	0x3de871b8	0.11349815
6	0x3c96aaa5	0.018391917
7	0x3c5f2038	0.013618521
8	0x3db3fdbe	0.08788632
9	0x3b26b421	0.0025436955
10	0x3d0e8dbe	0.034803145
11	0x3c93f874	0.018062808
12	0x3c853746	0.016261708
13	0x3a4113b9	0.00073653046
14	0x3ad0a64b	0.00159187
15	0x395671a4	0.00020450965
