ai_server/derain_dehaze_rainDS_syn_ts.pt (torch, 208495 bytes, 100 tensors)

weight f4 [16, 3, 3, 3]
000000 4b 12 98 bb 3a a9 b3 bc d9 fb 98 3d 63 73 15 3d
       -0.0046408526 -0.02193128 0.07469911 0.036486994
000010 c3 0a 2b bd 08 37 c6 3c 7c 10 d4 3c a9 ee e7 3c
       -0.04175831 0.024196163 0.025886767 0.028312044
000020 56 1e da bc d7 1e 0b bd a5 39 a0 bd 25 59 14 3c
       -0.026625793 -0.033964958 -0.07823495 0.009054457
000030 3c 5f 09 ba 70 26 bc ba 1d 36 71 3a 7c 43 07 bd
       -0.0005240326 -0.0014354717 0.0009201484 -0.033023342
000040 e7 4a 74 bd b9 cc e0 bd 0c e1 80 bd d0 3c a6 3c
       -0.059641745 -0.10976548 -0.06292924 0.02029267
000050 78 3e 5d 3d 84 2d be 3d ce bd 82 3d 57 65 2e 3e
       0.054014653 0.09286025 0.063838586 0.17030846
000060 ae 25 50 3d 31 b4 99 3d 1d ef b2 3d 72 46 76 bd
       0.050817184 0.07505072 0.087370135 -0.060125776
000070 16 b5 2e bd 50 74 d3 bd 69 3e c4 3c 72 fe c1 3d
       -0.042653166 -0.10324919 0.02395554 0.0947236
000080 03 d3 bc bb b5 d8 4e bd e6 54 29 bd 00 71 e2 bd
       -0.0057624592 -0.050499637 -0.04134073 -0.11056709
000090 4f 04 3f 3d 12 b2 be 3d e9 58 07 bc 56 9d e1 3d
       0.04663497 0.09311308 -0.008260944 0.110163376
0000a0 ad b1 ca 3d ef 00 09 be 41 ee a6 3c d1 05 97 3d
       0.0989717 -0.13379262 0.02037728 0.07374156
0000b0 6d 6d 7b 3d b1 f1 2f be 92 6b 4f bd 70 4f 47 3d
       0.061383653 -0.17182042 -0.050639696 0.048659742
0000c0 63 80 b2 bd 39 1b 97 bd 7b 7a cc 3c 9d fa da bd
       -0.08715894 -0.07378239 0.024960747 -0.10692332
0000d0 80 df 92 bc 84 f8 40 bd d0 42 9e 3b f3 21 6b 3c
       -0.017928839 -0.047112003 0.004829742 0.014351356
0000e0 f5 10 31 bd 69 6a 6f 3c a9 26 56 3d 1d a2 70 bd
       -0.043229062 0.0146127725 0.052282963 -0.058748353
0000f0 0d 29 08 bd 21 e2 d0 bc 24 e2 17 bc 5b 39 b3 3d
       -0.033242274 -0.025498452 -0.009270225 0.08751174
000100 65 dd d3 bb 3e b7 8f bd d4 56 83 bd 88 ba 06 bd
       -0.0064656013 -0.070173725 -0.064130455 -0.032892734
000110 fc db 9e bb db 95 de ba db ba 90 bc 0b 92 73 bc
       -0.0048480015 -0.0016981916 -0.017667225 -0.014866362
000120 28 8e 22 3c 81 0d 34 bd b3 86 8a 3d 1d 64 aa bd
       0.009921588 -0.04395819 0.06763973 -0.08319876
000130 26 5d c4 3b 52 f3 43 bb 0b 7f 00 bd ce 68 f4 bc
       0.0059925495 -0.002989967 -0.031371158 -0.029835131
000140 8c cb d2 3d 1c e1 13 be 7b 7b b3 3b 33 9f 5f bd
       0.1029273 -0.14441341 0.0054773665 -0.054595184
000150 c2 12 d0 3d fa 65 30 bc 28 99 6d 3c 38 d2 1e 3d
       0.10159828 -0.010766501 0.014501847 0.0387747
000160 c8 7d 79 3d 33 96 bf 3c d9 23 bf 3c e9 8d 04 bd
       0.06091097 0.02338705 0.023332523 -0.0323619
000170 de 0e 82 3d b7 24 c8 3c 91 22 a6 bd 88 46 92 bd
       0.06350492 0.02443157 -0.08112062 -0.07142359
000180 33 bd 07 3e 6e e6 7d bd 24 31 05 3c 43 80 05 bb
       0.13255768 -0.061987333 0.008129392 -0.002037064
000190 3c 85 a6 bb 9f 84 6a 3d 84 01 a7 bd c5 e3 a3 3c
       -0.0050818007 0.057255384 -0.08154586 0.02000607
0001a0 c3 02 8d bd 2a 71 dc bc b0 13 b5 bd 76 61 98 3c
       -0.068852924 -0.02690943 -0.08841646 0.01860116
0001b0 86 40 43 3d 44 ed 90 bc 92 98 51 3d e9 7d 81 3d
       0.047668956 -0.017691262 0.051170893 0.063228436
0001c0 50 3d 0e bd 03 2e c7 bd 22 09 b4 3d 8c 1e 58 bd
       -0.03472644 -0.09725573 0.087908044 -0.052763507
0001d0 6a 98 e6 bd dc 79 95 3c df 67 36 3d 69 d0 c2 3d
       -0.112595394 0.018246584 0.044532653 0.09512407
0001e0 a1 d8 48 3d 96 5b 49 3d e1 a1 82 bc 55 a7 a0 bd
       0.04903472 0.04915961 -0.01594633 -0.07844416
0001f0 4f 61 ea 3d 6b 0d 91 bd 24 1f 78 3d c3 77 f2 3d
       0.114443414 -0.070826374 0.060576573 0.11839249
000200 ef c0 60 bd f8 90 a5 bc 16 57 59 3c 40 a9 df bd
       -0.054871496 -0.020210728 0.013265392 -0.10920954
000210 94 e2 c6 3d bc 42 ba bd af a5 91 bd 8f 9f ad 3d
       0.09711185 -0.0909476 -0.0711168 0.08477699
000220 fa 27 3d bb bc 5f da bc 79 a6 dd bd cc 0e 12 3d
       -0.002886294 -0.026656978 -0.10822768 0.035658643
000230 50 b3 9c bd 52 7e 03 bc 81 08 09 3d 59 47 a4 bd
       -0.07651389 -0.008025723 0.033455376 -0.08021421
000240 23 c6 8a bd a8 7b 4a 3d cd 60 93 3d 29 52 8f bd
       -0.06776073 0.049434334 0.07196198 -0.06998093
000250 f4 c4 27 3e 17 b0 1b 3e 98 00 bd 3d 9a f0 08 3c
       0.16383725 0.15203892 0.09228629 0.008358145
000260 a8 c5 cb 3d a7 08 48 3d eb 2e bd bd 12 ba 35 3b
       0.09949809 0.048836377 -0.092374645 0.0027729315
000270 a4 85 75 3d 7b b6 d0 bd af 7f 13 be 2f 05 1e bd
       0.059941903 -0.101910554 -0.14404176 -0.038579162
000280 8e 88 89 bd 40 5e e6 3a aa 76 d4 3c 41 6b 6f 3c
       -0.06715499 0.0017575696 0.02593549 0.014612974
000290 7c b3 6c 3d b6 d0 a2 3c a2 e8 18 be 24 8c 3f bd
       0.057788357 0.019874912 -0.14932492 -0.046764508
0002a0 ff 7d 87 bc a8 b1 93 3d 56 f1 2b 3d 8d 6f 12 bd
       -0.016539572 0.072116196 0.041978203 -0.035750914
0002b0 1e bf d4 bd 22 49 2f bd d8 da 88 bd 15 6b eb bd
       -0.10388015 -0.042794354 -0.06682366 -0.11495034
0002c0 90 90 77 bd 98 04 a7 3c 46 b1 d8 3c ea df f1 bc
       -0.0604406 0.020387933 0.026451718 -0.029525716
0002d0 9a a7 af 3d 01 b9 82 3d 88 b1 18 3d e3 38 cd bc
       0.08576889 0.06382943 0.037278682 -0.02505154
0002e0 94 ae 3e 3e 6a 48 86 3d 47 ef 6e bc 7a 52 bd 3d
       0.18621284 0.06556781 -0.014583415 0.09244247
0002f0 da 59 fe bc b5 b8 1f 3d 6c ff 26 bc af fa 11 bd
       -0.031048704 0.03899451 -0.010192733 -0.03563946
000300 b3 13 a4 bd 18 4e 86 3d 91 e3 15 3e 23 c4 b6 bd
       -0.0801157 0.06557864 0.14637591 -0.08924129
000310 09 17 92 bc 7c 0f 2c 3e fe 29 36 3d 01 a5 35 bd
       -0.01783325 0.16802782 0.04447364 -0.044346813
000320 a9 81 3b bd e8 29 95 bd 6a 22 e6 bc b4 6f 8f 3d
       -0.04577795 -0.072833836 -0.028092582 0.070037276
000330 8b 4b 65 bd 55 91 aa bd f3 63 4d 3d 13 bb ca bd
       -0.055980247 -0.08328501 0.050144147 -0.09898963
000340 df ad a6 3d ee f4 b7 3d 58 17 d5 bc 9d ec af 3d
       0.08138632 0.089822635 -0.026012108 0.08590052
000350 35 f1 9f 3c 12 eb b5 bd e0 99 24 3d 80 f8 e9 bd
       0.019524196 -0.08882727 0.04018581 -0.11424351
000360 ac 6b f4 bc 8c d1 d9 3d ed 53 bf bd 1b e6 ce 3d
       -0.029836498 0.10635671 -0.093421794 0.10102483
000370 cf e4 39 3e 5d d6 01 3d 39 a7 86 3b d9 d0 f5 bb
       0.1815369 0.031698573 0.00410929 -0.007501703
000380 1c 92 03 bc 38 f9 92 bc 10 21 8f 3d 31 3c 9f bd
       -0.008030441 -0.017941102 0.06988728 -0.077751525
000390 61 f1 af bd b5 19 6f 3d 8e 6b b8 bd dd 1c b2 bd
       -0.08590961 0.058374126 -0.090048894 -0.086969115
0003a0 38 90 b1 bd 54 1f 0a 3d af 69 e0 3d 4d 3d 24 bd
       -0.08670086 0.033721283 0.109576575 -0.040097523
0003b0 76 23 0b 3d 48 47 eb 3d 4f d1 fb 3b dd e2 bc 3d
       0.033969365 0.11488205 0.0076848636 0.09222958
0003c0 05 78 41 3d 43 8d 40 bd d1 36 43 3d 1e e3 2d 3d
       0.0472336 -0.047009718 0.0476597 0.042452924
0003d0 6c 81 96 3d 53 58 78 bc 5b 2a fb bd ac 50 75 3d
       0.07348904 -0.015157777 -0.12263938 0.059891388
0003e0 dd 46 47 bd aa a6 2e 3d c0 9b c2 3d 02 9e d1 bd
       -0.048651565 0.042639412 0.09502363 -0.10235216
0003f0 bd 99 88 3d 0c b7 10 bd 36 bf 9a 3d 33 c4 3d 3d
       0.06669948 -0.035330817 0.07556002 0.04632969

bias f4 [16]
000000 5b 8c 5f 36 75 ad b9 b5 84 f9 3a 34 eb 04 24 b7
       3.3311287e-06 -1.3834057e-06 1.7413373e-07 -9.776307e-06
000010 8c 8c 85 34 67 f8 9c 36 da 36 ef b5 0f b4 af 34
       2.4875442e-07 4.67808e-06 -1.7822852e-06 3.27273e-07
000020 13 b4 48 b5 de 83 f9 b5 2c 65 ad b4 47 02 e3 32
       -7.476785e-07 -1.8590324e-06 -3.2297373e-07 2.6427314e-08
000030 5b cd 1e b5 3c 14 ac 36 ea 0d ff b4 35 68 ca b5
       -5.915842e-07 5.128355e-06 -4.7507575e-07 -1.5080501e-06

weight f4 [16]
000000 55 ae 2e 3f 4c d4 f0 3e 3c d2 19 3f 9f a1 c4 3e
       0.6823476 0.4703697 0.6008642 0.38404557
000010 2a eb a6 3e ad 81 cf 3e af cb 00 3f 6e 13 ab 3e
       0.3260129 0.40528622 0.50310796 0.3341326
000020 93 97 32 3f b5 e1 9b 3e 37 62 05 3f ac c5 20 3f
       0.69762534 0.30445638 0.5210299 0.62801623
000030 f8 81 08 3f ad 56 89 3e df bc 07 3f b5 dd 0c 3f
       0.53323317 0.2682394 0.5302257 0.550258

bias f4 [16]
000000 02 f8 18 be c4 14 52 3c 44 ed c5 3d bd 06 0c 3e
       -0.14938357 0.012822334 0.096643955 0.13674445
000010 e2 10 36 bb 8a 11 cf 3d 2b 5b 85 bd 48 60 8d bc
       -0.002778106 0.10110767 -0.065115295 -0.017257825
000020 8f 9d 56 be 4e 2e 08 bd 01 d1 ef bd 46 67 b0 bd
       -0.20958541 -0.033247285 -0.11709786 -0.08613448
000030 cf 45 1f be f5 b3 d7 3d 8b 68 81 3d 5e 73 2b 3e
       -0.15553974 0.10532371 0.06318768 0.16743228

running_mean f4 [16]
000000 ee 0a 1e 3e df ad 4b be c7 46 c5 bd 89 87 7c bd
       0.15433857 -0.19890545 -0.0963264 -0.061652694
000010 d2 6e 2e 3d c8 5b 72 3c 35 c6 9e 3c 34 99 a2 bb
       0.042586155 0.01479239 0.019381622 -0.004962111
000020 59 15 39 3e 56 e0 7e bc 35 e5 c6 3d 06 67 85 3e
       0.1807455 -0.015556416 0.097116865 0.26055163
000030 cc 28 1d 3e cf c2 2a 3c 83 47 0e be cb b2 b8 bd
       0.15347594 0.010422423 -0.13894467 -0.09018477

running_var f4 [16]
000000 8d 14 07 3c 92 bf 40 3c 5d f8 30 3b 7c 9e cd 3a
       0.008244646 0.011764424 0.0027003505 0.0015687491
000010 15 31 42 3b e2 39 a9 39 ab a9 4c 3a e1 ea 22 3b
       0.0029631306 0.00032277318 0.0007807265 0.0024859237
000020 f6 c6 24 3c 01 17 26 3a 93 26 87 3b ae fc a3 3c
       0.010057202 0.00063358253 0.0041244715 0.020017948
000030 c3 68 fc 3b b0 2f a9 39 52 61 cf 3b e6 c7 1b 3b
       0.0077029183 0.00032269722 0.00632874 0.0023770272

weight f4 [16, 16, 3, 3]
000000 14 03 bc 3b e7 f7 90 bb 8b c3 81 3d a7 4a 89 3d
       0.0057376716 -0.0044240835 0.06336125 0.06703692
000010 1b 6f 8e 3c cf 5e 97 3d 59 fc 90 3d 2a 61 6c bc
       0.017386964 0.0739113 0.070793815 -0.014427463
000020 15 7f be bc 23 0b ed bb 1d b7 88 3c e5 a3 ba 3b
       -0.023253957 -0.0072339936 0.016688878 0.0056958073
000030 74 bf 70 bc 05 7f 55 bd 7e f5 16 bd 86 95 e6 bb
       -0.0146940835 -0.05212309 -0.036855213 -0.0070368676
000040 78 e0 39 bd ec 6c 0f bd 48 41 b3 3c 46 6c b0 3b
       -0.045380086 -0.035015985 0.021881714 0.005384001
000050 74 d7 27 3d b1 00 17 3b 98 e5 6b bc f5 90 fd bc
       0.040976956 0.0023041184 -0.014398001 -0.03095291
000060 29 13 07 3d 52 1b 41 3d 18 1b 91 3c 72 7b d0 bc
       0.032977257 0.047145195 0.017713115 -0.025449488
000070 95 a0 1c bd ef 1a b2 3c a8 3d 7f 3c 06 31 02 3d
       -0.03823908 0.021741359 0.015578665 0.031785034
000080 2d 5e 34 3d c5 9e 8d 3c a3 cd 13 3c 4e 26 86 bd
       0.044035126 0.017287621 0.009021196 -0.06550275
000090 c2 cc 18 3d 29 29 27 bd 37 db 2c 3d 78 4f 4b bc
       0.037304647 -0.040810738 0.042201247 -0.012409084
0000a0 23 a3 52 bd e2 13 98 bc f6 6e d2 3c 29 1c c9 bc
       -0.05142511 -0.018564168 0.025687676 -0.02454956
0000b0 19 18 e3 3b 00 83 de bc ad 47 00 bd 2b ff da bc
       0.006930363 -0.027162075 -0.031318355 -0.026733002
0000c0 b2 49 7e bd 8e 36 4f bd 60 23 08 3c f2 65 cf bc
       -0.062082 -0.050589137 0.008309215 -0.025317166
0000d0 d2 84 de bc 09 c1 59 3d bf 10 48 3d 67 bc a7 3b
       -0.027162943 0.05316261 0.048844095 0.005118895
0000e0 44 6e a4 3b a7 7f 6c 3d f7 c0 d8 3b fa cc b6 3c
       0.0050180275 0.057738926 0.0066148 0.022314537
0000f0 2d 9a e9 3c ba 08 65 3d 29 58 8c 3c dc e2 d0 3b
       0.0285159 0.055916525 0.017131882 0.0063747
000100 9f c1 6c 3c 53 3f b1 bc 0f 57 27 3d 64 6a 06 3d
       0.01445046 -0.02163664 0.04085451 0.032816306
000110 98 87 4c bc 9a 39 20 bc 4d b4 19 3d 9b 55 af 3c
       -0.0124835 -0.009779358 0.037525464 0.021403125
000120 7d d9 3d 3c 95 fb 33 bc 8d b1 d2 3c aa a4 48 3d
       0.011587498 -0.010985275 0.025719428 0.04898516
000130 45 95 e9 3c e8 4b 21 bc 2d 13 af 3b c6 47 4f 3d
       0.02851356 -0.009844758 0.005342862 0.050605558
000140 68 1b 99 3d 00 97 c8 bc 2b db 75 3d 85 5a 16 3d
       0.074759305 -0.024486065 0.060023468 0.03670742
000150 bd c8 79 3d 34 88 3a 3c 90 cc ad 3c 55 c3 12 3b
       0.060982455 0.011385012 0.021215707 0.002239426
000160 9d 61 26 3d 5a 64 4c bd 80 a6 03 bc 47 f0 74 3c
       0.040620435 -0.04990039 -0.008035302 0.014949865
000170 19 07 a2 bc 43 c5 92 bc 51 a4 b0 bc b7 01 6a bd
       -0.019778775 -0.017916327 -0.021562727 -0.05713054
000180 18 8a bf bc af 1e 67 bd 05 2f 29 3d ef 45 da bc
       -0.023381278 -0.056425747 0.041304607 -0.026644675
000190 6a 2a 14 3b 3a 7a 1c 3d 90 6f 2c 3d d1 45 1a bb
       0.0022608289 0.0382025 0.04209858 -0.002354015
0001a0 fc 25 b4 3c e9 47 39 bd 19 a5 4c 3b 12 84 4a bd
       0.021990769 -0.045234594 0.0031226336 -0.04944236
0001b0 0b 08 dc bb ff 36 29 bc 7f f2 e4 bc 14 df 7f 3c
       -0.006714826 -0.0103280535 -0.027947662 0.015617151
0001c0 df 34 7d bc 38 f8 f3 bb 42 d4 ac bc 6c 17 ef bc
       -0.0154545 -0.0074453615 -0.021097306 -0.029185973
0001d0 35 9c 3d bc ba d1 85 bc 09 52 e5 3c 60 a7 81 bc
       -0.011572887 -0.016335357 0.027993219 -0.015826881
0001e0 fe 13 e6 bc 72 f7 26 3d 10 15 06 3d 23 79 1b bd
       -0.028085705 0.040763326 0.03273493 -0.03795732
0001f0 f0 12 f5 3c b6 60 1c 3d 14 92 8d bd 10 0b f6 bc
       0.029916257 0.03817817 -0.06912628 -0.030034572
000200 05 60 48 bd ac 60 00 bb 82 15 a5 bd a6 65 49 3d
       -0.048919696 -0.001958887 -0.08060743 0.049169205
000210 7c 24 e9 bb 7e c1 cc bc 79 fb 4d bd f5 4a 02 3c
       -0.007114945 -0.024994608 -0.05028865 0.007952441
000220 ee 59 2b 3c f5 ec 90 3c 02 77 9f ba 2a b8 0c 3d
       0.010458453 0.017691115 -0.0012166204 0.03435532
000230 d5 01 fd 3c 08 a9 b5 bc 24 9c 01 bd 40 51 5d 3d
       0.030884663 -0.022175327 -0.031643048 0.054032564
000240 82 19 2c 3d b7 99 7c 3b ca 7e 07 3c 80 58 84 3c
       0.042016514 0.003854377 0.008269975 0.016155481
000250 02 9b 80 3d 48 81 13 3d 88 66 d9 3c cf d4 49 3d
       0.062795654 0.036011964 0.026538149 0.049275216
000260 e3 3f 20 3d 3b f8 ba 3c 3c f4 a2 bc 11 5b d5 bc
       0.039123427 0.022823444 -0.01989185 -0.0260444
000270 bb 8b a3 3a 2a de 96 bb 2e 27 8c 3a 97 7c 27 bc
       0.0012477556 -0.0046041207 0.0010692829 -0.010222576
000280 d1 6e ac bc b4 d0 e5 bc 44 49 80 3c fe f9 2f bb
       -0.021048935 -0.028053619 0.015659936 -0.0026851888
000290 44 34 b0 bb 27 33 89 bc dd 91 ae 3c 02 f6 ee bb
       -0.0053773243 -0.016748024 0.021309787 -0.00729251
0002a0 a0 9d e5 bc 6b 0d 08 bd 5a ee f2 3c 93 6f 4c bc
       -0.028029263 -0.03321592 0.02965467 -0.012477773
0002b0 ad 2f 86 bc 4c 40 9c 3c 5f 30 d9 bb eb e0 cb bc
       -0.016380155 0.019073628 -0.0066280807 -0.024887523
0002c0 f3 96 c2 bc 27 71 29 3c df 49 6d bb 7f 31 d3 bc
       -0.023753619 0.010341919 -0.003620736 -0.025780438
0002d0 89 8d 98 3b 32 1d b3 3c 28 82 3e 3a 24 2b 74 3c
       0.004655544 0.021864507 0.00072673196 0.014902864
0002e0 06 91 99 3b 89 b7 b9 bc 9a c1 1a 3c f6 e6 24 bd
       0.0046864776 -0.022670524 0.009445572 -0.040259324
0002f0 72 91 24 bb 8c 38 a9 bc fd 33 4f bd 65 9e 30 bd
       -0.0025111106 -0.020656846 -0.05058669 -0.043119807
000300 47 b0 00 bd 8c 88 89 bc 92 0c 1b 3c 9b b8 96 bb
       -0.03141811 -0.016788743 0.009463446 -0.0045996434
000310 56 4a 0f bd 32 6a 9c 3c 76 45 43 3d 98 e5 24 bd
       -0.034983 0.019093607 0.047673665 -0.04025802
000320 03 82 0e 3d 91 8a a8 bc 39 b3 46 3b 95 bb ab 3c
       0.034791958 -0.020573886 0.0030319227 0.02096347
000330 69 ed 03 3c 9e de 6b bc 87 43 22 bc fe 61 56 bd
       0.008052208 -0.014396338 -0.009903795 -0.052339546
000340 d1 e9 29 bd 15 78 aa bc c0 9d 83 bc 5a c5 9c bc
       -0.04148275 -0.020809213 -0.016066432 -0.019137073
000350 0b fa 06 bd 47 12 20 bd 8b 05 e5 ba 49 c8 e9 bc
       -0.032953303 -0.03907993 -0.0017472965 -0.028537886
000360 11 ec 89 3c 26 b2 49 3c d7 8b a4 3c fd c1 aa bc
       0.016836198 0.01231054 0.020086212 -0.020844454
000370 e3 d2 89 bc 99 96 ce bc 05 d8 46 3d 27 c3 69 3d
       -0.016824191 -0.025218295 0.048545856 0.057070877
000380 f1 2d 64 bc 7c 86 bb bc f5 7a 2b bd 26 47 03 bd
       -0.013926969 -0.022891276 -0.041865308 -0.032050274
000390 94 b7 74 bb 6e fe 46 bd 8d 26 99 3b d3 15 67 bd
       -0.0037340866 -0.048582487 0.004673785 -0.056417298
0003a0 65 be 9e 3b a6 54 e3 bc 4c 9b e3 3c 66 71 1a 3d
       0.004844474 -0.027750324 0.027784012 0.0377058
0003b0 c2 63 ae bb bc 5f 17 3b 5b c4 82 3c 4a eb 2a 3d
       -0.0053219507 0.0023097834 0.01596277 0.041728295
0003c0 d2 1f 02 3d ed 95 54 3d 12 48 6a 3b dc 07 36 3d
       0.031768627 0.051900793 0.0035748524 0.04444109
0003d0 60 bd 17 3d 79 68 eb 3c 01 39 f9 bb 7e be ad 3c
       0.037045836 0.02873634 -0.0076056723 0.021208998
0003e0 7f 73 0f 3d 7d 81 90 3c ce 0d 86 bb 1e dd 2f 3d
       0.035022255 0.01763987 -0.004091001 0.042935483
0003f0 51 f5 32 3b 05 52 9e ba 5b 48 07 3d 76 49 ab 3b
       0.0027306865 -0.0012078887 0.033027988 0.005227263

bias f4 [16]
000000 b8 06 9d 34 d6 93 21 b2 94 60 f3 b3 60 02 68 b4
       2.9248417e-07 -9.405047e-09 -1.1333137e-07 -2.1607548e-07
000010 e9 24 05 b4 91 02 5b 35 38 bb 9e b4 bd f2 4d b3
       -1.2400018e-07 8.158759e-07 -2.9566013e-07 -4.795105e-08
000020 5f 37 05 b5 b7 ab 15 b4 80 41 9d b4 f1 d9 c9 34
       -4.9626937e-07 -1.3939176e-07 -2.9291186e-07 3.759774e-07
000030 78 7c 10 b2 6a ec 18 37 91 29 3c 35 4c 5b 89 34
       -8.410204e-09 9.11495e-06 7.0095945e-07 2.5584666e-07

weight f4 [16]
000000 8d 44 f7 3e e7 8d 0c 3f 0a e2 f1 3e b6 0d 0e 3f
       0.48294488 0.54904026 0.47242767 0.5548967
000010 f4 7f 00 3f ba 0a 1d 3f 6c fa e8 3e f8 30 dc 3e
       0.5019524 0.6134449 0.45503557 0.4300611
000020 49 02 c9 3e 45 97 e4 3e 2f f1 c5 3e 6f 8c 0e 3f
       0.39259556 0.4464666 0.3866057 0.55683035
000030 a9 d6 dd 3e 79 15 15 3f 1b e8 08 3f 6e a1 0f 3f
       0.43327835 0.5823589 0.53479165 0.561057

bias f4 [16]
000000 c6 6b 54 bd da 93 aa bd d9 b4 1d bd ab 89 6a be
       -0.051860593 -0.08328982 -0.038502548 -0.22904079
000010 02 73 7f 3d 6a d2 ab 3d c5 ac 19 bd ad fe 70 bc
       0.06236554 0.08389743 -0.03751828 -0.014709157
000020 a4 9d 54 be 11 32 34 be 8c a6 b0 bd 9b 29 7b 3d
       -0.2076326 -0.17597224 -0.08625516 0.061318975
000030 c1 07 15 3d 89 b5 c4 be 45 af 5b 3d 76 56 3c be
       0.036384348 -0.3841975 0.053633947 -0.18392357

running_mean f4 [16]
000000 79 22 52 3d 51 b9 6e 3c df 0c 78 3c 31 05 4e 3e
       0.051302407 0.01457055 0.015139787 0.20119168
000010 e1 aa 7c bd 6d 06 ae 3d 09 e1 21 be c8 4e 4a 3c
       -0.0616864 0.08497319 -0.158085 0.0123478845
000020 69 fe af 3e 23 d7 76 3e 98 b0 bd 3c 5c e5 83 be
       0.34373787 0.24105506 0.023155496 -0.25760925
000030 fa 20 f3 bb c3 eb a8 3e c2 ba 3a bd f3 8a 0a 3d
       -0.0074197026 0.32992372 -0.045588262 0.03382392

running_var f4 [16]
000000 17 bf 15 3d 12 4a f5 3d 93 cf 02 3d 29 4e 94 3e
       0.03655919 0.119770184 0.03193624 0.2896588
000010 e9 9f 5b 3e 13 9b f7 3d 91 2a 61 3d 4c 03 05 3e
       0.2144772 0.12090125 0.054972235 0.12989539
000020 01 60 12 3d 21 55 52 3d 3d 99 e8 3d 34 a2 ca 3d
       0.035736088 0.051350717 0.11357353 0.09894219
000030 d2 26 aa 3d 13 b6 af 3d 77 12 b5 3d 75 54 2e 3d
       0.08308186 0.0857965 0.088414125 0.042561013

weight f4 [16, 16, 3, 3]
000000 0d 1c 3b bb dd 9e 85 bd f3 f5 3b bd 42 90 fa bc
       -0.0028550655 -0.065244414 -0.045888852 -0.030586366
000010 d0 db d0 3c f6 62 96 bd 87 b9 62 3d fa de 91 bb
       0.02549544 -0.07343094 0.055352714 -0.0044516297
000020 2e e9 f3 bb 55 2e cd bc d6 f3 19 3b 76 82 01 3d
       -0.0074435687 -0.025046507 0.0023491285 0.031618558
000030 b3 5c 12 bd 97 d8 95 3c 5f 4f b2 bc 96 b7 df 3c
       -0.035732936 0.018291755 -0.021766363 0.02730922
000040 78 e4 54 bc 06 32 01 bd b2 06 db 3b 7b 5d e3 bb
       -0.012993924 -0.031541847 0.0066841478 -0.006938634
000050 09 f5 ee 3c d1 b5 c7 bc 54 c4 73 3c 74 c6 85 bc
       0.029169576 -0.024378689 0.014878351 -0.016329981
000060 d2 a2 af 3c 19 42 9b 3c 60 c6 93 bc ec ee f9 3a
       0.021439943 0.018952416 -0.018038929 0.0019068397
000070 52 78 92 bd 6d b0 13 bc 82 3f c8 3c f6 59 c9 bc
       -0.071518555 -0.009014231 0.024444345 -0.02457903
000080 d3 e7 7a bd 2d c8 a1 3c cf 0b 90 bc 81 c7 e4 bb
       -0.06125624 0.019748772 -0.017583756 -0.0069817905
000090 05 08 35 3d 9d 46 a2 ba 7e 35 9c 3b d1 18 59 bc
       0.0441971 -0.0012380664 0.004767119 -0.013250546
0000a0 29 b6 1d bc 4c 6e 9d bc db 2b 26 bc 0a 37 d6 3b
       -0.00962595 -0.019217633 -0.010142292 0.006537323
0000b0 a0 8d a3 bc b1 ee 97 3d 0d 9a ac 3d d9 6f ee 3c
       -0.019964993 0.07418574 0.0842782 0.029106067
0000c0 12 2a 00 3d 75 25 a4 bc 86 33 87 3c 85 a3 49 3c
       0.03129012 -0.020037392 0.01650406 0.0123070525
0000d0 cc ff 93 bc a4 25 d8 bb 6b 89 a4 bc 1f d4 4e bb
       -0.01806631 -0.006596284 -0.020085057 -0.003155954
0000e0 8a 5a 87 bc 57 7c f4 ba 5a c2 fe 3c 11 7d ba 3c
       -0.016522665 -0.0018652779 0.031098533 0.022764714
0000f0 cb a7 13 3d 59 b3 ec bc c3 79 07 3d d1 c0 c2 3c
       0.03604869 -0.028894113 0.033075105 0.023773583
000100 3b 3f 89 3c ec 99 0d 3d 35 b6 37 3c c1 e9 18 bc
       0.016753783 0.03457062 0.011212875 -0.009333075
000110 c0 c5 cf ba 68 e0 7b bc 70 62 03 bb 66 c5 b8 bc
       -0.0015851781 -0.015373327 -0.0020047687 -0.022555064
000120 27 cb 15 3c a7 bd d1 bc ce b9 7b 3d 91 e9 df 3b
       0.009142674 -0.025603129 0.061456494 0.006833263
000130 cc e7 39 3d d4 6a 09 bd c2 56 35 3d 9b e5 39 3d
       0.045387074 -0.033549145 0.04427219 0.045384984
000140 de db 04 3d db ea 77 3b 43 dd 5c 3c a9 22 d5 bc
       0.032436244 0.0037829194 0.013480487 -0.026017504
000150 da 73 bf 3c 78 5a b5 3c ec 79 c9 3c cc b6 42 bc
       0.023370672 0.022137865 0.02459427 -0.0118844025
000160 1c a7 88 3c 46 c3 a3 3c 7e d8 19 3d 13 94 06 3b
       0.016681246 0.019990575 0.03755998 0.0020535036
000170 27 83 34 bc 40 5e 51 bc d3 c9 9c 3b 60 40 b9 bc
       -0.011017597 -0.012778819 0.0047848015 -0.022613704
000180 d5 95 a2 bc 80 09 0d bd b2 49 33 bc 9e ee 17 3b
       -0.019846836 -0.034432888 -0.010942863 0.0023182998
000190 76 32 c4 ba 97 43 a7 3c d7 09 03 bd be 29 0a bd
       -0.0014968652 0.020417972 -0.031991806 -0.033731215
0001a0 04 2b ad 39 da e9 82 bc 28 88 c9 bc d9 d3 88 b9
       0.0003302918 -0.01598065 -0.024601057 -0.0002609778
0001b0 ae 31 d5 3c f2 87 11 3d 4a 7c 15 3d a8 c0 40 3c
       0.026024666 0.03553004 0.036495484 0.011764683
0001c0 c7 3d 9b bb 98 a5 d2 3c a9 a2 84 3c 1b 52 8d bc
       -0.004737589 0.025713727 0.016190844 -0.017251065
0001d0 5b ee dd bb 79 f7 2d 3c d1 b9 22 3c 88 8d a3 3a
       -0.006772799 0.010618084 0.009931997 0.0012478093
0001e0 a0 66 c0 3c bb c4 9c 3d e6 2b ce 3c f3 3f 88 bb
       0.023486435 0.07654711 0.025167417 -0.004158014
0001f0 5e 50 33 bd f8 d3 19 3d ef e2 24 3c 2a 95 c6 3c
       -0.043777816 0.037555665 0.010063871 0.024241049
000200 98 f0 5c 3c 51 e7 0b 3c d0 45 ed bc 76 95 b8 bc
       0.013485096 0.008539037 -0.028963953 -0.022532206
000210 3b ab c6 3b f6 7e 0e bd 5a 4f b5 bc a8 c3 10 3d
       0.0060628927 -0.034789048 -0.022132564 0.035342842
000220 84 81 40 bd cd a0 54 bd a1 55 9d bc aa cf 05 3b
       -0.046998516 -0.051911164 -0.01920587 0.0020417967
000230 d8 5c b8 bd 71 4b b8 3c 04 58 8e bd 09 5c 1f bc
       -0.090020835 0.02249691 -0.069503814 -0.009726533
000240 18 bd da bc c6 00 20 bd d9 a9 39 bc ba c8 37 bd
       -0.026701495 -0.039063238 -0.011331999 -0.044869162
000250 d8 42 21 bd 0b 55 38 3a 07 a0 56 bc fa 45 ec ba
       -0.039370388 0.00070317154 -0.013099677 -0.0018026226
000260 56 d6 1b bb b3 39 cd 3b 77 ab 43 3c 59 59 35 3c
       -0.0023778877 0.006262982 0.011942736 0.011068665
000270 9f c7 f9 3c 62 74 b9 3c 60 91 da 3b 67 2a 1f 3d
       0.030490695 0.022638503 0.006670162 0.038858797
000280 6a 9c e6 3c 59 52 dd 3c 3e 9f f8 bc a3 e9 6f bc
       0.028150756 0.027016805 -0.03034937 -0.014643106
000290 24 d3 30 bc 0f 3a eb bc 9f 4a b6 bc ab bb 36 3b
       -0.010792527 -0.028714208 -0.022252379 0.0027882855
0002a0 61 0b ac bc c5 de 75 bc b8 d8 02 3c 2d f4 5f bc
       -0.02100152 -0.015006726 0.00798624 -0.013669056
0002b0 e2 f6 9a bb 7f c6 c4 ba 6b 3c c4 3b 40 cc 1d 3c
       -0.0047291378 -0.001501277 0.0059886477 0.0096312165
0002c0 87 b2 e0 3c 0b b8 09 3d 0e df d9 3c 44 0b 26 3d
       0.027428878 0.033622783 0.026595619 0.040538087
0002d0 d5 d9 92 bc ab c6 6c bc 0c 6a 9a bc be af 88 bb
       -0.017926136 -0.014451663 -0.018849395 -0.0041713407
0002e0 b4 12 93 bc 71 78 e4 3b ba c7 8b bc 32 08 9c bb
       -0.017953254 0.0069723655 -0.01706301 -0.004761719
0002f0 d7 81 a5 bc 6d 9b ba bc 7b 3b 95 bc 40 03 fa bb
       -0.020203514 -0.02277919 -0.018216839 -0.007629782
000300 a4 eb fa bc 0e 6a 82 bc 4a f8 9a bc 55 1a 92 bc
       -0.03062994 -0.015919711 -0.018917222 -0.017834822
000310 37 45 a4 bc a8 24 d2 bb 6d c7 e5 bc d0 b1 a8 bc
       -0.020052535 -0.006413061 -0.028049195 -0.0205926
000320 dd 48 28 bd 25 74 f1 bb a8 75 ef bb 8a 0c 4e bc
       -0.041085113 -0.007368582 -0.007307727 -0.012576232
000330 04 bf 8c 3b 1f 6b 2e bc 2d 3a 0d 3c d1 f8 71 bc
       0.004295232 -0.010645657 0.008619827 -0.014768795
000340 d9 ac a8 bc c3 56 7b bc 0c 3a df b9 1e b7 8a 3a
       -0.020590233 -0.01534051 -0.00042577123 0.0010583138
000350 37 0f af bb d2 83 0d bc 4e b0 fc bb a0 ba 5c bc
       -0.00534239 -0.008637385 -0.007711447 -0.013472229
000360 43 2e fd 3a 39 59 24 bc 0c c5 b8 3c a2 fc 9c 3c
       0.0019316155 -0.010031038 0.022554897 0.019163433
000370 85 11 09 bb eb e7 17 3c bb 5e 17 3d e6 af 6f 3c
       -0.0020914983 0.009271602 0.036955576 0.01462934
000380 f4 5a 8d 3c 4c 9d 39 bc 84 cb 0f 3a 96 d6 87 3c
       0.017255284 -0.011329006 0.0005485343 0.016581815
000390 40 d3 b0 39 77 6e f5 3c 49 d6 0b 3c 8f c8 bb 3c
       0.0003372673 0.0299599 0.008534976 0.022922782
0003a0 b2 40 1e 3d 95 7d 95 3c bc 94 bc bb f5 2b a7 3c
       0.038635917 0.018248359 -0.005755035 0.020406703
0003b0 81 24 9b 3b 81 4a bb 3c 87 76 10 3d 3d c4 28 bb
       0.004734576 0.022862675 0.035269286 -0.0025751733
0003c0 e7 fa 95 3c 4d c7 5d 3d c7 8e 82 bb 84 fb ac 3c
       0.018308116 0.054145146 -0.0039843055 0.021116026
0003d0 7b 17 af 3c fb a8 34 3b 8e 01 e1 3c b3 43 37 bb
       0.021373501 0.002756654 0.027466562 -0.0027963936
0003e0 06 81 01 3d b2 a3 0b 3c 53 62 c5 3b b0 de 8f 3c
       0.031617187 0.008522915 0.006023684 0.01756224
0003f0 4b d0 5a bc 49 5a 09 bd d6 02 a9 3b ba cf f1 bc
       -0.013355325 -0.03353337 0.005157809 -0.029517997

bias f4 [16]
000000 3f 02 a3 34 80 fc a7 35 9d b8 c1 32 a4 9d 93 b5
       3.036275e-07 1.2515957e-06 2.255211e-08 -1.0998233e-06
000010 fb c7 b5 b3 f6 71 99 b4 b1 60 44 34 1a 7f 55 34
       -8.4648455e-08 -2.8581388e-07 1.8289099e-07 1.988341e-07
000020 10 2b 97 b5 a3 e8 44 33 5d a4 10 b5 7e cb 3c b4
       -1.126291e-06 4.5846388e-08 -5.388336e-07 -1.7582894e-07
000030 52 fd b0 34 01 3c 0a b4 3b 59 9e 33 de 2b 6d b6
       3.296687e-07 -1.2874081e-07 7.373679e-08 -3.5341286e-06

weight f4 [16]
000000 f6 49 98 3e 64 06 e1 3e eb 99 da 3e af d8 f7 3e
       0.29743928 0.43950188 0.42695555 0.48407504
000010 ec 16 6e 3e 64 b7 72 3e 44 f8 a9 3e fc 88 d3 3e
       0.23250932 0.2370277 0.33197224 0.41315448
000020 c6 dc 94 3e 45 64 5c 3e d7 ae 81 3e 7f 93 b8 3e
       0.29074687 0.21522625 0.25328705 0.3605003
000030 4d 35 b0 3e 86 69 a1 3e b1 49 7d 3e 91 c4 01 3f
       0.34415665 0.3152582 0.24735142 0.5069056

bias f4 [16]
000000 23 0a 8c bd b3 08 8f bd e5 58 d9 bd 8f f6 ad 3c
       -0.06837871 -0.06984081 -0.106126584 0.021235732
000010 87 a5 90 bd 1a d8 a8 3c 38 c1 8b bb 39 64 ed bd
       -0.07062822 0.020610858 -0.004264977 -0.115913816
000020 fa e9 82 bd 92 8b 8b bc d1 50 6f bc 4a 8d 2d bc
       -0.06392284 -0.017034326 -0.0146066705 -0.010592768
000030 ca 4a 3e bd 87 7b 86 bd b6 0f 2b bc 64 4c d0 bd
       -0.046458043 -0.0656653 -0.0104407575 -0.1017082

running_mean f4 [16]
000000 51 63 09 3c 85 93 bb bd f7 ba 73 3c 55 ea 4b be
       0.008385495 -0.091589965 0.014876119 -0.1991361
000010 89 a3 6b bd 3a 7a b4 bd d9 22 f0 bd 01 2d 91 3b
       -0.057529006 -0.08812375 -0.11725397 0.0044304137
000020 96 1f 1a 3d d8 6d af 3c cb eb 17 bd 87 b0 b2 3c
       0.03762778 0.021414682 -0.037090104 0.02181269
000030 f6 7b 1b 3e 36 e7 14 3c 2d f6 a2 bd 9c 27 02 3f
       0.15184006 0.009088328 -0.079571106 0.5084169

running_var f4 [16]
000000 09 29 2f 3d bc f3 8a 3d 87 c8 45 3e 89 06 d1 3d
       0.042763744 0.0678477 0.19314776 0.102063246
000010 5f 2c 93 3d 74 72 e1 3c 6d de 6f 3e f4 9e 01 3d
       0.071861975 0.027520396 0.23424692 0.03164573
000020 73 44 c9 3b 4d 1a a0 3d 1a 13 9a 3c f6 ff 53 3e
       0.006142193 0.078175165 0.018807936 0.2070311
000030 f4 8c 4d 3c 7a 70 51 3e 54 7a f0 3c ca 43 91 3d
       0.012545813 0.20453063 0.029355206 0.07093008

weight f4 [16, 16, 3, 3]
000000 dd 1f 91 bc b9 59 a2 bb 34 9e b0 b7 fc ad 9a 3c
       -0.017715389 -0.0049545434 -2.1054504e-05 0.01888179
000010 90 75 37 bd 36 87 a7 3c 14 97 a8 bc 61 10 88 bb
       -0.04478985 0.020450216 -0.020579852 -0.004152343
000020 4c c5 7e bb 84 4b ed bb fa b0 4e 3c c8 f8 fa 3c
       -0.0038874922 -0.007241668 0.012615437 0.030636206
000030 a2 bb 4c 3b fb 98 d5 3c 12 f8 b6 3c 2e ce ef 3b
       0.0031239768 0.026073923 0.022335086 0.0073182797
000040 a8 aa ed 3b 25 22 88 3d 1e ac dc bc 57 f5 8f 3d
       0.00725301 0.066471376 -0.02693754 0.07029217
000050 a8 c3 f6 3c 01 fe 1d 3b cb 8e 75 3c f9 d7 6b 3d
       0.030122593 0.0024107697 0.014987658 0.057579014
000060 9d ef 0d 3c ad ae 99 bb e3 a6 97 3c ee db c1 bb
       0.008663085 -0.0046900124 0.018512195 -0.0059161102
000070 9b a7 66 3b 1e ae 5c bc fb 65 c4 bb b9 71 8c 3c
       0.0035195115 -0.013469247 -0.0059936023 0.017144071
000080 12 9d 20 3c e4 98 ee 3c 39 0c 4e 3b fb 24 c3 3b
       0.0098030735 0.029125638 0.003144039 0.005955336
000090 2e f9 05 bd 72 87 ca 3c 27 13 b9 bb e6 ad a2 bc
       -0.03270834 0.024722788 -0.005648035 -0.019858312
0000a0 03 d9 d0 3c 88 83 6c bd 5c d6 a8 3c 9a 3c 21 3d
       0.025494104 -0.057742625 0.020610027 0.039364435
0000b0 2a 46 52 3d 6a 96 d6 3c 5e a7 9f bc bd 40 08 3b
       0.051336445 0.02619477 -0.019488987 0.002079054
0000c0 11 0d a7 bc 94 1d 42 bb a3 d2 12 bc 25 de 48 bc
       -0.020391973 -0.002961968 -0.0089613525 -0.012259995
0000d0 05 ea 9e 3b 56 82 a3 bb ff 51 0c bc b3 0b b2 3c
       0.0048496746 -0.0049899025 -0.008564471 0.021734094
0000e0 f9 a2 01 3c 0b f0 28 3d af b3 08 3b 2f fb a0 3c
       0.007912391 0.041244548 0.0020859053 0.019651024
0000f0 7a 87 4d bb b3 09 2e bc 1c 85 3e 3c 76 b0 26 bb
       -0.0031361268 -0.01062243 0.011628415 -0.0025434769
000100 61 d6 05 bd 79 ad f2 bc 4e 0e ad bb cd 60 8f bb
       -0.03267515 -0.029623734 -0.0052812463 -0.004375553
000110 05 d5 1d bb ac 52 17 3d 12 63 81 bb 23 ab d7 bc
       -0.0024083268 0.036944076 -0.0039485777 -0.026326722
000120 8d 9e 84 bc 39 07 32 3c 51 6b 9b bc 11 eb 70 bd
       -0.016188884 0.01086598 -0.01897207 -0.058817927
000130 f2 ad b7 ba 21 5d 88 bb 55 d1 1e 3c 4b 57 87 3c
       -0.0014013632 -0.0041614925 0.009693463 0.016521117
000140 67 b3 92 3c a7 56 17 bc 71 b5 e2 bc 47 29 75 bc
       0.017907811 -0.009236968 -0.027674409 -0.014963455
000150 1d 1c 12 bb f1 a8 c3 bc 93 2f cb 3c 2b 7c 14 3c
       -0.002229459 -0.023884268 0.024802959 0.009062807
000160 38 0e 00 bd 1f 74 f3 bb 62 00 0b 3c 5e 1a 0e bd
       -0.03126356 -0.007429614 0.008483978 -0.034693114
000170 70 2a 3d bc ad 69 b2 3c 2e 06 86 bb d2 54 95 3c
       -0.011545762 0.021778906 -0.004090092 0.018228922
000180 eb 85 9a 3b ff d9 5e bc 4e 08 97 bc 43 b3 6b 3d
       0.0047156713 -0.013601779 -0.018436577 0.057544004
000190 52 d2 d2 bc a5 80 bf 3c 67 7f 98 3d 6a 31 23 3d
       -0.025735054 0.023376772 0.07446175 0.039842047
0001a0 05 c4 08 3d d8 1d 58 3c 55 ef aa 3c 9d 39 f2 bc
       0.033390064 0.013190709 0.020866076 -0.029568488
0001b0 1b ef c8 bc b2 36 2e bc b1 bb 8e 3b aa 3e ef bc
       -0.024528077 -0.010633158 0.0043558707 -0.029204685
0001c0 d9 de aa bd 17 2e de bc c8 85 e1 3c 55 25 38 bd
       -0.08343286 -0.027121587 0.027529612 -0.044957478
0001d0 81 68 ec bc bc 2c 0f 3d 59 2b 44 3c 1e a8 a7 bc
       -0.028858425 0.03495477 0.0119732255 -0.020465907
0001e0 c7 6e e0 3c 20 6e f3 3b b6 31 07 bd 14 85 2c 3d
       0.027396573 0.0074288994 -0.033006392 0.0421191
0001f0 49 62 24 bb 02 1a cc bc 43 18 86 3c 3c 96 08 3d
       -0.0025082997 -0.024914745 0.01636899 0.0333464
000200 36 5e 1f bd 35 57 27 3d 6b b2 b8 3c 02 4b bf bc
       -0.038908206 0.04085465 0.022546014 -0.023351196
000210 f8 b4 a5 3c 31 bb 0e 3d 7e 1c 0c bc a8 b2 90 bc
       0.020227894 0.03484649 -0.008551715 -0.017663315
000220 6b 63 81 bd 63 30 e3 bd 38 03 f5 bd e0 bb c3 bd
       -0.063177906 -0.110932134 -0.119635046 -0.09557319
000230 b7 a5 1b be be d0 a6 bc c8 be 96 bd 1f dd b5 bd
       -0.15199934 -0.020363208 -0.073606074 -0.08880066
000240 95 5d 6e 3c 40 6f 15 bc f2 f5 ea bc fb 1f b0 3c
       0.014548679 -0.009120762 -0.028681729 0.021499624
000250 b5 bb d6 3c b6 1e 3d 3c ff b5 3f bb 7a 20 10 3c
       0.026212553 0.011542967 -0.0029252765 0.0087968055
000260 0d 43 03 3c 8c cd c5 bc 2f 9f c0 bc 3b 27 ec bc
       0.008011592 -0.024145864 -0.023513405 -0.0288273
000270 a6 e0 f0 bc 53 4e ec bc 1f b9 20 bd e7 99 1b bd
       -0.029403996 -0.028845942 -0.039239045 -0.03798857
000280 d8 a6 06 bd 1e 6f 42 bd d8 83 0e bd 33 69 ee bc
       -0.03287396 -0.04746925 -0.034793705 -0.029102897
000290 cb 7a 15 bc 07 d8 11 bd a2 fb fc bc c4 50 1a bc
       -0.009123514 -0.03560641 -0.030881707 -0.00941867
0002a0 54 04 02 bd 81 c7 e2 bc af c8 40 bc 18 e2 d7 bc
       -0.03174241 -0.027683022 -0.011766597 -0.026352927
0002b0 ed a3 7a bb c5 24 c1 bc f2 54 c1 bc 70 57 05 3c
       -0.003824468 -0.023577103 -0.023600075 0.0081385225
0002c0 4a 31 c8 bc 0b 04 a8 bc 65 e2 3b bc 39 c8 70 bd
       -0.024437565 -0.02050974 -0.011467551 -0.058784697
0002d0 6d ea 95 bc b3 22 14 bc 9d 09 c7 ba c7 f6 ca bc
       -0.01830026 -0.009041476 -0.001518536 -0.024775876
0002e0 39 cc 73 bc 1a 9d bb bb b7 e3 e1 bc 7b 16 af bc
       -0.014880233 -0.005725515 -0.027574403 -0.021373024
0002f0 bc 65 9a bc 3a 54 32 bc f3 78 29 bb 45 d7 6c bd
       -0.018847339 -0.010884339 -0.0025859445 -0.057822485
000300 65 3e 06 bd f0 b0 8c bc f2 e2 3d bd ec 34 35 bd
       -0.032774348 -0.017174214 -0.04635901 -0.044239923
000310 86 0f a3 bc df 9e e2 bc 1f 1d 8c 3c a8 ed a6 3a
       -0.019904863 -0.027663646 0.01710373 0.0012735622
000320 2d 0b 01 3d d7 ad f5 3b b3 7a 93 3c 51 52 34 bc
       0.0315048 0.00749753 0.018002843 -0.011005954
000330 7e d1 e5 3b b9 04 00 ba 1f 62 07 bc 43 dc c5 bc
       0.007013499 -0.0004883516 -0.00826314 -0.02415288
000340 61 2c 85 bc dd 7f a9 bc 26 85 24 bd 75 5a 14 bd
       -0.016256513 -0.020690853 -0.040166043 -0.03621908
000350 01 d1 04 bd 0d ba 21 bd d2 ad 0d bd 7f 95 13 bd
       -0.032425884 -0.039484072 -0.034589596 -0.036031242
000360 fb dc 95 3b 73 69 40 3c 9f ee 1b 3d ed 93 45 3b
       0.004573462 0.011743891 0.038069364 0.0030147985
000370 ed dd 34 3c 53 70 4b 3c 71 cd 0e 3b 45 a5 99 3c
       0.011039239 0.012416917 0.0021789933 0.018755564
000380 9f d1 18 3d c8 ad 3a 3c 53 31 06 3d 91 2e e5 3c
       0.037309285 0.011393972 0.032761883 0.027976306
000390 b7 ae a7 3b ce 61 4e 3c fa 71 2c 3c f1 b7 2a 3c
       0.005117263 0.012596561 0.010525221 0.010419832
0003a0 7a 7d 11 3c ed 16 85 3c 68 a7 5b bc c1 12 af bc
       0.008880014 0.016246283 -0.013406612 -0.021371247
0003b0 5c ec fa bc 39 4c 08 bd 20 af d8 bc 98 05 10 bd
       -0.030630283 -0.033275817 -0.026450694 -0.035161585
0003c0 4e 73 6c bd ba 51 72 bd 1c f0 35 bd 7b d6 a0 bc
       -0.05772715 -0.05915997 -0.04441844 -0.019633522
0003d0 7a 7d 84 bc fe f6 4d bc d9 66 f6 bc 02 8c de bc
       -0.016173113 -0.012571095 -0.030078338 -0.02716637
0003e0 7b 1e ae bc af db ec bc 25 13 e4 bc a1 68 95 bb
       -0.021254769 -0.028913347 -0.02784116 -0.004559592
0003f0 1c 75 84 3b 0b 19 16 bd 41 1b 79 bc 7d cd 7b bb
       0.004042281 -0.036644977 -0.015204252 -0.003842204

bias f4 [16]
000000 9e 82 00 35 67 60 8a 33 d0 f7 46 35 a1 47 3c 34
       4.787379e-07 6.443661e-08 7.412136e-07 1.7534923e-07
000010 74 27 50 b4 a8 0e b3 34 5b 2c 92 b4 96 01 bf b4
       -1.9385863e-07 3.3352012e-07 -2.7226892e-07 -3.5577676e-07
000020 b7 d7 08 b4 d9 db 14 34 c7 48 9e b5 4c 0d 3d b5
       -1.2744464e-07 1.3863554e-07 -1.1793098e-06 -7.0427336e-07
000030 92 89 04 35 66 e7 ad b4 b7 e4 4c 35 14 ec b7 b5
       4.9374023e-07 -3.2392126e-07 7.6328746e-07 -1.370327e-06

weight f4 [16]
000000 19 cb 0e 3f 23 b5 63 3e ee 66 83 3e 10 4f 93 3e
       0.5577865 0.22237067 0.25664467 0.28771257
000010 5f c4 d9 3e 17 ee 9f 3e e6 6d bb 3e ae a8 0d 3f
       0.42532632 0.31236336 0.36607283 0.5533551
000020 c7 d8 c8 3e 2b 25 07 3f 62 63 b2 3e 1f f8 7e 3e
       0.39227888 0.5279109 0.34841448 0.24899338
000030 ae 6e d3 3e 07 19 ad 3e a7 35 71 3e 2d c7 ae 3e
       0.4129538 0.33808157 0.23555623 0.34136334

bias f4 [16]
000000 5c 45 31 3d 91 c8 c7 bb 3b c3 31 bc 14 0a 92 bd
       0.043279037 -0.0060969074 -0.010849769 -0.071308285
000010 6e b4 5a 3c 13 86 33 be ae 2b 18 be 77 b7 7a be
       0.013348682 -0.17531614 -0.14860412 -0.24484049
000020 03 14 c0 bd ad 98 9f be 59 2d 9e 3c 33 53 ff bc
       -0.09378817 -0.3117117 0.019308733 -0.031167602
000030 22 7a 21 bd 55 15 0d bd f0 0c 22 3c 87 20 29 3d
       -0.039423116 -0.034444172 0.00989078 0.041290786

running_mean f4 [16]
000000 cd bc d3 bc 68 2b 40 be 89 8e bc 3a 51 59 8a 3d
       -0.025846863 -0.18766558 0.001438574 0.06755317
000010 91 0f 6e be f9 6f 2a 3d 32 30 b5 3d b0 37 00 3d
       -0.23248126 0.04161069 0.08847083 0.031303108
000020 71 8f cd 3d e8 43 5f 3d 4c 66 5d bb 37 52 3f bd
       0.10037125 0.05450812 -0.0033782898 -0.046709266
000030 6b 7c b9 3b 6c bc d6 3d fa e4 b2 bd a1 b3 a0 bd
       0.0056605837 0.10485157 -0.0873508 -0.078467615

running_var f4 [16]
000000 1e d6 d4 3d 9b eb 07 3e cb db 89 3c ac 99 f8 3c
       0.10392402 0.1327347 0.016828438 0.030346714
000010 95 ed 47 3e 62 9e c2 3c ad 99 44 3d 2e 4c 31 3d
       0.19524224 0.023757163 0.04799812 0.04328554
000020 61 6c e2 3d df d9 29 3d 7c 86 7d 3d 12 61 69 3c
       0.11055828 0.041467544 0.061895832 0.014244335
000030 bf ef d0 3c f2 2b 45 3d 80 5f fe 3c a5 39 e8 3d
       0.025504945 0.048137613 0.031051397 0.1133912

weight f4 [16, 16, 3, 3]
000000 fd e9 04 bd 89 29 8e ba a0 7d 3f bd 81 5d e7 bc
       -0.03244971 -0.0010846119 -0.046750665 -0.028242828
000010 d9 2f 3c bc 6d 06 46 bd 5f 62 fc bc 0c 89 bf bc
       -0.011486017 -0.04834597 -0.030808626 -0.023380779
000020 d6 f9 43 bc fc f2 f2 3b fc df 75 3c 42 17 22 3b
       -0.011961421 0.00741422 0.015007015 0.00247331
000030 25 24 60 3c 14 25 6f 3c 6b b7 e8 3b ea 9e c7 3a
       0.0136804925 0.014596242 0.0071019433 0.0015229855
000040 1b cc b6 3b 27 44 2b 3c 05 af 80 3c 85 a2 65 3c
       0.0055785305 0.0104532605 0.015708456 0.014015798
000050 0b de 35 3c 6d cb b2 3b 9c a1 03 3b f2 7c ec 3b
       0.011100302 0.005456379 0.002008534 0.007217043
000060 17 e7 ac bb ee f8 8b bc af f2 e5 bb 3c 11 00 bd
       -0.0052765715 -0.017086472 -0.0070174555 -0.031266436
000070 b2 bc 22 bc b6 a0 22 3c c3 4e af bc da 9a 12 bb
       -0.009932684 0.009926012 -0.021399861 -0.002237013
000080 73 3c 8b 3b 8e 59 21 3b 2c b5 b1 3b 7d a8 ef bb
       0.0042491495 0.002462003 0.0054232087 -0.0073137865
000090 74 b6 d1 3c b5 bb 7d 3c 50 f3 3c 3d e3 77 83 3c
       0.025599696 0.015486647 0.04613048 0.016048377
0000a0 b3 7f 27 3c 69 e5 2f 3d 22 6b 7c 3c e7 76 c4 3c
       0.010223317 0.042943392 0.015406402 0.023982478
0000b0 d3 43 83 3c 1f bd 99 bc 0c b2 11 bb b4 9c 17 ba
       0.016023552 -0.018766938 -0.0022231368 -0.00057835435
0000c0 aa 86 dc bc 55 cf 87 bc 54 45 15 3d 97 10 a5 bc
       -0.026919682 -0.016578356 0.03644307 -0.020149512
0000d0 56 3e 93 bc 3a ce 12 bc 8c 06 95 3b 4b 37 9b bc
       -0.01797406 -0.008960301 0.0045478996 -0.018947264
0000e0 32 02 08 3b aa 30 09 b9 5e e4 79 bc 6f e2 a9 3c
       0.0020753262 -0.00013083467 -0.015252201 0.020737855
0000f0 a7 de 11 bd 19 35 02 3d 98 4f 35 bc 19 e6 0f bc
       -0.03561273 0.03178892 -0.01106634 -0.008782887
000100 48 b6 34 3a e7 69 51 3d 37 ab f1 bb 58 ee fa ba
       0.0006893617 0.051126387 -0.0073751467 -0.0019144518
000110 4e eb 70 3d 56 c1 09 3d d3 2d 3c 3d 29 6e 4d 3d
       0.058818154 0.033631645 0.04594214 0.050153885
000120 7c 9b d7 3c cb 7e 1c 3d f6 77 7a 3b b7 8a 25 b9
       0.026319258 0.038206857 0.0038218475 -0.00015787302
000130 7d 7d 1f 3d ca 03 9f 3c fb e8 c7 3b 77 ee 6b 3c
       0.038938034 0.019410986 0.0061007715 0.014400116
000140 3e ff 3e 3d ff 4f ed bb 6f fd 20 bc 6a 5e d8 3c
       0.046630137 -0.0072422023 -0.009826048 0.026412208
000150 fe 8b 01 bd 2c b9 13 3b ba ed b2 3d 1e ea e8 3c
       -0.031627648 0.002254079 0.08736749 0.028431948
000160 f3 b9 b9 bb e8 ea 2b 3b a1 00 c9 3c c2 c0 bd 3c
       -0.005667919 0.0026232544 0.024536433 0.023163203
000170 68 ee 0f bc 39 8b 24 3a 0f bf 77 3b 54 7f e2 bc
       -0.008784868 0.00062768493 0.0037803089 -0.027648605
000180 93 0b 2b 3c 44 83 95 bc 18 3c d7 bc db 57 30 3d
       0.010439771 -0.018251069 -0.026273772 0.043052536
000190 93 04 15 3d 65 69 55 3d 90 e6 c7 3c ab ed a7 3c
       0.036381315 0.052102465 0.024401933 0.020499071
0001a0 6f ac d4 3c 62 30 94 3c 2a 9d 2b 3c 58 b3 51 3c
       0.025961129 0.018089477 0.010474483 0.012799107
0001b0 cf a3 d0 bc cf 79 e1 bc 54 bc 7c 3b c1 47 06 bd
       -0.025468735 -0.027523903 0.00385644 -0.032783274
0001c0 e9 3f 3e bc 0a fe 48 3d 79 91 ac 3c 0b c7 e9 3c
       -0.011611917 0.049070396 0.02106546 0.028537294
0001d0 96 bd a8 3c 12 06 de bc b2 46 62 bc 4e df aa bb
       0.020598214 -0.027102504 -0.0138108 -0.0052146083
0001e0 42 8d ff bc 47 cb 94 bc 21 ec 26 3c 1d a2 2b 3c
       -0.031195287 -0.018163336 0.010188133 0.010475663
0001f0 41 4c c3 bc 8c dc 96 bc d6 88 a3 3c ac ac 8c 3c
       -0.023840072 -0.018415712 0.01996271 0.01717218
000200 2a 88 da 3c 87 3b b3 3c 3c d6 0b 3c c1 7c 95 3c
       0.026676256 0.02187897 0.008534964 0.018247964
000210 d5 9f 37 3c 82 ab fd 3b 95 4d 33 3c a8 3a a4 bb
       0.0112075405 0.0077413926 0.01094379 -0.005011875
000220 46 ba 5c bb de 6c f6 3b a3 ff 19 bb d5 8b e6 3b
       -0.0033680364 0.007520302 -0.0023498319 0.0070357122
000230 06 21 1e 3c 45 47 65 bc 14 46 fb bb bf cc 10 bc
       0.009651428 -0.013994043 -0.007668266 -0.008837878
000240 af 3e e0 bc 96 e5 65 bc e7 b3 d7 bc 20 bc 96 bc
       -0.02737364 -0.014031788 -0.026330901 -0.018400252
000250 6c 56 ba bc 1b b5 84 bc b3 31 fb bc 83 00 3b bd
       -0.022746287 -0.016199639 -0.030663347 -0.045654785
000260 2e a2 0b bd 52 1c 2f bd 36 91 8f bc f8 43 e2 bc
       -0.034090213 -0.042751618 -0.017525297 -0.0276203
000270 93 f6 a7 bc ea b9 a2 bc 9b 99 47 bc a0 55 e5 b9
       -0.020503318 -0.019864041 -0.0121826185 -0.0004374208
000280 c8 06 5e 3b 11 93 31 3c c1 04 51 bb 82 c9 7b bc
       0.0033878554 0.010838286 -0.0031893703 -0.015367867
000290 c7 7d 52 ba 32 d6 cf bb 07 59 75 bb 92 3d ee 3a
       -0.00080296065 -0.0063426727 -0.0037437098 0.0018176308
0002a0 36 7a 99 bc 37 0e 20 bc 5d 63 82 3c be a9 21 3b
       -0.018735033 -0.009769014 0.01591652 0.0024667825
0002b0 36 af 20 bc da 36 83 bc c4 17 47 bc 58 41 8a bc
       -0.009807399 -0.016017366 -0.012151662 -0.016876861
0002c0 4e 8e b0 bc fb c7 70 bc 92 24 ad bc df ca 99 bc
       -0.021552231 -0.014696117 -0.021135602 -0.018773494
0002d0 3d 94 75 ba 1e 70 d3 3b 18 dc 60 3d dd fd 8e bc
       -0.00093680975 0.0064525744 0.054897398 -0.017455036
0002e0 13 eb d1 bb c5 40 65 3d 1d 2f 69 3c df 90 43 3b
       -0.006406197 0.055969972 0.014232424 0.0029840989
0002f0 09 ed 1b 3d 41 08 5a 3b 73 be 98 bb 6c 12 6e bc
       0.03806785 0.003326908 -0.004661375 -0.014530759
000300 fd 7c 87 bb 86 59 44 bb 65 31 50 bc 41 07 78 bc
       -0.004134773 -0.0029960587 -0.012707089 -0.015138448
000310 3f 8a 27 bc 1e 4a 62 bc f8 c0 7f b9 bb ba f4 bb
       -0.0102258315 -0.013811616 -0.00024390582 -0.007468549
000320 1a c1 c0 bc 7c d5 63 bc c5 3c 21 3b cd 99 9a bc
       -0.023529578 -0.013905879 0.0024602872 -0.018872166
000330 d8 b5 4d bc e6 11 8c bb 7d 09 8c bc a7 84 de bb
       -0.012555562 -0.0042745946 -0.017094368 -0.0067907157
000340 1c 8d 2e bb c1 34 ce bc aa cb a8 3a b6 91 ac 3b
       -0.00266344 -0.02517164 0.001287808 0.0052663935
000350 e6 03 b5 bc ed 1a 59 bc a3 b4 ca 3b 18 c1 90 bc
       -0.022096585 -0.0132510485 0.0061860844 -0.0176702
000360 82 14 83 3b 15 fa 11 3c 78 74 7c bb c4 53 99 3b
       0.0040002475 0.008909722 -0.003852157 0.004679175
000370 19 5f 92 3c ee d8 26 bb 43 15 a4 bb 9d 53 34 3c
       0.017867612 -0.002545889 -0.0050074174 0.011006263
000380 46 2b 55 bc fb 5f fc 3c ef 23 ff 39 29 9c c6 bc
       -0.0130108055 0.030807486 0.00048664163 -0.024244385
000390 8d 2b f2 3b 94 80 a4 3b 55 9f 07 bd a7 a9 f0 bc
       0.0073904456 0.0050202105 -0.033110935 -0.029377772
0003a0 26 0b 74 bc 47 4b d5 bc fd 88 85 3c 9b fc 5d 39
       -0.014895236 -0.026036872 0.016300673 0.00021170305
0003b0 95 75 bd bc 55 69 85 3c 91 54 27 bc c3 a0 70 bc
       -0.023127357 0.016285578 -0.010213033 -0.014686766
0003c0 be ec 63 bc 54 be a2 bb 80 88 29 bd ff 6f 95 bc
       -0.013911424 -0.0049665365 -0.041389942 -0.01824188
0003d0 04 1e 15 bd 9c 34 55 3c 3d f2 9a bc 81 19 03 bd
       -0.03640558 0.013013031 -0.018914336 -0.032006744
0003e0 e0 8d a2 bc 24 e6 21 bc 97 e9 60 bc 67 e8 07 bc
       -0.019843042 -0.00988153 -0.013727567 -0.008295155
0003f0 6d 57 f7 3b 62 b4 ec 3a 82 2d 84 bc 21 14 4c bb
       0.0075482638 0.0018059129 -0.016134981 -0.0031139927

bias f4 [16]
000000 f5 29 93 33 61 d2 91 34 05 d6 6a b5 23 f6 30 35
       6.852853e-08 2.7161425e-07 -8.748323e-07 6.5923285e-07
000010 71 dc 8c 33 5a c3 84 b4 56 fc d1 35 2f 95 aa b4
       6.559356e-08 -2.4729053e-07 1.5645153e-06 -3.1773513e-07
000020 ea 8f 4c 36 f4 ab 1a b4 b9 1b 6a b5 29 18 1b 35
       3.0482138e-06 -1.4404924e-07 -8.7212135e-07 5.777716e-07
000030 8e 61 51 b5 02 88 89 35 77 13 97 32 2a 23 10 35
       -7.800053e-07 1.0246879e-06 1.7587565e-08 5.369535e-07

weight f4 [16]
000000 f8 2a 6c 3e b8 29 a6 3e 3b a3 81 3e 6f 64 08 3f
       0.23063266 0.32453704 0.25319847 0.5327825
000010 b1 f6 e6 3e 0a 5d 6f 3e 08 60 a9 3e 56 2e a8 3e
       0.45110086 0.23375335 0.3308108 0.32847852
000020 17 91 c1 3e 57 49 5f 3e 40 a6 82 3e 52 a2 58 3e
       0.37806007 0.2180532 0.25517464 0.2115567
000030 a8 7f 1b 3e d4 d2 ba 3e 46 60 14 3e a1 27 9e 3e
       0.15185416 0.36488974 0.1448985 0.3088961

bias f4 [16]
000000 cc 3c d6 bd 70 85 8f 3c bf 95 85 bd ee cf 86 be
       -0.10460815 0.017519683 -0.065227024 -0.26330513
000010 df 8d 76 be 7c a0 a8 3c f6 9d 0b bd 1e 65 bd 3d
       -0.24077557 0.020584337 -0.03408619 0.09247802
000020 87 6b 87 bd 93 9f 99 bd 0a cc 25 bd 35 0b 2b bd
       -0.06612306 -0.075011395 -0.04047779 -0.041758735
000030 06 06 3c 3d 12 11 72 39 09 f1 52 bd 3b ab 85 3c
       0.045904182 0.00023085278 -0.0514994 0.016317

running_mean f4 [16]
000000 54 32 d5 3c a5 5e 11 be 43 8a f3 bc dd c6 21 3d
       0.026024975 -0.1419626 -0.029729014 0.03949629
000010 52 fb 69 3c 06 12 20 3d 6d 9a 08 be a5 0f 0c be
       0.014281111 0.03907969 -0.13340159 -0.13677843
000020 11 40 05 3a ba 36 27 3d d2 90 eb bd 7d d3 e9 bc
       0.0005083094 0.040823676 -0.11502232 -0.028543228
000030 e7 5c f5 ba 3b 74 c3 bd 37 8b d2 bd c4 e8 bb 3b
       -0.0018719704 -0.095436536 -0.102804594 0.005734535

running_var f4 [16]
000000 1c 29 92 3c 60 2f e0 3c 46 79 90 3c 63 99 aa 3e
       0.017841868 0.02736634 0.017635953 0.3332015
000010 7a e3 ca 3d c3 f4 13 3e cd 68 90 3c 41 10 f3 3e
       0.09906669 0.14448838 0.017628098 0.47473338
000020 69 bd 97 3b 7b 0c 07 3c d6 b9 51 3c d2 ff ea 3c
       0.0046307337 0.008242722 0.012800654 0.028686438
000030 08 e9 50 3d ee a6 8f 3c 88 ab 0a 3c d7 a9 cb 3c
       0.051003486 0.017535653 0.008463748 0.02486126
