ai_server/checkpoints/dehazer.pth (torch, 10808 bytes, 10 tensors)

e_conv1.weight f4 [3, 3, 1, 1]
0	0x80008d49	-5.0684e-41
1	0x80008c04	-5.0228e-41
2	0x80008a35	-4.958e-41
3	0xbde751df	-0.112949125
4	0x3e33366a	0.17501226
5	0x3e8f0606	0.27934283
6	0x000088ba	4.9048e-41
7	0x80009bc2	-5.5875e-41
8	0x80008e23	-5.0989e-41

e_conv1.bias f4 [3]
0	0x000089fb	4.9498e-41
1	0x3ecc4e09	0.39903286
2	0x000088c7	4.9066e-41

e_conv2.weight f4 [3, 3, 3, 3]
0	0x0000896c	4.9298e-41
1	0x8000905a	-5.1784e-41
2	0x80009598	-5.3664e-41
3	0x800089d2	-4.944e-41
4	0x80008a87	-4.9694e-41
5	0x00008a0c	4.9522e-41
6	0x800088ff	-4.9145e-41
7	0x000089b4	4.9399e-41
8	0x00008b44	4.9959e-41
9	0x3d719ebb	0.058989268
10	0x3daaba51	0.08336318
11	0x3cc755aa	0.02433284
12	0x3cbdd173	0.023171162
13	0x3cab4836	0.020908456
14	0x3d3c6e48	0.04600361
15	0x3d15fc5d	0.036617626
16	0x3d4894c3	0.048969995
17	0x3d05d09e	0.032669656
18	0x80008979	-4.9316e-41
19	0x00008ab1	4.9753e-41
20	0x00009130	5.2083e-41
21	0x00008a40	4.9595e-41
22	0x800090ba	-5.1918e-41
23	0x00008d0d	5.06e-41
24	0x8000897b	-4.9319e-41
25	0x80008c92	-5.0427e-41
26	0x000088da	4.9093e-41
27	0x000092c3	5.2648e-41
28	0x00008db5	5.0835e-41
29	0x0000895a	4.9272e-41
30	0x800096bf	-5.4078e-41
31	0x000089b4	4.9399e-41
32	0x800089f5	-4.949e-41
33	0x80008a1c	-4.9544e-41
34	0x800089d5	-4.9445e-41
35	0x80008aca	-4.9788e-41
36	0x3c3d1870	0.011541471
37	0xbcc7a732	-0.024371717
38	0x3bbb551d	0.0057169334
39	0xbc38159d	-0.011235622
40	0xbc49b494	-0.01231112
41	0xbc7d8a84	-0.015474919
42	0xbc2ebe5c	-0.010665502
43	0xbb8e3b20	-0.0043405443
44	0xbc9064c0	-0.017626166
45	0x80008ae4	-4.9825e-41
46	0x8000ae55	-6.2539e-41
47	0x8000891a	-4.9183e-41
48	0x80008a37	-4.9582e-41
49	0x8000ab72	-6.1503e-41
50	0x8000a4b2	-5.9082e-41
51	0x80008f2d	-5.1362e-41
52	0x80009069	-5.1805e-41
53	0x800089eb	-4.9476e-41
54	0x8000891e	-4.9188e-41
55	0x00008b94	5.0071e-41
56	0x00008b8c	5.006e-41
57	0x80008f8a	-5.1492e-41
58	0x800088d4	-4.9085e-41
59	0x000088ef	4.9123e-41
60	0x800088d3	-4.9083e-41
61	0x800089aa	-4.9385e-41
62	0x8000892a	-4.9205e-41
63	0x3aed2d64	0.0018095192
64	0x3cc63c49	0.024198668
65	0x3c84463f	0.016146777
66	0x3be697d1	0.007037141
67	0x3cdd85fb	0.027041426
68	0xbb959c4a	-0.0045657502
69	0x3d018ca8	0.03162828
70	0x3c682fbd	0.014171538
71	0x3d01f925	0.031731743
72	0x80008a4f	-4.9616e-41
73	0x80008c50	-5.0335e-41
74	0x8000aa75	-6.1148e-41
75	0x00008b0e	4.9883e-41
76	0x8000a646	-5.9648e-41
77	0x00008e1a	5.0976e-41
78	0x8000897e	-4.9323e-41
79	0x000089b5	4.94e-41
80	0x800089f1	-4.9484e-41

e_conv2.bias f4 [3]
0	0xbd5a5c3b	-0.053310614
1	0x3d4efc7a	0.05053375
2	0x3d12882d	0.0357744

e_conv3.weight f4 [3, 6, 5, 5]
0	0x80008958	-4.927e-41
1	0x80008a2c	-4.9567e-41
2	0x00008956	4.9267e-41
3	0x80008bfd	-5.0218e-41
4	0x80008b99	-5.0078e-41
5	0x00008aa1	4.973e-41
6	0x80008a83	-4.9689e-41
7	0x80008934	-4.9219e-41
8	0x80008a61	-4.9641e-41
9	0x80009315	-5.2763e-41
10	0x000089f9	4.9495e-41
11	0x800089a3	-4.9375e-41
12	0x00008b66	5.0007e-41
13	0x800089d9	-4.945e-41
14	0x00008a83	4.9689e-41
15	0x000089cb	4.9431e-41
16	0x000089c8	4.9427e-41
17	0x0000a849	6.037e-41
18	0x8000893a	-4.9228e-41
19	0x00008932	4.9216e-41
20	0x800089b1	-4.9394e-41
21	0x00008999	4.9361e-41
22	0x800089ce	-4.9435e-41
23	0x80008a10	-4.9527e-41
24	0x8000a9d3	-6.0921e-41
25	0x3d0cc5b6	0.03436824
26	0x3c52f9bf	0.012876927
27	0x3ce05ffc	0.027389519
28	0x3d3925e0	0.045202136
29	0x3d151016	0.036392294
30	0x3d4feb94	0.050761774
31	0x3cb35739	0.021892177
32	0x3d0a7af8	0.03380868
33	0x3b32353b	0.0027192372
34	0x3c57b690	0.013166085
35	0x3d436207	0.047700908
36	0x3d73776e	0.05944007
37	0x3d01d2c5	0.031695146
38	0x3ce343e9	0.027742343
39	0x3c7351af	0.014851018
40	0x3d2278d2	0.039666004
41	0x3c833353	0.016015684
42	0x3c84ae3e	0.016196366
43	0x3d3ca962	0.046059974
44	0x3c696e63	0.01424751
45	0x3c9a683d	0.018848533
46	0x3c9a1440	0.018808484
47	0x3d27d462	0.04097403
48	0x3cf3e5a6	0.02977259
49	0x3d28977c	0.04116009
50	0x00008f9a	5.1515e-41
51	0x00008908	4.9158e-41
52	0x00008a4a	4.9609e-41
53	0x00008936	4.9222e-41
54	0x0000890f	4.9167e-41
55	0x000089f9	4.9495e-41
56	0x800088e4	-4.9107e-41
57	0x00008a1b	4.9543e-41
58	0x80008953	-4.9263e-41
59	0x800089c5	-4.9422e-41
60	0x00008a2b	4.9565e-41
61	0x800089cc	-4.9432e-41
62	0x00008af7	4.9851e-41
63	0x0000aec7	6.2698e-41
64	0x000088c4	4.9062e-41
65	0x00008edf	5.1252e-41
66	0x8000898d	-4.9344e-41
67	0x00008a1f	4.9549e-41
68	0x800095a4	-5.3681e-41
69	0x80008966	-4.9289e-41
70	0x0000a785	6.0095e-41
71	0x800088e2	-4.9104e-41
72	0x00008df3	5.0922e-41
73	0x80008955	-4.9265e-41
74	0x80008930	-4.9214e-41
75	0x3d14aa7e	0.036295407
76	0x3cecfd77	0.028929455
77	0x3cc211c7	0.023690118
78	0x3d32dd46	0.043668054
79	0x3d4feb1c	0.050761327
80	0x3cd6b3d5	0.026208797
81	0x3d2047c9	0.03913096
82	0x3d4050e7	0.046952154
83	0x3d070faf	0.03297394
84	0x3ce93d60	0.028471649
85	0x3c192cbb	0.0093490435
86	0x3d5cca4d	0.053903867
87	0x3d09ab6f	0.033610757
88	0x3d6244f7	0.05524155
89	0x3ce20e44	0.027594693
90	0x3cfdc4eb	0.030977687
91	0x3d215428	0.0393869
92	0x3cbdf8e3	0.023189967
93	0x3cc3fa3e	0.023923036
94	0x3cd68592	0.026186738
95	0x3d33fe76	0.043943845
96	0x3cf220dc	0.029556684
97	0x3d2b7d5d	0.041867603
98	0x3d210d9c	0.03931962
99	0x3d4c6a66	0.049906157
100	0xbc8be610	-0.017077476
101	0xbc810c84	-0.015753038
102	0xbc7c8fb4	-0.015415121
103	0xbc91f307	-0.01781608
104	0xbcaa9598	-0.020823285
105	0xbc91f836	-0.017818552
106	0xbc974d2c	-0.018469416
107	0xbc8b2525	-0.016985485
108	0xbc87ad1c	-0.016562037
109	0xbc7ddae3	-0.015494081
110	0xbc9a08b6	-0.018802982
111	0xbc5afd4d	-0.013366056
112	0xbc791a09	-0.015203961
113	0xbc82fadf	-0.015988765
114	0xbca8986a	-0.02058049
115	0xbc7d49cd	-0.01545949
116	0xbc7e4d72	-0.015521394
117	0xbc796e3c	-0.015224036
118	0xbc7de65b	-0.015496816
119	0xbc94bd76	-0.018156748
120	0xbc8cdbd7	-0.017194672
121	0xbc8155c1	-0.015787961
122	0xbc92b041	-0.01790631
123	0xbca3c394	-0.01999072
124	0xbca86c3b	-0.02055942
125	0x3ca0c962	0.019627277
126	0xbbe8bb66	-0.0071024178
127	0x3bc75f38	0.006084349
128	0xbb98970d	-0.0046566785
129	0x3c6e70cc	0.01455326
130	0x3c0228ed	0.007944328
131	0x3c86839f	0.016420184
132	0x3c4b04a1	0.01239124
133	0xbca06d3c	-0.019583337
134	0x3c81755f	0.015803037
135	0x3c30f7d3	0.010801273
136	0x3b9e4d00	0.0048309565
137	0x3c9b9e79	0.018996464
138	0x3c0ff226	0.00878576
139	0xbc4d998f	-0.012548818
140	0xbb5b582b	-0.00334693
141	0xbbc0a03e	-0.0058784774
142	0xbc1bec47	-0.009516782
143	0xbccc2cf7	-0.024923785
144	0x3be7ccbd	0.0070739673
145	0xbbf80afc	-0.007569669
146	0xbcb67bbb	-0.022275796
147	0x3b13dce5	0.0022562083
148	0xbba9f8dc	-0.005187137
149	0x3c976be0	0.018484056
150	0x80008abd	-4.977e-41
151	0x00008a04	4.951e-41
152	0x000089b1	4.9394e-41
153	0x800088b9	-4.9047e-41
154	0x000088ec	4.9118e-41
155	0x800088d3	-4.9083e-41
156	0x0000892d	4.921e-41
157	0x8000901f	-5.1701e-41
158	0x80008991	-4.935e-41
159	0x00008fac	5.154e-41
160	0x00008b33	4.9935e-41
161	0x000088e9	4.9114e-41
162	0x80008a2a	-4.9564e-41
163	0x00008af2	4.9844e-41
164	0x00008a5a	4.9631e-41
165	0x80008a40	-4.9595e-41
166	0x00008ca0	5.0447e-41
167	0x800089f2	-4.9485e-41
168	0x80008928	-4.9202e-41
169	0x00008a9f	4.9728e-41
170	0x8000ab0d	-6.1361e-41
171	0x00008a42	4.9598e-41
172	0x80008a81	-4.9686e-41
173	0x800095ba	-5.3712e-41
174	0x000089f0	4.9483e-41
175	0x3c80f28a	0.015740652
176	0x3d38131a	0.04494009
177	0x3d6c08f2	0.05762572
178	0x3d74da1b	0.059778314
179	0x3cfce22e	0.03086957
180	0x3d17e505	0.037083644
181	0x3c744c6a	0.014910797
182	0x3d1f7aef	0.038935598
183	0x3c26623e	0.010155259
184	0x3d234931	0.039864723
185	0x3d843be7	0.06456738
186	0x3d4e86af	0.050421413
187	0x3d9df608	0.07712942
188	0x3daa6223	0.08319499
189	0x3d89f8db	0.067369185
190	0x3cd374f5	0.025812605
191	0x3d6f7d37	0.058469024
192	0x3d0935b1	0.03349847
193	0x3da072f0	0.078344226
194	0x3d9fc002	0.078002945
195	0x3d2169c1	0.039407495
196	0x3d03fcbd	0.032223452
197	0x3c838e81	0.016059162
198	0x3cd8b4c5	0.026453385
199	0x3d79b60f	0.06096464
200	0x800093e8	-5.3059e-41
201	0x80008f20	-5.1344e-41
202	0x00008a4d	4.9613e-41
203	0x80008ae1	-4.982e-41
204	0x80008918	-4.918e-41
205	0x80008916	-4.9177e-41
206	0x00008974	4.9309e-41
207	0x00008960	4.9281e-41
208	0x00008a37	4.9582e-41
209	0x800088d5	-4.9086e-41
210	0x000088c6	4.9065e-41
211	0x00008a1e	4.9547e-41
212	0x00008b48	4.9965e-41
213	0x80008d16	-5.0612e-41
214	0x0000a41a	5.8869e-41
215	0x80008af8	-4.9853e-41
216	0x80008c89	-5.0415e-41
217	0x80008955	-4.9265e-41
218	0x00008e9f	5.1163e-41
219	0x80008907	-4.9156e-41
220	0x800092a8	-5.261e-41
221	0x00008cb7	5.0479e-41
222	0x80008a07	-4.9515e-41
223	0x000089e0	4.946e-41
224	0x00008f0a	5.1313e-41
225	0x3d2f8e98	0.042860597
226	0x3d0f990a	0.03505806
227	0x3d06da44	0.032922998
228	0x3d1d4ce4	0.038403407
229	0x3d23d869	0.040001307
230	0x3d2e7604	0.042593017
231	0x3c9f3db6	0.019438606
232	0x3d0e21a2	0.034700043
233	0x3d2763b5	0.040866572
234	0x3d5822cf	0.05276757
235	0x3ce8cca9	0.028417902
236	0x3d340592	0.043950625
237	0x3d66def3	0.056364965
238	0x3d239bbc	0.03994344
239	0x3d0ec00f	0.03485113
240	0x3d454b76	0.04816767
241	0x3d814ac9	0.06313092
242	0x3caf338f	0.02138689
243	0x3d799d6d	0.06094115
244	0x3d404456	0.04694017
245	0x3d1801c1	0.037111048
246	0x3d57bd01	0.052670483
247	0x3d26d0d8	0.040726513
248	0x3c3a3d09	0.011367091
249	0x3d4e1966	0.05031719
250	0xbc895b68	-0.016767219
251	0xbc7bb683	-0.015363338
252	0xbc825d6d	-0.01591369
253	0xbc850641	-0.016238334
254	0xbc9c4102	-0.019073967
255	0xbc87fdd3	-0.016600525

e_conv3.bias f4 [3]
0	0x3b0c1a0c	0.002137783
1	0xbcbe58a5	-0.023235628
2	0x000089d7	4.9448e-41

e_conv4.weight f4 [3, 6, 7, 7]
0	0x3c9e69c5	0.019337544
1	0x3c0856c6	0.00832147
2	0x3c5749a4	0.013140116
3	0x3cd845be	0.026400443
4	0x3d220df5	0.03956409
5	0x3c202451	0.0097742835
6	0x3cbe8084	0.02325464
7	0x3cc2b002	0.023765568
8	0x3c9b92f6	0.018990975
9	0x3bf6e788	0.007534925
10	0x3cc6e0de	0.024277147
11	0x3d246f3b	0.04014514
12	0x3c7ef837	0.015562109
13	0x3cf92d9a	0.030417252
14	0x3ca60a74	0.020268656
15	0x3cb63c3d	0.02224552
16	0x3ca3e528	0.020006731
17	0x3cd990ee	0.026558366
18	0x3cb33bd2	0.02187911
19	0x3ceb5cc6	0.028730761
20	0x3d1e478e	0.03864246
21	0x3cc7c79b	0.024387171
22	0x3c4b091f	0.012392311
23	0x3cd88e33	0.026434993
24	0x3c959ec6	0.018264186
25	0x3c8bf392	0.017083917
26	0x3c9dbce4	0.01925511
27	0x3c90bdad	0.01766857
28	0x3d0be82b	0.03415696
29	0x3cfd205a	0.030899215
30	0x3c59d978	0.0132964775
31	0x3cc7b05b	0.024376085
32	0x3af95464	0.0019022343
33	0x3cd9d346	0.02659
34	0x3ca9f0e5	0.02074475
35	0x3cb2d958	0.021832153
36	0x3cdba0ba	0.026810039
37	0x3d0126dd	0.031531204
38	0x3cbd4953	0.023106253
39	0x3c9193a2	0.017770592
40	0x3c118390	0.008881465
41	0x3cc2eea4	0.023795433
42	0x3c3e1f3a	0.011604125
43	0x3c77db39	0.01512795
44	0x3c7fe76d	0.015619141
45	0x3ce573f6	0.028009396
46	0x3bfcc2f4	0.00771367
47	0x3cf40e95	0.02979211
48	0x3cef00ca	0.029175181
49	0xbbe4f965	-0.006987738
50	0xbbc48252	-0.0059969807
51	0xbbba3480	-0.005682528
52	0xbbbb6c0c	-0.0057196673
53	0xbbc16148	-0.0059014894
54	0xbbd7b0e1	-0.006582365
55	0xbc0311ec	-0.007999878
56	0xbbdce07a	-0.006740627
57	0xbbbd2d4b	-0.0057732216
58	0xbbb482aa	-0.0055087404
59	0xbbb53dad	-0.005531034
60	0xbbb9ba50	-0.005667962
61	0xbbcdcd34	-0.0062805656
62	0xbbfce90e	-0.007718212
63	0xbbdef606	-0.0068042306
64	0xbbc185b4	-0.005905831
65	0xbbbb8cfa	-0.005723593
66	0xbbbc80c8	-0.0057526566
67	0xbbbeddd8	-0.0058247857
68	0xbbcf6939	-0.006329682
69	0xbbfd7329	-0.0077346754
70	0xbbe1fe1d	-0.0068967477
71	0xbbc6c921	-0.006066457
72	0xbbc20306	-0.0059207706
73	0xbbc35fb5	-0.005962337
74	0xbbc4108c	-0.005983418
75	0xbbd21fca	-0.006412481
76	0xbbfe45ef	-0.0077598016
77	0xbbe34972	-0.0069362456
78	0xbbc84060	-0.0061111897
79	0xbbc4bb9c	-0.00600381
80	0xbbc404ce	-0.005982018
81	0xbbc4a680	-0.0060012937
82	0xbbd30f82	-0.0064410577
83	0xbbfd9808	-0.007739071
84	0xbbed1f75	-0.007236416
85	0xbbd2778d	-0.006422943
86	0xbbcdea66	-0.006284046
87	0xbbce00c9	-0.0062867147
88	0xbbcef929	-0.0063163233
89	0xbbdd4522	-0.006752626
90	0xbc03ca1f	-0.008043795
91	0xbc046224	-0.008080039
92	0xbbef71e7	-0.0073072794
93	0xbbeaae89	-0.0071619195
94	0xbbeb2991	-0.007176586
95	0xbbec71fa	-0.0072157355
96	0xbbfbb9bf	-0.007682055
97	0xbc11e788	-0.008905299
98	0xbbd13321	-0.006384269
99	0x3cad98fa	0.021191109
100	0xba973b96	-0.0011538144
101	0x3b1b6ff7	0.002371786
102	0xbb2d5480	-0.002644807
103	0x3bd60215	0.00653101
104	0x3bdd099b	0.00674553
105	0x3c5a3a65	0.013319586
106	0xbc765b12	-0.015036361
107	0xba5ee726	-0.0008503072
108	0x39b210ea	0.00033963408
109	0xbaa9fe55	-0.0012969474
110	0x3b613945	0.003436641
111	0x3bf21c31	0.0073886146
112	0x3c0bdd40	0.008536637
113	0xbb4bccc1	-0.0031097385
114	0xbc91b8f9	-0.017788397
115	0x3c642429	0.013924637
116	0x3b3b8df9	0.0028618558
117	0x3c9c5d98	0.019087598
118	0x3ac8e3c4	0.0015326669
119	0x3c715d25	0.01473168
120	0xbc24767f	-0.010038017
121	0xbc4818e3	-0.012212965
122	0xbc9f41e9	-0.019440608
123	0x3bfa3b6f	0.0076364796
124	0xbb9ff9e7	-0.0048820856
125	0xbbe2514e	-0.006906665
126	0xbc085639	-0.008321338
127	0xbc933af2	-0.017972443
128	0x3b19f0e4	0.002348953
129	0x3c301cdd	0.010749069
130	0x3c6a1d80	0.01428926
131	0xbbec8c0b	-0.007218843
132	0x3bb48099	0.005508494
133	0xbbf51d09	-0.007480268
134	0x3c16c45c	0.009202089
135	0x39cefe62	0.00039480912
136	0xbbcd8e23	-0.0062730475
137	0xbc5b6e41	-0.013392986
138	0x3b9cf3be	0.0047897985
139	0x3ac58399	0.0015069126
140	0xbb78e77a	-0.0037979768
141	0xbc9f117e	-0.01941752
142	0xbb11c538	-0.0022242796
143	0x3c4100a5	0.011779939
144	0xb9aed74e	-0.0003334828
145	0x3b835bd5	0.00400875
146	0xbbc398fd	-0.0059691654
147	0x3d2c112c	0.042008564
148	0x3d11a3ce	0.035556607
149	0x3d20cf4d	0.039260197
150	0x3cc7f8db	0.024410656
151	0x3ccd31a1	0.025048079
152	0x3d820e5f	0.06350397
153	0x3d383d58	0.044980377
154	0x3d201ba9	0.03908888
155	0x3bbdc163	0.0057908758
156	0x3d138375	0.03601404
157	0xbc3b7f1e	-0.011443881
158	0x3da60a92	0.08107485
159	0x3d4ffa09	0.05077556
160	0x3c8c490e	0.017124679
161	0x3d6cc698	0.05780658
162	0x3cd4709f	0.025932608
163	0x3d662749	0.05618981
164	0x3d227fee	0.039672785
165	0x3c7e3df4	0.0155177
166	0x3c2ce184	0.010551814
167	0x3d03b0bd	0.032150973
168	0x3cc92ff0	0.024558991
169	0x3cb55740	0.02213633
170	0x3c1b1c90	0.009467259
171	0xba5e7fb4	-0.0008487657
172	0x3d3987ff	0.04529571
173	0x3c8df503	0.017328745
174	0x3c7bd2d4	0.01537009
175	0x3d0b02a2	0.033938058
176	0x3c1274cd	0.00893898
177	0xbc2da058	-0.010597311
178	0x3d2c8e5e	0.04212796
179	0x3c85363f	0.016261218
180	0x3c9e18f3	0.019299006
181	0x3ba435df	0.0050113047
182	0x3d294fd4	0.041335896
183	0x3c6eec73	0.014582741
184	0x3c9b3706	0.018947136
185	0x3caa207a	0.02076744
186	0x3b0e10a2	0.0021677394
187	0x3d2a3c6c	0.04156153
188	0x3badd8ee	0.005305401
189	0x3d183c91	0.037167136
190	0x3d0093d7	0.03139099
191	0x3c199097	0.009372852
192	0x3c3dff78	0.011596553
193	0x3c8af20b	0.016961118
194	0x3c33d858	0.010976873
195	0x3cca256b	0.024676045
196	0x3d4dbf3c	0.050231203
197	0x3d85be73	0.06530466
198	0x3d2d23bb	0.042270403
199	0x3d6a3ef3	0.05718894
200	0x3d0e4575	0.034734208
201	0x3cb7ff73	0.022460675
202	0x3cfecc90	0.031103402
203	0x3cbf3eb8	0.023345336
204	0x3d2f4894	0.042793825
205	0x3c926a9e	0.017873105
206	0x3d34b79d	0.04412042
207	0x3c64ebad	0.013972205
208	0xba6e3a99	-0.0009087711
209	0x3ca7eb26	0.02049787
210	0x3d375d12	0.044766493
211	0x3d1dec30	0.038555324
212	0x3c725556	0.0147908535
213	0x3d377d5f	0.044797298
214	0x3d59db5d	0.053187717
215	0x3cff2722	0.03114659
216	0x3d85a77c	0.06526086
217	0x3d49e1c3	0.04928757
218	0xbc3e1266	-0.011601066
219	0x3c26c725	0.010179316
220	0x3d01fc7f	0.03173494
221	0x3d3077c7	0.04308298
222	0x3cb4e5fe	0.022082325
223	0x3c93f766	0.018062305
224	0x3d4b3aff	0.04961681
225	0x3cba5844	0.022747166
226	0x3c4d9d2c	0.01254968
227	0x3cdf0296	0.027222913
228	0x3ccce4a3	0.025011366
229	0x3cb21fb0	0.021743625
230	0x3d15b5db	0.036550384
231	0x3c949b47	0.018140448
232	0x3ce60a04	0.028080948
233	0x3cea8a84	0.028630503
234	0x3c9c4b9f	0.019079028
235	0x3c0e6c91	0.008692876
236	0xbc836bae	-0.016042557
237	0x3d0c4105	0.034241695
238	0x3d17af81	0.037032608
239	0xba47a7fa	-0.0007616278
240	0x3cab9961	0.02094716
241	0x3cb24932	0.021763418
242	0xbb9bdb54	-0.0047563706
243	0x3d375945	0.04476287
244	0x3c2334df	0.009961336
245	0x80008bc5	-5.014e-41
246	0x800088f9	-4.9137e-41
247	0x80008b07	-4.9874e-41
248	0x80008bd9	-5.0168e-41
249	0x80008a5b	-4.9633e-41
250	0x80008b75	-5.0028e-41
251	0x800089f5	-4.949e-41
252	0x80008aa0	-4.9729e-41
253	0x80008a06	-4.9513e-41
254	0x800088fe	-4.9144e-41
255	0x800089d9	-4.945e-41

e_conv4.bias f4 [3]
0	0xba99f400	-0.0011745691
1	0x3c65e027	0.014030493
2	0x00008952	4.9261e-41

e_conv5.weight f4 [3, 12, 3, 3]
0	0x00008907	4.9156e-41
1	0x0000923f	5.2463e-41
2	0x000088e9	4.9114e-41
3	0x00008915	4.9176e-41
4	0x80009257	-5.2497e-41
5	0x000089fd	4.9501e-41
6	0x00008bbb	5.0126e-41
7	0x00008a35	4.958e-41
8	0x00008a6c	4.9656e-41
9	0x3d1660d2	0.03671343
10	0x3d3ea8ab	0.046547573
11	0x3d189888	0.03725484
12	0x3d295f1a	0.04135046
13	0x3d5471a2	0.05186618
14	0x3d29b595	0.041432936
15	0x3d11c43d	0.035587538
16	0x3d387f4b	0.04504327
17	0x3d1064d8	0.035252422
18	0x80008957	-4.9268e-41
19	0x80008a97	-4.9717e-41
20	0x80008905	-4.9153e-41
21	0x00008a2c	4.9567e-41
22	0x80008d0a	-5.0595e-41
23	0x80009e4a	-5.6783e-41
24	0x00008edc	5.1248e-41
25	0x8000898d	-4.9344e-41
26	0x00008bfc	5.0217e-41
27	0x3cce66b9	0.025195466
28	0x3cea35e8	0.028590158
29	0x3cd498df	0.0259518
30	0x3cdbe900	0.026844501
31	0x3cf9b8bd	0.030483598
32	0x3ce12cdb	0.027487209
33	0x3cd14ab4	0.025548317
34	0x3cef307d	0.029197926
35	0x3cd69761	0.02619523
36	0xbab8ed15	-0.0014108742
37	0xbaf086cb	-0.0018350718
38	0xba8f3494	-0.0010925704
39	0xbac21bfe	-0.0014809368
40	0xbb039bb0	-0.002008181
41	0xba821db0	-0.000992706
42	0xba4d1284	-0.00078228884
43	0xbab11925	-0.0013511522
44	0xb978e588	-0.0002373663
45	0x3c7af18f	0.015316381
46	0x3c8a94d4	0.01691667
47	0x3c7a6355	0.015282472
48	0x3c76e378	0.015068881
49	0x3c891dc9	0.016737835
50	0x3c724387	0.014786608
51	0x3c5ef981	0.013609291
52	0x3c772b60	0.015086025
53	0x3c565907	0.013082749
54	0x3cd33b8d	0.025785232
55	0x3cd27783	0.025691753
56	0x3cd5221e	0.026017245
57	0x3cce42da	0.025178362
58	0x3cceb1a5	0.025231192
59	0x3cd2198d	0.02564695
60	0x3cc77e45	0.024352202
61	0x3cc7c096	0.024383824
62	0x3cca4393	0.024690425
63	0x3cfa0ee1	0.030524673
64	0x3cf2d403	0.02964211
65	0x3cf30add	0.029668266
66	0x3cf5f100	0.030022144
67	0x3cef5708	0.029216304
68	0x3ceda866	0.029010963
69	0x3ce7bb3a	0.028287519
70	0x3ce1845e	0.027528938
71	0x3cdf63ab	0.027269205
72	0x0000891a	4.9183e-41
73	0x8000a12e	-5.782e-41
74	0x00008aac	4.9746e-41
75	0x00008a78	4.9673e-41
76	0x000089ea	4.9474e-41
77	0x000088d4	4.9085e-41
78	0x00008af9	4.9854e-41
79	0x00008935	4.922e-41
80	0x00008a11	4.9529e-41
81	0x3ce1ff6f	0.02758762
82	0x3ccc63c6	0.02494992
83	0x3cd47956	0.025936764
84	0x3cd93c2b	0.026517948
85	0x3cc342ae	0.023835506
86	0x3ccaea3f	0.0247699
87	0x3cd67fac	0.026183926
88	0x3cc0b8e7	0.023525668
89	0x3cc7ef27	0.024406029
90	0x3cd7a464	0.026323505
91	0x3cc66074	0.024215914
92	0x3ccee99c	0.025257878
93	0x3cce36fc	0.025172703
94	0x3cbcdca3	0.023054427
95	0x3cc56a39	0.024098502
96	0x3ccb713b	0.024834266
97	0x3cba5c37	0.02274905
98	0x3cc28afd	0.023747915
99	0x00008b0b	4.9879e-41
100	0x000088ce	4.9076e-41
101	0x00008a33	4.9577e-41
102	0x00008905	4.9153e-41
103	0x00008bde	5.0175e-41
104	0x00008b6a	5.0012e-41
105	0x000088e6	4.911e-41
106	0x00008aa5	4.9736e-41
107	0x000088eb	4.9117e-41
108	0x00008fb9	5.1558e-41
109	0x800088e2	-4.9104e-41
110	0x800089cc	-4.9432e-41
111	0x000094d3	5.3388e-41
112	0x00008b74	5.0026e-41
113	0x00008973	4.9307e-41
114	0x800089df	-4.9459e-41
115	0x00008a32	4.9575e-41
116	0x00008b21	4.991e-41
117	0x3d0b57b1	0.034019176
118	0x3d24ea87	0.040262725
119	0x3d0f2c4b	0.03495435
120	0x3d1715fa	0.036886193
121	0x3d32601a	0.04354868
122	0x3d19f39b	0.037585836
123	0x3cc04189	0.02346875
124	0x3d2199a1	0.039453153
125	0x3d0b5636	0.034017764
126	0x00009011	5.1681e-41
127	0x00008915	4.9176e-41
128	0x000088e1	4.9103e-41
129	0x80008d4b	-5.0686e-41
130	0x000089d9	4.945e-41
131	0x000089c8	4.9427e-41
132	0x80008b70	-5.0021e-41
133	0x000088de	4.9099e-41
134	0x800089d6	-4.9446e-41
135	0x3cc2bfc3	0.02377308
136	0x3ccc3cb8	0.024931297
137	0x3cba5de1	0.022749843
138	0x3cc7b8c7	0.0243801
139	0x3cd37f4a	0.025817532
140	0x3ccb5a52	0.024823342
141	0x3cc3de09	0.023909586
142	0x3cb68230	0.022278875
143	0x3cc9abbe	0.024618026
144	0x3bca7a1e	0.0061791083
145	0x3bcbe0ff	0.00622189
146	0x3bbc8da7	0.005754191
147	0x3bc94adf	0.0061429585
148	0x3bc692bc	0.0060599726
149	0x3bbe2baf	0.0058035473
150	0x3bc47b16	0.0059961183
151	0x3bbbf974	0.0057365242
152	0x3bb84df3	0.0056245266
153	0x3c5db6a8	0.013532318
154	0x3c67c939	0.014147096
155	0x3c5ff376	0.013668885
156	0x3c585649	0.013204166
157	0x3c659547	0.014012641
158	0x3c59a493	0.013283866
159	0x3c537c69	0.01290808
160	0x3c163ced	0.009169799
161	0x3c345762	0.011007162
162	0x3cca9236	0.024727922
163	0x3cbc3ae5	0.022977302
164	0x3c88add8	0.016684458
165	0x3c5d7f31	0.013519094
166	0x3cc2a391	0.023759635
167	0x3cefdab5	0.029279092
168	0x3cd69d68	0.026198104
169	0x3cc0bd55	0.02352778
170	0x3cc57ae3	0.024106449
171	0x3cd86562	0.02641553
172	0x3cc660a9	0.024216013
173	0x3cdf99ab	0.027294954
174	0x3ce9a037	0.02851878
175	0x3d0f9626	0.035055302
176	0x3cfe14b8	0.031015739
177	0x3ce38609	0.027773874
178	0x3cdebe4d	0.027190352
179	0x3ce59a71	0.028027745
180	0x00008b15	4.9893e-41
181	0x00008ac5	4.9781e-41
182	0x00008947	4.9246e-41
183	0x00008a27	4.956e-41
184	0x000089b6	4.9401e-41
185	0x00008afa	4.9855e-41
186	0x00008a68	4.9651e-41
187	0x00008929	4.9204e-41
188	0x000088f7	4.9134e-41
189	0x3cf3a432	0.02974138
190	0x3cdfdafa	0.027326096
191	0x3ceb6eb6	0.028739315
192	0x3ce63a85	0.028104076
193	0x3cdcda27	0.026959492
194	0x3cdf3fc1	0.02725208
195	0x3cdfff36	0.027343374
196	0x3cd2d342	0.025735501
197	0x3c1ffa61	0.009764285
198	0x3cbdcf13	0.02317003
199	0x3d11f807	0.035636928
200	0x3ce45360	0.027871788
201	0x3c8f47bd	0.017490262
202	0x3ccefbd0	0.025266558
203	0x3d13e9af	0.03611153
204	0x3cdbd511	0.026834996
205	0x3ccdc2af	0.025117246
206	0x3cd844b2	0.026399944
207	0x80008a81	-4.9686e-41
208	0x800089a7	-4.938e-41
209	0x80008b8e	-5.0063e-41
210	0x80008ad8	-4.9808e-41
211	0x800089f0	-4.9483e-41
212	0x80008a82	-4.9687e-41
213	0x80008b45	-4.996e-41
214	0x80008b82	-5.0046e-41
215	0x80008b29	-4.9921e-41
216	0x00008ab8	4.9763e-41
217	0x80008a10	-4.9527e-41
218	0x80008b7a	-5.0035e-41
219	0x80008b25	-4.9916e-41
220	0x80008962	-4.9284e-41
221	0x80008aff	-4.9862e-41
222	0x800092c7	-5.2654e-41
223	0x80009083	-5.1841e-41
224	0x00008a44	4.96e-41
225	0x3d439cf0	0.04775709
226	0x3c63afb9	0.013896876
227	0x3d05b485	0.03264286
228	0x3c49e859	0.012323462
229	0x3c7a6a86	0.015284186
230	0x3d2875ac	0.041127846
231	0x3cb34e6b	0.021887979
232	0x3d5c32b8	0.053759307
233	0x3cbeaab8	0.023274764
234	0x00008a2d	4.9568e-41
235	0x80008a15	-4.9534e-41
236	0x80008e8b	-5.1135e-41
237	0x80008b35	-4.9938e-41
238	0x0000a0fd	5.7752e-41
239	0x80008ab2	-4.9755e-41
240	0x000089af	4.9392e-41
241	0x8000894c	-4.9253e-41
242	0x800088bd	-4.9052e-41
243	0x3d000e70	0.03126377
244	0x3d466660	0.048437476
245	0x3d2fe8d7	0.042946663
246	0x3d189485	0.037251014
247	0x3cc033d7	0.02346222
248	0x3d00968f	0.031393584
249	0x3d2517f9	0.040306065
250	0x3d513606	0.05107691
251	0x3d427f07	0.047484424
252	0xbcb3c52f	-0.02194461
253	0xbcb5fa33	-0.02221403
254	0xbcb06d26	-0.021536421
255	0xbcb57b0d	-0.022153402

e_conv5.bias f4 [3]
0	0x3b0899a7	0.0020843537
1	0x3a250c25	0.000629606
2	0x3b9ef8d8	0.004851442
