ai_server/checkpoints/Epoch9.pth (torch, 10794 bytes, 10 tensors)

e_conv1.weight f4 [3, 3, 1, 1]
000000 49 8d 00 80 04 8c 00 80 35 8a 00 80 a6 fe e6 bd
       -5.0684e-41 -5.0228e-41 -4.958e-41 -0.11279039
000010 f2 0a 33 3e 56 0d 8f 3e ba 88 00 00 c2 9b 00 80
       0.17484644 0.27939862 4.9048e-41 -5.5875e-41
000020 23 8e 00 80
       -5.0989e-41

e_conv1.bias f4 [3]
000000 fb 89 00 00 27 55 cc 3e c7 88 00 00
       4.9498e-41 0.39908716 4.9066e-41

e_conv2.weight f4 [3, 3, 3, 3]
000000 6c 89 00 00 5a 90 00 80 98 95 00 80 d2 89 00 80
       4.9298e-41 -5.1784e-41 -5.3664e-41 -4.944e-41
000010 87 8a 00 80 0c 8a 00 00 ff 88 00 80 b4 89 00 00
       -4.9694e-41 4.9522e-41 -4.9145e-41 4.9399e-41
000020 44 8b 00 00 af 9c 71 3d 03 bb aa 3d 7d 4c c7 3c
       4.9959e-41 0.058987316 0.08336451 0.024328465
000030 d4 cc bd 3c 1c 48 ab 3c 5b 6c 3c 3d 11 fb 15 3d
       0.023168959 0.020908408 0.046001773 0.03661639
000040 83 96 48 3d b6 ce 05 3d 79 89 00 80 b1 8a 00 00
       0.048971664 0.032667838 -4.9316e-41 4.9753e-41
000050 30 91 00 00 40 8a 00 00 ba 90 00 80 0d 8d 00 00
       5.2083e-41 4.9595e-41 -5.1918e-41 5.06e-41
000060 7b 89 00 80 92 8c 00 80 da 88 00 00 c3 92 00 00
       -4.9319e-41 -5.0427e-41 4.9093e-41 5.2648e-41
000070 b5 8d 00 00 5a 89 00 00 bf 96 00 80 b4 89 00 00
       5.0835e-41 4.9272e-41 -5.4078e-41 4.9399e-41
000080 f5 89 00 80 1c 8a 00 80 d5 89 00 80 ca 8a 00 80
       -4.949e-41 -4.9544e-41 -4.9445e-41 -4.9788e-41
000090 3a 79 3e 3c 7f f1 c6 bc 8c 41 be 3b 17 a0 36 bc
       0.011625582 -0.024285076 0.0058061536 -0.011146567
0000a0 5a 20 48 bc c2 ff 7b bc 0d 4a 2d bc 12 11 8b bb
       -0.012214744 -0.015380802 -0.010576737 -0.0042439783
0000b0 14 a2 8f bc e4 8a 00 80 55 ae 00 80 1a 89 00 80
       -0.01753334 -4.9825e-41 -6.2539e-41 -4.9183e-41
0000c0 37 8a 00 80 72 ab 00 80 b2 a4 00 80 2d 8f 00 80
       -4.9582e-41 -6.1503e-41 -5.9082e-41 -5.1362e-41
0000d0 69 90 00 80 eb 89 00 80 1e 89 00 80 94 8b 00 00
       -5.1805e-41 -4.9476e-41 -4.9188e-41 5.0071e-41
0000e0 8c 8b 00 00 8a 8f 00 80 d4 88 00 80 ef 88 00 00
       5.006e-41 -5.1492e-41 -4.9085e-41 4.9123e-41
0000f0 d3 88 00 80 aa 89 00 80 2a 89 00 80 9c 55 ef 3a
       -4.9083e-41 -4.9385e-41 -4.9205e-41 0.0018259767
000100 4a 7d c6 3c c9 7c 84 3c 80 3b e7 3b 32 cc dd 3c
       0.024229664 0.016172783 0.0070566535 0.027074907
000110 99 ec 94 bb 4a aa 01 3d 67 ad 68 3c a5 1c 02 3d
       -0.004544806 0.03165654 0.014201499 0.0317656
000120 4f 8a 00 80 50 8c 00 80 75 aa 00 80 0e 8b 00 00
       -4.9616e-41 -5.0335e-41 -6.1148e-41 4.9883e-41
000130 46 a6 00 80 1a 8e 00 00 7e 89 00 80 b5 89 00 00
       -5.9648e-41 5.0976e-41 -4.9323e-41 4.94e-41
000140 f1 89 00 80
       -4.9484e-41

e_conv2.bias f4 [3]
000000 ff 2b 5a bd 6f f3 4e 3d c5 ca 12 3d
       -0.053264614 0.050525125 0.035837907

e_conv3.weight f4 [3, 6, 5, 5]
000000 58 89 00 80 2c 8a 00 80 56 89 00 00 fd 8b 00 80
       -4.927e-41 -4.9567e-41 4.9267e-41 -5.0218e-41
000010 99 8b 00 80 a1 8a 00 00 83 8a 00 80 34 89 00 80
       -5.0078e-41 4.973e-41 -4.9689e-41 -4.9219e-41
000020 61 8a 00 80 15 93 00 80 f9 89 00 00 a3 89 00 80
       -4.9641e-41 -5.2763e-41 4.9495e-41 -4.9375e-41
000030 66 8b 00 00 d9 89 00 80 83 8a 00 00 cb 89 00 00
       5.0007e-41 -4.945e-41 4.9689e-41 4.9431e-41
000040 c8 89 00 00 49 a8 00 00 3a 89 00 80 32 89 00 00
       4.9427e-41 6.037e-41 -4.9228e-41 4.9216e-41
000050 b1 89 00 80 99 89 00 00 ce 89 00 80 10 8a 00 80
       -4.9394e-41 4.9361e-41 -4.9435e-41 -4.9527e-41
000060 d3 a9 00 80 84 bf 0c 3d ea ef 52 3c 60 61 e0 3c
       -6.0921e-41 0.03436233 0.012874583 0.027390182
000070 18 27 39 3d d2 0a 15 3d 58 e9 4f 3d 9e 57 b3 3c
       0.0452033 0.036387272 0.050759643 0.021892365
000080 f4 7d 0a 3d 13 05 32 3b 49 9d 57 3c eb 60 43 3d
       0.033811525 0.002716367 0.013160058 0.04769985
000090 6b 7e 73 3d 12 d7 01 3d c8 48 e3 3c e8 41 73 3c
       0.059446733 0.031699248 0.027744666 0.014847256
0000a0 2c 77 22 3d 9a 36 83 3c 68 b4 84 3c 6d af 3c 3d
       0.039664432 0.016017247 0.016199306 0.046065737
0000b0 49 62 69 3c d8 5f 9a 3c 98 19 9a 3c c6 db 27 3d
       0.014244624 0.01884453 0.018811032 0.040981077
0000c0 84 ee f3 3c d9 98 28 3d 9a 8f 00 00 08 89 00 00
       0.029776819 0.041161392 5.1515e-41 4.9158e-41
0000d0 4a 8a 00 00 36 89 00 00 0f 89 00 00 f9 89 00 00
       4.9609e-41 4.9222e-41 4.9167e-41 4.9495e-41
0000e0 e4 88 00 80 1b 8a 00 00 53 89 00 80 c5 89 00 80
       -4.9107e-41 4.9543e-41 -4.9263e-41 -4.9422e-41
0000f0 2b 8a 00 00 cc 89 00 80 f7 8a 00 00 c7 ae 00 00
       4.9565e-41 -4.9432e-41 4.9851e-41 6.2698e-41
000100 c4 88 00 00 df 8e 00 00 8d 89 00 80 1f 8a 00 00
       4.9062e-41 5.1252e-41 -4.9344e-41 4.9549e-41
000110 a4 95 00 80 66 89 00 80 85 a7 00 00 e2 88 00 80
       -5.3681e-41 -4.9289e-41 6.0095e-41 -4.9104e-41
000120 f3 8d 00 00 55 89 00 80 30 89 00 80 a8 9e 14 3d
       5.0922e-41 -4.9265e-41 -4.9214e-41 0.03628412
000130 d5 f3 ec 3c cb 08 c2 3c 23 e0 32 3d 99 e9 4f 3d
       0.028924862 0.023685833 0.043670785 0.050759885
000140 78 98 d6 3c 37 4b 20 3d 49 5b 40 3d b1 10 07 3d
       0.02619575 0.03913423 0.046962056 0.032974903
000150 bc 2b e9 3c cf db 18 3c 04 d7 5c 3d 18 b1 09 3d
       0.028463237 0.00932975 0.053915992 0.033616155
000160 5e 53 62 3d cc 00 e2 3c a3 b4 fd 3c dd 5a 21 3d
       0.055255286 0.02758827 0.030969923 0.039393295
000170 91 fc bd 3c be fa c3 3c 21 7a d6 3c e5 fc 33 3d
       0.023191722 0.023923274 0.026181282 0.04394235
000180 ba 24 f2 3c da 88 2b 3d e4 15 21 3d ef 70 4c 3d
       0.029558528 0.04187856 0.039327517 0.04991239
000190 6a 75 8a bc af 4d 7f bc 9c b8 79 bc 2c 92 90 bc
       -0.01690169 -0.015582486 -0.015241768 -0.017647825
0001a0 6b 22 a9 bc 73 a8 90 bc 12 2c 96 bc c7 e9 89 bc
       -0.020646295 -0.017658448 -0.018331561 -0.016835107
0001b0 22 4a 86 bc 74 5d 7a bc 57 cd 98 bc 3b 04 58 bc
       -0.016392771 -0.01528107 -0.018652601 -0.013184602
0001c0 cf 66 76 bc 00 91 81 bc b9 3b a7 bc ed 3e 7a bc
       -0.01503916 -0.015816212 -0.02041422 -0.015273792
0001d0 54 88 7b bc 6b a1 76 bc dd e7 7a bc 0d 29 93 bc
       -0.015352327 -0.0150531335 -0.01531407 -0.01796391
0001e0 4f 54 8b bc 3c ab 7f bc 4b 58 91 bc 42 74 a2 bc
       -0.017007975 -0.01560479 -0.017742297 -0.019830827
0001f0 20 e3 a6 bc 29 f0 a0 3c bd 6d e8 bb cb 00 c8 3b
       -0.020371974 0.019645767 -0.00709316 0.00610361
000200 ad 3a 98 bb a7 bc 6e 3c 69 60 02 3c 2d b9 86 3c
       -0.0046456666 0.014571345 0.007957556 0.01644572
000210 9f 6d 4b 3c 12 65 a0 bc 96 a1 81 3c 0e 3c 31 3c
       0.012416272 -0.019579444 0.01582412 0.010817541
000220 3e f2 9e 3b 49 de 9b 3c a9 51 10 3c 68 83 4d bc
       0.004850655 0.019026892 0.008808532 -0.012543537
000230 cd d2 5a bb bf 2e c0 bb ff b3 1b bc 6a 27 cc bc
       -0.0033389807 -0.0058649476 -0.009503364 -0.024921138
000240 04 63 e8 3b 86 e1 f7 bb 44 75 b6 bc bb 31 15 3b
       0.0070918817 -0.0075647263 -0.022272713 0.0022765237
000250 db 7f a9 bb 79 9f 97 3c bd 8a 00 80 04 8a 00 00
       -0.0051727123 0.01850866 -4.977e-41 4.951e-41
000260 b1 89 00 00 b9 88 00 80 ec 88 00 00 d3 88 00 80
       4.9394e-41 -4.9047e-41 4.9118e-41 -4.9083e-41
000270 2d 89 00 00 1f 90 00 80 91 89 00 80 ac 8f 00 00
       4.921e-41 -5.1701e-41 -4.935e-41 5.154e-41
000280 33 8b 00 00 e9 88 00 00 2a 8a 00 80 f2 8a 00 00
       4.9935e-41 4.9114e-41 -4.9564e-41 4.9844e-41
000290 5a 8a 00 00 40 8a 00 80 a0 8c 00 00 f2 89 00 80
       4.9631e-41 -4.9595e-41 5.0447e-41 -4.9485e-41
0002a0 28 89 00 80 9f 8a 00 00 0d ab 00 80 42 8a 00 00
       -4.9202e-41 4.9728e-41 -6.1361e-41 4.9598e-41
0002b0 81 8a 00 80 ba 95 00 80 f0 89 00 00 90 e3 80 3c
       -4.9686e-41 -5.3712e-41 4.9483e-41 0.01573351
0002c0 16 15 38 3d ef 0c 6c 3d 90 db 74 3d b1 d4 fc 3c
       0.044941984 0.057629522 0.059779704 0.030863138
0002d0 a7 e1 17 3d eb 49 74 3c ac 7d 1f 3d cf 54 26 3c
       0.037080433 0.014910202 0.03893821 0.010152056
0002e0 84 45 23 3d 43 3c 84 3d f3 8a 4e 3d 0b fa 9d 3d
       0.039861217 0.064568065 0.05042548 0.077137075
0002f0 6c 65 aa 3d 56 f9 89 3d a2 6d d3 3c fb 82 6f 3d
       0.08320126 0.0673701 0.025809113 0.058474522
000300 ef 38 09 3d 4d 76 a0 3d 8d c1 9f 3d 98 68 21 3d
       0.03350156 0.07835064 0.07800589 0.03940639
000310 43 00 04 3d 05 93 83 3c 92 b7 d8 3c 12 b8 79 3d
       0.032226812 0.016061315 0.02645472 0.06096656
000320 e8 93 00 80 20 8f 00 80 4d 8a 00 00 e1 8a 00 80
       -5.3059e-41 -5.1344e-41 4.9613e-41 -4.982e-41
000330 18 89 00 80 16 89 00 80 74 89 00 00 60 89 00 00
       -4.918e-41 -4.9177e-41 4.9309e-41 4.9281e-41
000340 37 8a 00 00 d5 88 00 80 c6 88 00 00 1e 8a 00 00
       4.9582e-41 -4.9086e-41 4.9065e-41 4.9547e-41
000350 48 8b 00 00 16 8d 00 80 1a a4 00 00 f8 8a 00 80
       4.9965e-41 -5.0612e-41 5.8869e-41 -4.9853e-41
000360 89 8c 00 80 55 89 00 80 9f 8e 00 00 07 89 00 80
       -5.0415e-41 -4.9265e-41 5.1163e-41 -4.9156e-41
000370 a8 92 00 80 b7 8c 00 00 07 8a 00 80 e0 89 00 00
       -5.261e-41 5.0479e-41 -4.9515e-41 4.946e-41
000380 0a 8f 00 00 06 85 2f 3d 97 95 0f 3d b6 d7 06 3d
       5.1313e-41 0.04285147 0.03505477 0.03292056
000390 a6 49 1d 3d 31 ce 23 3d 35 6f 2e 3d 7f 2e 9f 3c
       0.038400315 0.03999156 0.042586524 0.01943135
0003a0 af 22 0e 3d a7 64 27 3d bc 21 58 3d 46 b5 e8 3c
       0.034701046 0.040867474 0.052766547 0.02840675
0003b0 27 0a 34 3d f3 ea 66 3d d9 9d 23 3d 06 b9 0e 3d
       0.043954995 0.05637641 0.039945457 0.03484442
0003c0 5e 49 45 3d ba 51 81 3d 2d 2e af 3c ed a9 79 3d
       0.04816567 0.06314416 0.021384323 0.06095307
0003d0 f5 43 40 3d f7 fa 17 3d 84 c6 57 3d 24 d7 26 3d
       0.04693981 0.037104573 0.052679554 0.040732518
0003e0 9d 18 3a 3c 07 1b 4e 3d f4 b8 87 bc 60 89 78 bc
       0.011358407 0.050318744 -0.016567685 -0.0151694715
0003f0 57 ce 80 bc 1e 5a 83 bc d5 7b 9a bc d7 68 86 bc
       -0.01572339 -0.016034182 -0.018857876 -0.016407413

e_conv3.bias f4 [3]
000000 df fc 0e 3b 07 fd bd bc d7 89 00 00
       0.0021818203 -0.023191942 4.9448e-41

e_conv4.weight f4 [3, 6, 7, 7]
000000 ad 7d 9e 3c 26 53 08 3c af 58 57 3c 5a 6f d8 3c
       0.019347036 0.008320605 0.013143702 0.026420284
000010 da 36 22 3d a9 0b 20 3c 74 91 be 3c 6d d7 c2 3c
       0.03960309 0.009768405 0.023262717 0.023784364
000020 86 b7 9b 3c 4f d0 f6 3b af 07 c7 3c 7e 9b 24 3d
       0.01900841 0.0075321565 0.024295656 0.04018735
000030 89 10 7f 3c 86 5c f9 3c 91 24 a6 3c 18 67 b6 3c
       0.015567907 0.030439626 0.020281108 0.022265956
000040 bb 00 a4 3c e8 b8 d9 3c de 56 b3 3c d4 8f eb 3c
       0.02001988 0.026577428 0.021892007 0.028755106
000050 c1 6b 1e 3d e6 eb c7 3c 6f 19 4b 3c b2 b8 d8 3c
       0.03867698 0.024404477 0.012396201 0.026455257
000060 6f a7 95 3c 75 fb 8b 3c 26 d0 9d 3c 39 c4 90 3c
       0.018268315 0.017087677 0.019264292 0.017671691
000070 9b 0b 0c 3d 2f 66 fd 3c 6a e4 59 3c 85 d0 c7 3c
       0.034190755 0.030932514 0.013299087 0.024391422
000080 74 28 f7 3a a6 02 da 3c d4 06 aa 3c 09 02 b3 3c
       0.001885666 0.026612591 0.020755209 0.021851556
000090 b3 e2 db 3c 2b 4b 01 3d 85 70 bd 3c ff ac 91 3c
       0.026841497 0.031565826 0.023124943 0.017782686
0000a0 fe 86 11 3c 3e 17 c3 3c 04 3c 3e 3c 96 22 78 3c
       0.008882282 0.023814794 0.0116109885 0.015144965
0000b0 29 12 80 3c bf b2 e5 3c f2 c8 fc 3b c6 57 f4 3c
       0.01563366 0.028039334 0.0077143842 0.02982701
0000c0 f9 3f ef 3c 78 bc df bb 86 64 bf bb 98 14 b5 bb
       0.02920531 -0.006827887 -0.0058408407 -0.0055261366
0000d0 2f 34 b6 bb e1 f0 bb bb 28 f8 d1 bb 13 05 00 bc
       -0.00556042 -0.005735502 -0.0064077564 -0.00781371
0000e0 86 c1 d7 bb 4e 2e b8 bb ba 85 af bb a1 24 b0 bb
       -0.006584349 -0.0056207543 -0.0053565176 -0.0053754603
0000f0 0f 6b b4 bb c2 33 c8 bb 4f f7 f6 bb 3a e6 d9 bb
       -0.0055059264 -0.0061096856 -0.0075368057 -0.0066497596
000100 d1 95 bc bb 92 a1 b6 bb b0 7a b7 bb 5f a4 b9 bb
       -0.005755164 -0.00557346 -0.0055993423 -0.0056653465
000110 98 e5 c9 bb 08 9c f7 bb bd fb dc bb c2 e8 c1 bb
       -0.006161403 -0.007556442 -0.0067438767 -0.0059176395
000120 59 21 bd bb 26 69 be bb f2 e7 be bb 7d af cc bb
       -0.0057717976 -0.0058108745 -0.00582599 -0.006246506
000130 5f 7f f8 bb 9e 56 de bb d8 6d c3 bb 04 ee bf bb
       -0.007583543 -0.006785228 -0.005964022 -0.005857231
000140 47 19 bf bb c6 89 bf bb ba b1 cd bb af de f7 bb
       -0.0058318707 -0.0058452813 -0.00627729 -0.0075643877
000150 53 2b e8 bb a4 a6 cd bb 53 1e c9 bb b8 20 c9 bb
       -0.007085243 -0.0062759686 -0.006137648 -0.0061379336
000160 c8 e2 c9 bb 5c e8 d7 bb 69 f1 00 bc 18 df 01 bc
       -0.0061610676 -0.0065889787 -0.007870057 -0.007926725
000170 9b 8f ea bb 2d d4 e5 bb 37 3c e6 bb d5 4b e7 bb
       -0.0071582324 -0.0070138187 -0.007026221 -0.0070586004
000180 87 53 f6 bb 57 0c 0f bc 93 1c d1 bb 58 13 ae 3c
       -0.0075172815 -0.008730969 -0.00638158 0.021249458
000190 76 4c 95 ba eb c0 1c 3b a3 a9 2c bb c8 e3 d6 3b
       -0.0011390585 0.00239187 -0.0026346229 0.0065579154
0001a0 9b cd dd 3b 32 e7 5a 3c 9e 84 76 bc e4 c8 5a ba
       0.006768895 0.013360785 -0.015046267 -0.0008345975
0001b0 d1 ad ba 39 c8 41 a8 ba e1 aa 62 3b 77 f6 f2 3b
       0.00035606188 -0.0012836987 0.0034586715 0.007414635
0001c0 0c 63 0c 3c c1 ff 4a bb f6 dd 91 bc 01 d1 64 3c
       0.0085685365 -0.0030975195 -0.017806035 0.013965846
0001d0 69 e4 3c 3b 0f ca 9c 3c a6 e1 ca 3a 99 16 72 3c
       0.0028822666 0.019139318 0.0015478625 0.0147758955
0001e0 a1 79 24 bc 21 36 48 bc cc 70 9f bc 93 36 fb 3b
       -0.010038764 -0.012219937 -0.019462965 0.007666418
0001f0 a5 c0 9f bb f3 4f e2 bb 91 4d 08 bc 6d 58 93 bc
       -0.00487526 -0.0069065033 -0.0083192745 -0.0179865
000200 51 6f 1b 3b 39 ba 30 3c 06 da 6a 3c 1e 65 ec bb
       0.0023717473 0.010786586 0.014334207 -0.0072142025
000210 f0 5a b5 3b cd f0 f4 bb 21 6a 17 3c 8d 1d da 39
       0.0055345222 -0.0074749948 0.009241612 0.00041602217
000220 ed 4f cd bb c9 85 5b bc 19 eb 9d 3b 01 2a c8 3a
       -0.0062656314 -0.013398596 0.0048192856 0.0015271307
000230 03 1a 78 bb ea 30 9f bc d7 af 10 bb d2 b1 41 3c
       -0.00378573 -0.019432504 -0.0022077465 0.011822181
000240 b0 a0 a4 b9 e4 45 84 3b 76 67 c3 bb b7 07 2c 3d
       -0.0003140024 0.004036652 -0.0059632612 0.041999545
000250 5d a6 11 3d 93 d7 20 3d 2f fc c7 3c 33 30 cd 3c
       0.035559047 0.039268088 0.024412243 0.025047397
000260 32 14 82 3d b8 36 38 3d 63 14 20 3d 09 89 bd 3b
       0.06351508 0.04497406 0.039081942 0.005784158
000270 cd 8d 13 3d 78 a9 3b bc 5f 18 a6 3d 08 04 50 3d
       0.036023904 -0.011453979 0.08110117 0.050785094
000280 a6 2b 8c 3c 52 c9 6c 3d 80 77 d4 3c 04 3c 66 3d
       0.017110657 0.05780918 0.025935888 0.05620958
000290 50 8d 22 3d 47 3f 7e 3c 4e ca 2c 3c ef aa 03 3d
       0.039685547 0.015518016 0.01054628 0.032145437
0002a0 f0 1a c9 3c 44 5d b5 3c af 21 1b 3c 37 59 5f ba
       0.024548978 0.0221392 0.00946848 -0.0008520069
0002b0 9c 96 39 3d 4a f2 8d 3c 8e a5 7b 3c 47 fd 0a 3d
       0.045309648 0.017327446 0.0153592955 0.03393295
0002c0 28 6d 12 3c 2e bb 2d bc d1 9e 2c 3d 00 3c 85 3c
       0.008937158 -0.010603709 0.042143647 0.016263962
0002d0 89 1a 9e 3c 46 c3 a3 3b a2 4e 29 3d 00 f2 6e 3c
       0.019299762 0.0049976436 0.041334756 0.0145840645
0002e0 5b 45 9b 3c 97 30 aa 3c 29 ee 0d 3b 4e 48 2a 3d
       0.01895397 0.020775123 0.0021656847 0.04157286
0002f0 0e 73 ad 3b 35 39 18 3d 21 9c 00 3d 88 9a 19 3c
       0.0052932566 0.037163932 0.031398896 0.009375222
000300 08 0e 3e 3c 40 fa 8a 3c 50 d1 33 3c e7 1c ca 3c
       0.011600025 0.016965032 0.010975197 0.024671985
000310 72 b5 4d 3d e2 c1 85 3d ba 26 2d 3d 89 46 6a 3d
       0.050221868 0.06531121 0.04227326 0.057196174
000320 8b 43 0e 3d b5 e9 b7 3c 90 a4 fe 3c 0c 20 bf 3c
       0.034732383 0.022450307 0.031084329 0.02333071
000330 1e 4b 2f 3d d4 66 92 3c ef bd 34 3d 84 d6 64 3c
       0.042796247 0.017871298 0.044126447 0.01396716
000340 d2 ea 71 ba b2 c3 a7 3c 3f 55 37 3d 26 ee 1d 3d
       -0.00092284114 0.020479057 0.04475903 0.038557194
000350 3d 4c 72 3c 99 84 37 3d 29 e3 59 3d 39 20 ff 3c
       0.014788684 0.04480419 0.053195152 0.031143295
000360 69 a5 85 3d 86 dc 49 3d 54 44 3e bc 08 bc 26 3c
       0.0652569 0.049282573 -0.01161297 0.010176666
000370 b1 00 02 3d b5 7d 30 3d c6 dc b4 3c 23 d6 93 3c
       0.03173894 0.043088634 0.02207793 0.018046444
000380 7f 37 4b 3d 90 57 ba 3c 1c 9b 4d 3c 5e 0b df 3c
       0.049613472 0.022746831 0.012549188 0.0272271
000390 d9 e8 cc 3c 30 1a b2 3c 1e ad 15 3d 34 84 94 3c
       0.025013374 0.021741003 0.03654205 0.018129446
0003a0 e2 0f e6 3c c3 96 ea 3c d0 52 9c 3c ee 67 0e 3c
       0.028083745 0.028636342 0.019082457 0.008691771
0003b0 b3 84 83 bc 9d 39 0c 3d 88 a9 17 3d b4 37 49 ba
       -0.016054487 0.03423463 0.037026912 -0.0007675842
0003c0 43 a0 ab 3c 60 51 b2 3c 36 08 9c bb 3a 5f 37 3d
       0.020950442 0.021767318 -0.004761721 0.04476855
0003d0 59 f9 22 3c c5 8b 00 80 f9 88 00 80 07 8b 00 80
       0.009947144 -5.014e-41 -4.9137e-41 -4.9874e-41
0003e0 d9 8b 00 80 5b 8a 00 80 75 8b 00 80 f5 89 00 80
       -5.0168e-41 -4.9633e-41 -5.0028e-41 -4.949e-41
0003f0 a0 8a 00 80 06 8a 00 80 fe 88 00 80 d9 89 00 80
       -4.9729e-41 -4.9513e-41 -4.9144e-41 -4.945e-41

e_conv4.bias f4 [3]
000000 52 7f 93 ba 8f 99 66 3c 52 89 00 00
       -0.0011253154 0.014074697 4.9261e-41

e_conv5.weight f4 [3, 12, 3, 3]
000000 07 89 00 00 3f 92 00 00 e9 88 00 00 15 89 00 00
       4.9156e-41 5.2463e-41 4.9114e-41 4.9176e-41
000010 57 92 00 80 fd 89 00 00 bb 8b 00 00 35 8a 00 00
       -5.2497e-41 4.9501e-41 5.0126e-41 4.958e-41
000020 6c 8a 00 00 c2 68 16 3d 5a 9f 3e 3d ca 9c 18 3d
       4.9656e-41 0.036721 0.04653869 0.0372589
000030 08 5f 29 3d 40 5f 54 3d fd b2 29 3d c2 cd 11 3d
       0.041350394 0.05184865 0.041430462 0.035596617
000040 6d 78 38 3d ef 6c 10 3d 57 89 00 80 97 8a 00 80
       0.045036722 0.035260137 -4.9268e-41 -4.9717e-41
000050 05 89 00 80 2c 8a 00 00 0a 8d 00 80 4a 9e 00 80
       -4.9153e-41 4.9567e-41 -5.0595e-41 -5.6783e-41
000060 dc 8e 00 00 8d 89 00 80 fc 8b 00 00 66 9f ce 3c
       5.1248e-41 -4.9344e-41 5.0217e-41 0.025222491
000070 b7 63 ea 3c d4 c7 d4 3c c8 1d dc 3c 85 e2 f9 3c
       0.028612 0.025974192 0.02686967 0.03050352
000080 2d 59 e1 3c d0 82 d1 3c 04 5e ef 3c fd c7 d6 3c
       0.027508343 0.025575072 0.029219635 0.026218409
000090 42 55 a3 ba 33 2d da ba 67 38 6f ba 9e a4 ac ba
       -0.0012461322 -0.001664555 -0.0009125531 -0.0013171618
0000a0 8c 01 f1 ba 5e 6d 55 ba 67 77 22 ba 98 1a 9b ba
       -0.0018387302 -0.0008141602 -0.0006197602 -0.0011833487
0000b0 a4 cc 7d b8 84 5f 7b 3c 8c c7 8a 3c 25 c8 7a 3c
       -6.0510487e-05 0.015342597 0.016940854 0.015306507
0000c0 4c 55 77 3c 75 52 89 3c cb ad 72 3c b7 6f 5f 3c
       0.01509602 0.016762951 0.014811943 0.013637475
0000d0 4a 9a 77 3c d1 c9 56 3c 61 50 d3 3c 60 8b d2 3c
       0.015112469 0.01310964 0.025795164 0.025701225
0000e0 12 30 d5 3c 87 5a ce 3c 39 c8 ce 3c 60 2a d2 3c
       0.026023898 0.025189651 0.025241958 0.025654972
0000f0 13 98 c7 3c 9e d9 c7 3c 63 57 ca 3c 8e 18 fa 3c
       0.024364507 0.02439576 0.024699872 0.030529287
000100 a3 de f2 3c 53 10 f3 3c 5c fd f5 3c 88 64 ef 3c
       0.029647177 0.02967087 0.030028038 0.029222742
000110 94 b1 ed 3c 35 cd e7 3c 8e 97 e1 3c 34 73 df 3c
       0.02901534 0.028296093 0.027538087 0.027276613
000120 1a 89 00 00 2e a1 00 80 ac 8a 00 00 78 8a 00 00
       4.9183e-41 -5.782e-41 4.9746e-41 4.9673e-41
000130 ea 89 00 00 d4 88 00 00 f9 8a 00 00 35 89 00 00
       4.9474e-41 4.9085e-41 4.9854e-41 4.922e-41
000140 11 8a 00 00 ad f6 e1 3c 34 65 cc 3c 6e 73 d4 3c
       4.9529e-41 0.027583444 0.024950601 0.025933947
000150 0b 39 d9 3c fe 49 c3 3c 8e ea ca 3c 23 7e d6 3c
       0.026516458 0.023838993 0.024770048 0.026183194
000160 03 c2 c0 3c a1 f1 c7 3c c2 a1 d7 3c ee 65 c6 3c
       0.023530012 0.02440721 0.02632225 0.024218526
000170 6c e7 ce 3c 8c 39 ce 3c 7e e7 bc 3c ba 6d c5 3c
       0.025256835 0.025173925 0.023059603 0.024100173
000180 da 74 cb 3c 51 68 ba 3c 04 90 c2 3c 0b 8b 00 00
       0.024835993 0.02275482 0.023750313 4.9879e-41
000190 ce 88 00 00 33 8a 00 00 05 89 00 00 de 8b 00 00
       4.9076e-41 4.9577e-41 4.9153e-41 5.0175e-41
0001a0 6a 8b 00 00 e6 88 00 00 a5 8a 00 00 eb 88 00 00
       5.0012e-41 4.911e-41 4.9736e-41 4.9117e-41
0001b0 b9 8f 00 00 e2 88 00 80 cc 89 00 80 d3 94 00 00
       5.1558e-41 -4.9104e-41 -4.9432e-41 5.3388e-41
0001c0 74 8b 00 00 73 89 00 00 df 89 00 80 32 8a 00 00
       5.0026e-41 4.9307e-41 -4.9459e-41 4.9575e-41
0001d0 21 8b 00 00 79 57 0b 3d f8 de 24 3d 37 29 0f 3d
       4.991e-41 0.034018967 0.040251702 0.034951415
0001e0 cc 10 17 3d 02 4e 32 3d aa eb 19 3d 9d 3d c0 3c
       0.036881253 0.043531425 0.037578262 0.02346688
0001f0 5a 8f 21 3d ed 54 0b 3d 11 90 00 00 15 89 00 00
       0.03944335 0.03401654 5.1681e-41 4.9176e-41
000200 e1 88 00 00 4b 8d 00 80 d9 89 00 00 c8 89 00 00
       4.9103e-41 -5.0686e-41 4.945e-41 4.9427e-41
000210 70 8b 00 80 de 88 00 00 d6 89 00 80 1b f1 c2 3c
       -5.0021e-41 4.9099e-41 -4.9446e-41 0.023796609
000220 ab 68 cc 3c 29 86 ba 3c e5 e7 c7 3c be a8 d3 3c
       0.024952253 0.02276905 0.024402568 0.025837298
000230 c2 83 cb 3c 17 0f c4 3c 0f a6 b6 3c 11 d7 c9 3c
       0.0248431 0.023932977 0.02229598 0.024638684
000240 b1 3b cb 3b 8a b1 cc 3b 42 9b bd 3b 99 f1 c9 3b
       0.006202184 0.0062467502 0.0057863304 0.006162834
000250 da 53 c7 3b 99 2d bf 3b 2f 1a c5 3b 47 b0 bc 3b
       0.006082994 0.005834293 0.006015084 0.0057583186
000260 2d 48 b9 3b a8 cd 5d 3c b6 db 67 3c f1 04 60 3c
       0.005654356 0.013537802 0.014151504 0.013673053
000270 d6 70 58 3c 11 ab 65 3c 1f ba 59 3c a1 9b 53 3c
       0.013210496 0.014017836 0.013289004 0.012915523
000280 2b 3e 16 3c e9 67 34 3c 62 94 ca 3c c4 3e bc 3c
       0.009170095 0.011011102 0.024728958 0.022979148
000290 3b a8 88 3c c5 7c 5d 3c 5a ab c2 3c 4a e0 ef 3c
       0.016681781 0.013518517 0.023763347 0.029281754
0002a0 95 a4 d6 3c 45 c5 c0 3c da 7d c5 3c d4 5e d8 3c
       0.026201526 0.023531565 0.024107862 0.026412405
0002b0 3b 5c c6 3c 20 90 df 3c de 9d e9 3c ea 97 0f 3d
       0.0242139 0.027290404 0.02851766 0.035056986
0002c0 73 10 fe 3c 0e 86 e3 3c ca c0 de 3c ad 97 e5 3c
       0.031013703 0.027773883 0.027191538 0.028026426
0002d0 15 8b 00 00 c5 8a 00 00 47 89 00 00 27 8a 00 00
       4.9893e-41 4.9781e-41 4.9246e-41 4.956e-41
0002e0 b6 89 00 00 fa 8a 00 00 68 8a 00 00 29 89 00 00
       4.9401e-41 4.9855e-41 4.9651e-41 4.9204e-41
0002f0 f7 88 00 00 00 84 f3 3c 15 c6 df 3c 8e 53 eb 3c
       4.9134e-41 0.029726028 0.027316133 0.028726365
000300 8b 20 e6 3c e7 cb dc 3c 34 2b df 3c 42 e6 df 3c
       0.02809169 0.026952697 0.02724228 0.027331475
000310 02 c6 d2 3c cd cd 1f 3c 63 b4 bd 3c a2 f0 11 3d
       0.025729183 0.009753657 0.023157304 0.035629876
000320 f1 3b e4 3c cb 30 8f 3c 0f f0 ce 3c 4e e1 13 3d
       0.027860614 0.017479321 0.025260953 0.03610354
000330 29 bf db 3c 4d b6 cd 3c c4 31 d8 3c 81 8a 00 80
       0.02682455 0.025111342 0.026390918 -4.9686e-41
000340 a7 89 00 80 8e 8b 00 80 d8 8a 00 80 f0 89 00 80
       -4.938e-41 -5.0063e-41 -4.9808e-41 -4.9483e-41
000350 82 8a 00 80 45 8b 00 80 82 8b 00 80 29 8b 00 80
       -4.9687e-41 -4.996e-41 -5.0046e-41 -4.9921e-41
000360 b8 8a 00 00 10 8a 00 80 7a 8b 00 80 25 8b 00 80
       4.9763e-41 -4.9527e-41 -5.0035e-41 -4.9916e-41
000370 62 89 00 80 ff 8a 00 80 c7 92 00 80 83 90 00 80
       -4.9284e-41 -4.9862e-41 -5.2654e-41 -5.1841e-41
000380 44 8a 00 00 23 9f 43 3d d6 49 63 3c 5a ae 05 3d
       4.96e-41 0.047759186 0.013872584 0.032636978
000390 31 a9 49 3c 35 e1 79 3c 3d 6b 28 3d 9b 46 b3 3c
       0.012308405 0.015251447 0.041117895 0.021884253
0003a0 57 27 5c 3d fa 9e be 3c 2d 8a 00 00 15 8a 00 80
       0.053748455 0.023269165 4.9568e-41 -4.9534e-41
0003b0 8b 8e 00 80 35 8b 00 80 fd a0 00 00 b2 8a 00 80
       -5.1135e-41 -4.9938e-41 5.7752e-41 -4.9755e-41
0003c0 af 89 00 00 4c 89 00 80 bd 88 00 80 da f9 ff 3c
       4.9392e-41 -4.9253e-41 -4.9052e-41 0.031247068
0003d0 e1 5e 46 3d 6b df 2f 3d 79 84 18 3d 99 e5 bf 3c
       0.048430327 0.042937677 0.03723571 0.02342491
0003e0 71 7c 00 3d 32 0e 25 3d f1 2e 51 3d d3 78 42 3d
       0.031368677 0.04029674 0.051070157 0.04747851
0003f0 cd c7 b1 bc de f3 b3 bc 14 5b ae bc a4 7e b3 bc
       -0.021701718 -0.02196687 -0.021283664 -0.021910973

e_conv5.bias f4 [3]
000000 57 2c 09 3b 18 45 1d 3a ad dc a2 3b
       0.002093097 0.00059993705 0.0049701543
