ai_server/checkpoints/Epoch6.pth (torch, 10794 bytes, 10 tensors)

e_conv1.weight f4 [3, 3, 1, 1]
-5.0684e-41 -5.0228e-41 -4.958e-41 -0.0679417 0.16561897 0.27998674 4.9048e-41 -5.5875e-41
-5.0989e-41
00000000: 498d 0080 048c 0080 358a 0080 0525 8bbd
00000010: 0598 293e 6c5a 8f3e ba88 0000 c29b 0080
00000020: 238e 0080

e_conv1.bias f4 [3]
4.9498e-41 0.40769622 4.9066e-41
00000000: fb89 0000 8fbd d03e c788 0000

e_conv2.weight f4 [3, 3, 3, 3]
4.9298e-41 -5.1784e-41 -5.3664e-41 -4.944e-41 -4.9694e-41 4.9522e-41 -4.9145e-41 4.9399e-41
4.9959e-41 0.057693083 0.08269619 0.022912156 0.021763122 0.019935742 0.044904687 0.03530409
0.048203107 0.031485 -4.9316e-41 4.9753e-41 5.2083e-41 4.9595e-41 -5.1918e-41 5.06e-41
-4.9319e-41 -5.0427e-41 4.9093e-41 5.2648e-41 5.0835e-41 4.9272e-41 -5.4078e-41 4.9399e-41
-4.949e-41 -4.9544e-41 -4.9445e-41 -4.9788e-41 0.012855705 -0.022842415 0.007908923 -0.009402185
-0.009050951 -0.012712532 -0.008799185 -0.0008607988 -0.014979648 -4.9825e-41 -6.2539e-41 -4.9183e-41
-4.9582e-41 -6.1503e-41 -5.9082e-41 -5.1362e-41 -5.1805e-41 -4.9476e-41 -4.9188e-41 5.0071e-41
5.006e-41 -5.1492e-41 -4.9085e-41 4.9123e-41 -4.9083e-41 -4.9385e-41 -4.9205e-41 0.005549907
0.030118115 0.021458892 0.01117288 0.033267755 -2.3681307e-06 0.036932092 0.019850926 0.03802279
-4.9616e-41 -5.0335e-41 -6.1148e-41 4.9883e-41 -5.9648e-41 5.0976e-41 -4.9323e-41 4.94e-41
-4.9484e-41
00000000: 6c89 0000 5a90 0080 9895 0080 d289 0080
00000010: 878a 0080 0c8a 0000 ff88 0080 b489 0000
00000020: 448b 0000 954f 6c3d 9f5c a93d 46b2 bb3c
00000030: 9348 b23c 4850 a33c faed 373d 059b 103d
00000040: 9f70 453d 6af6 003d 7989 0080 b18a 0000
00000050: 3091 0000 408a 0000 ba90 0080 0d8d 0000
00000060: 7b89 0080 928c 0080 da88 0000 c392 0000
00000070: b58d 0000 5a89 0000 bf96 0080 b489 0000
00000080: f589 0080 1c8a 0080 d589 0080 ca8a 0080
00000090: bca0 523c 0420 bbbc 6d94 013c 9f0b 1abc
000000a0: 714a 14bc 3948 50bc 752a 10bc 3ba7 61ba
000000b0: 336d 75bc e48a 0080 55ae 0080 1a89 0080
000000c0: 378a 0080 72ab 0080 b2a4 0080 2d8f 0080
000000d0: 6990 0080 eb89 0080 1e89 0080 948b 0000
000000e0: 8c8b 0000 8a8f 0080 d488 0080 ef88 0000
000000f0: d388 0080 aa89 0080 2a89 0080 ffdb b53b
00000100: 44ba f63c 8fca af3c 750e 373c c543 083d
00000110: 2dec 1eb6 1b46 173d 699e a23c c9bd 1b3d
00000120: 4f8a 0080 508c 0080 75aa 0080 0e8b 0000
00000130: 46a6 0080 1a8e 0000 7e89 0080 b589 0000
00000140: f189 0080

e_conv2.bias f4 [3]
-0.04659175 0.039534584 0.048597556
00000000: fed6 3ebd 04ef 213d 3b0e 473d

e_conv3.weight f4 [3, 6, 5, 5]
-4.927e-41 -4.9567e-41 4.9267e-41 -5.0218e-41 -5.0078e-41 4.973e-41 -4.9689e-41 -4.9219e-41
-4.9641e-41 -5.2763e-41 4.9495e-41 -4.9375e-41 5.0007e-41 -4.945e-41 4.9689e-41 4.9431e-41
4.9427e-41 6.037e-41 -4.9228e-41 4.9216e-41 -4.9394e-41 4.9361e-41 -4.9435e-41 -4.9527e-41
-6.0921e-41 0.03214892 0.011251508 0.026388435 0.0444949 0.03491323 0.049096756 0.020600734
0.03307137 0.0012256776 0.011391187 0.046153247 0.05915476 0.031076755 0.027014708 0.0133420685
0.037981402 0.014812914 0.01530592 0.04581558 0.012782782 0.016720742 0.017719993 0.040703975
0.029192895 0.04030701 5.1515e-41 4.9158e-41 4.9609e-41 4.9222e-41 4.9167e-41 4.9495e-41
-4.9107e-41 4.9543e-41 -4.9263e-41 -4.9422e-41 4.9565e-41 -4.9432e-41 4.9851e-41 6.2698e-41
4.9062e-41 5.1252e-41 -4.9344e-41 4.9549e-41 -5.3681e-41 -4.9289e-41 6.0095e-41 -4.9104e-41
5.0922e-41 -4.9265e-41 -4.9214e-41 0.03411633 0.027877182 0.022834942 0.044271998 0.050995335
0.023621242 0.03928752 0.048363656 0.03311649 0.027345873 0.0056137387 0.05545848 0.034131914
0.05741382 0.026652876 0.029127596 0.03987888 0.022983838 0.023674544 0.02526921 0.043104712
0.029203756 0.043137692 0.040268384 0.05085547 -0.0069719404 -0.0076113013 -0.0071975775 -0.014640164
-0.017895997 -0.013187753 -0.023402398 -0.017363993 -0.011041548 0.005697869 -0.017640144 0.0024103296
-0.007995817 -0.00786086 -0.019392496 0.001863244 -0.005116114 -0.0049702288 -0.0024141876 -0.0045211785
-9.768703e-05 0.00034234725 -0.011355959 -0.017753426 -0.009757238 0.021991272 -0.0059833103 0.008825724
-0.003057372 0.017272055 0.009506727 0.019962944 0.015968403 -0.019088602 0.01893348 0.012803476
0.0074700993 0.023351245 0.01207856 -0.011834639 -0.002619522 -0.004198467 -0.0077573247 -0.024702895
0.00963299 -0.0073251682 -0.022201823 0.0050071776 -0.003249246 0.02198726 -4.977e-41 4.951e-41
4.9394e-41 -4.9047e-41 4.9118e-41 -4.9083e-41 4.921e-41 -5.1701e-41 -4.935e-41 5.154e-41
4.9935e-41 4.9114e-41 -4.9564e-41 4.9844e-41 4.9631e-41 -4.9595e-41 5.0447e-41 -4.9485e-41
-4.9202e-41 4.9728e-41 -6.1361e-41 4.9598e-41 -4.9686e-41 -5.3712e-41 4.9483e-41 0.013200827
0.043916155 0.057043992 0.059005268 0.029047484 0.035131305 0.013376923 0.038053323 0.008490809
0.03841165 0.06322507 0.049607545 0.0770225 0.083037265 0.06655893 0.023713242 0.057840798
0.032542963 0.0781249 0.077442884 0.037665747 0.031173352 0.014870736 0.02528977 0.06012676
-5.3059e-41 -5.1344e-41 4.9613e-41 -4.982e-41 -4.918e-41 -4.9177e-41 4.9309e-41 4.9281e-41
4.9582e-41 -4.9086e-41 4.9065e-41 4.9547e-41 4.9965e-41 -5.0612e-41 5.8869e-41 -4.9853e-41
-5.0415e-41 -4.9265e-41 5.1163e-41 -4.9156e-41 -5.261e-41 5.0479e-41 -4.9515e-41 4.946e-41
5.1313e-41 0.04097752 0.034152884 0.032305736 0.037948236 0.038765293 0.04105561 0.017726546
0.034529027 0.040937744 0.052859638 0.025999272 0.04413693 0.0578728 0.04007287 0.033815566
0.047252763 0.06475706 0.020383487 0.06264792 0.046854705 0.035367914 0.053505957 0.04110701
0.009426555 0.050439145 0.00045419062 1.479636e-05 -0.0031122474 -0.0002981795 -0.0022149708 -0.0006461695
00000000: 5889 0080 2c8a 0080 5689 0000 fd8b 0080
00000010: 998b 0080 a18a 0000 838a 0080 3489 0080
00000020: 618a 0080 1593 0080 f989 0000 a389 0080
00000030: 668b 0000 d989 0080 838a 0000 cb89 0000
00000040: c889 0000 49a8 0000 3a89 0080 3289 0000
00000050: b189 0080 9989 0000 ce89 0080 108a 0080
00000060: d3a9 0080 96ae 033d 3f58 383c 8f2c d83c
00000070: 4940 363d 2d01 0f3d ae19 493d dfc2 a83c
00000080: d875 073d eaa6 a03a 1aa2 3a3c 300b 3d3d
00000090: 434c 723d ae94 fe3c f34d dd3c b198 5a3c
000000a0: 6392 1b3d ddb1 723c aec5 7a3c 1ea9 3b3d
000000b0: e06e 513c f0f9 883c 8529 913c 36b9 263d
000000c0: f025 ef3c f718 253d 9a8f 0000 0889 0000
000000d0: 4a8a 0000 3689 0000 0f89 0000 f989 0000
000000e0: e488 0080 1b8a 0000 5389 0080 c589 0080
000000f0: 2b8a 0000 cc89 0080 f78a 0000 c7ae 0000
00000100: c488 0000 df8e 0000 8d89 0080 1f8a 0000
00000110: a495 0080 6689 0080 85a7 0000 e288 0080
00000120: f38d 0000 5589 0080 3089 0080 91bd 0b3d
00000130: b05e e43c 5810 bb3c 8e56 353d 7ce0 503d
00000140: 5681 c13c f3eb 203d f818 463d 28a5 073d
00000150: 7404 e03c 74f3 b73b 6e28 633d e8cd 0b3d
00000160: c12a 6b3d 2257 da3c ff9c ee3c 0958 233d
00000170: 9a48 bc3c 1ef1 c13c 6001 cf3c 918e 303d
00000180: b73c ef3c 26b1 303d 76f0 243d d34d 503d
00000190: e074 e4bb 3968 f9bb a8d9 ebbb 4cdd 6fbc
000001a0: a09a 92bc 7211 58bc 63b6 bfbc ef3e 8ebc
000001b0: 9ce7 34bc 31b5 ba3b 1082 90bc 9ff6 1d3b
000001c0: e300 03bc d6ca 00bc 03dd 9ebc 1838 f43a
000001d0: 13a5 a7bb 4ddd a2bb 5937 1ebb 6526 94bb
000001e0: 53dd ccb8 127d b339 580e 3abc a26f 91bc
000001f0: d3dc 1fbc 0a27 b43c a50f c4bb c599 103c
00000200: 315e 48bb 207e 8d3c 1ac2 1b3c 5489 a33c
00000210: 2bd0 823c b35f 9cbc 631a 9b3c acc5 513c
00000220: bcc7 f43b 1c4b bf3c 27e5 453c 13e6 41bc
00000230: 49ac 2bbb 4b93 89bb 2831 febb ba5d cabc
00000240: b0d3 1d3c f707 f0bb 99e0 b5bc 4013 a43b
00000250: 4df1 54bb a01e b43c bd8a 0080 048a 0000
00000260: b189 0000 b988 0080 ec88 0000 d388 0080
00000270: 2d89 0000 1f90 0080 9189 0080 ac8f 0000
00000280: 338b 0000 e988 0000 2a8a 0080 f28a 0000
00000290: 5a8a 0000 408a 0080 a08c 0000 f289 0080
000002a0: 2889 0080 9f8a 0000 0dab 0080 428a 0000
000002b0: 818a 0080 ba95 0080 f089 0000 4848 583c
000002c0: 6de1 333d f6a6 693d 82af 713d fdf4 ed3c
000002d0: d8e5 0f3d e22a 5b3c cddd 1b3d 091d 0b3c
000002e0: 8955 1d3d 257c 813d 4831 4b3d f9bd 9d3d
000002f0: 710f aa3d 0c50 883d 4642 c23c 79ea 6c3d
00000300: c54b 053d f3ff 9f3d 609a 9e3d 6647 1a3d
00000310: 425f ff3c 63a4 733c 7e2c cf3c 7a47 763d
00000320: e893 0080 208f 0080 4d8a 0000 e18a 0080
00000330: 1889 0080 1689 0080 7489 0000 6089 0000
00000340: 378a 0000 d588 0080 c688 0000 1e8a 0000
00000350: 488b 0000 168d 0080 1aa4 0000 f88a 0080
00000360: 898c 0080 5589 0080 9f8e 0000 0789 0080
00000370: a892 0080 b78c 0000 078a 0080 e089 0000
00000380: 0a8f 0000 0bd8 273d e5e3 0b3d 0553 043d
00000390: 9c6f 1b3d 5bc8 1e3d ed29 283d 4337 913c
000003a0: 4f6e 0d3d 56ae 273d 5983 583d 6dfc d43c
000003b0: edc8 343d 070c 6d3d 7323 243d 3182 0a3d
000003c0: 1d8c 413d 599f 843d 45fb a63c 8d4d 803d
000003d0: b8ea 3f3d f2dd 103d 1029 5b3d d35f 283d
000003e0: d671 1a3c 4799 4e3d 6f20 ee39 e23d 7837
000003f0: d9f6 4bbb fa54 9cb9 0b29 11bb b363 29ba

e_conv3.bias f4 [3]
0.008295727 -0.017281355 4.9448e-41
00000000: cdea 073c a191 8dbc d789 0000

e_conv4.weight f4 [3, 6, 7, 7]
0.020011218 0.0070642023 0.01280505 0.02930323 0.04635172 0.008697644 0.02521416 0.026080072
0.021010105 0.005896659 0.026784327 0.04736106 0.016459981 0.03481691 0.021384338 0.024772415
0.021246718 0.02908255 0.023571061 0.03292759 0.045136932 0.026370052 0.011818546 0.028929612
0.017949207 0.01698467 0.020528104 0.018225042 0.039110854 0.03567114 0.0124175865 0.026002536
-0.0021079732 0.030174559 0.0224786 0.024024412 0.031123342 0.03642895 0.025185574 0.01887384
0.008241108 0.026966956 0.011405601 0.016682643 0.01668828 0.0320337 0.0065596597 0.035279743
0.034148134 -0.002457466 -0.0039900728 -0.0015175698 -0.004037679 -0.003743016 -0.00692871 -0.0036298307
-0.0042088157 -0.004365498 -0.0031457525 -0.0019158019 -0.0015992321 -0.0021246986 -0.0034922366 -0.0039902474
-0.0036971115 -0.0039575733 -0.0031032234 -0.0032456748 -0.0021868206 -0.005555377 -0.0033083567 -0.0044379435
-0.0014929264 -0.0041207406 -0.0046521327 -0.0044658734 -0.005630604 -0.0043822867 -0.0040661646 -0.00469178
-0.0014960245 -0.0027461555 -0.006893036 -0.0047045066 -0.0022585404 -0.0031030995 -0.002498777 -0.0045505147
-0.0024548608 -0.0031383396 -0.004479412 -0.0036037571 -0.0047208946 -0.0049127624 -0.006288804 -0.0013156693
-0.004383056 -0.005967807 -0.007087573 0.029747006 0.00022053304 0.004708492 -0.0017633807 0.010378611
0.010139812 0.018979054 -0.017774468 0.0006442437 0.0020217171 3.857122e-05 0.0064289807 0.011170261
0.012627528 -0.0022450439 -0.021877363 0.019616606 0.0052955616 0.026905306 0.00344943 0.02082256
-0.011365038 -0.014603808 -0.024327006 0.011568677 -0.004557297 -0.00754618 -0.009206741 -0.021520643
0.0048500607 0.015722033 0.020657156 -0.007307395 0.0090867905 -0.007828638 0.014511368 0.002634196
-0.006281538 -0.015403043 0.008767972 0.0040781745 -0.0030005844 -0.023124129 -0.00077187875 0.01750402
0.0017637193 0.0076697967 -0.0058288053 0.040045824 0.035431713 0.040121112 0.02435342 0.024848824
0.0656153 0.04444699 0.037404057 0.004009755 0.03709401 -0.013620297 0.08533382 0.052465778
0.015119918 0.05768642 0.025782531 0.058870796 0.041285772 0.015229319 0.00954708 0.031450786
0.022238005 0.021852655 0.008910908 -0.0020537274 0.047220394 0.016926538 0.013642873 0.03240378
0.0077966843 -0.012523039 0.044061385 0.016178265 0.019130128 0.0026699547 0.040439043 0.013925474
0.019212313 0.021258816 0.0011748527 0.043088663 0.0031021007 0.03589239 0.031823546 0.008832912
0.011313399 0.016912289 0.010198973 0.023747185 0.04784234 0.06552738 0.04196662 0.05779509
0.034076285 0.020672418 0.028167753 0.019995647 0.04223929 0.016678419 0.044401515 0.012638198
-0.0034633807 0.017452508 0.042566106 0.03783766 0.013455488 0.045127932 0.05383604 0.030277498
0.064575955 0.04745101 -0.0146895815 0.008684928 0.0314896 0.043329623 0.02091149 0.015250731
0.04800353 0.021534309 0.011338707 0.02691511 0.024538025 0.020751232 0.03487315 0.015194863
0.027335398 0.02840855 0.018556101 0.0075967875 -0.01871042 0.03265255 0.03495156 -0.0030123182
0.020248832 0.021258201 -0.00664155 0.044955265 0.0070714154 -5.014e-41 -4.9137e-41 -4.9874e-41
-5.0168e-41 -4.9633e-41 -5.0028e-41 -4.949e-41 -4.9729e-41 -4.9513e-41 -4.9144e-41 -4.945e-41
00000000: 91ee a33c d37a e73b 46cc 513c 540d f03c
00000010: 4ddb 3d3d 9080 0e3c ed8d ce3c e0a5 d53c
00000020: 621d ac3c c338 c13b ce6a db3c acfd 413d
00000030: 15d7 863c 2d9c 0e3d 352e af3c 85ef ca3c
00000040: 990d ae3c 873e ee3c 1918 c13c 15df 063d
00000050: 81e1 383d 0206 d83c 93a2 413c cbfd ec3c
00000060: 370a 933c 6f23 8b3c 8e2a a83c af4c 953c
00000070: b432 203d e71b 123d 2273 4b3c 4503 d53c
00000080: ec25 0abb a330 f73c 0a25 b83c d8ce c43c
00000090: 61f6 fe3c 8636 153d fa51 ce3c 509d 9a3c
000000a0: b605 073c cee9 dc3c 8fde 3a3c 0aaa 883c
000000b0: dcb5 883c c535 033d 6af2 d63b 7e81 103d
000000c0: eade 0b3d 700d 21bb 28bf 82bb 31e9 c6ba
000000d0: 824e 84bb 634d 75bb 3b0a e3bb 74e2 6dbb
000000e0: 1bea 89bb 740c 8fbb f828 4ebb a51b fbba
000000f0: 539d d1ba 873e 0bbb 02de 64bb 9fc0 82bb
00000100: 3d4b 72bb 88ae 81bb 735f 4bbb 63b5 54bb
00000110: c350 0fbb e109 b6bb 04d1 58bb 2b6c 91bb
00000120: 4cae c3ba 4707 87bb eb70 98bb 7656 92bb
00000130: ee80 b8bb 4999 8fbb 763d 85bb 81bd 99bb
00000140: 4116 c4ba d8f8 33bb fade e1bb 4328 9abb
00000150: 0504 14bb 5f5d 4bbb 85c2 23bb 7c1c 95bb
00000160: bbe1 20bb 9aac 4dbb 08c8 92bb 032d 6cbb
00000170: bcb1 9abb 3dfb a0bb 5012 cebb 8972 acba
00000180: bd9f 8fbb 988d c3bb df3e e8bb feaf f33c
00000190: e33e 6739 b249 9a3b 3d21 e7ba 0d0b 2a3c
000001a0: 7421 263c f679 9b3c c39b 91bc 76e2 283a
000001b0: c97e 043b 88c7 2138 33aa d23b 7803 373c
000001c0: b1e3 4e3c 9621 13bb 2838 b3bc 01b3 a03c
000001d0: 6486 ad3b 8468 dc3c d50f 623b 1394 aa3c
000001e0: 6d34 3abc cf44 6fbc 6e49 c7bc 8c8a 3d3c
000001f0: 6155 95bb f245 f7bb dfd7 16bc 0f4c b0bc
00000200: 42ed 9e3b 7ecb 803c 3239 a93c df72 efbb
00000210: c3e0 143c b043 00bc 17c1 6d3c 7aa2 2c3b
00000220: 5cd5 cdbb 0b5d 7cbc 8aa7 0f3c 35a2 853b
00000230: 74a5 44bb d06e bdbc e857 4aba 9764 8f3c
00000240: 992c e73a eb52 fb3b 90ff bebb 1707 243d
00000250: d820 113d 0956 243d d380 c73c c38f cb3c
00000260: 5061 863d 0c0e 363d ff34 193d 4364 833b
00000270: e3ef 173d ab27 5fbc 7fc3 ae3d 5be6 563d
00000280: 88b9 773c 9848 6c3d e335 d33c 8122 713d
00000290: 451b 293d 6584 793c 5b6b 1c3c 8ad2 003d
000002a0: 7a2c b63c 5704 b33c 0fff 113c d497 06bb
000002b0: 2c6a 413d 86a9 8a3c 5b86 5f3c d3b9 043d
000002c0: 547b ff3b 6f2d 4dbc b679 343d 4888 843c
000002d0: c9b6 9c3c 68fa 2e3b 69a3 253d ac27 643c
000002e0: 2463 9d3c f826 ae3c 84fd 993a bd7d 303d
000002f0: 9d4c 4b3b e603 133d 6859 023d ebb7 103c
00000300: d65b 393c a48b 8a3c 9819 273c 7589 c23c
00000310: 54f6 433d 3833 863d 31e5 2b3d 8bba 6c3d
00000320: 9393 0b3d 3459 a93c 0fc0 e63c e9cd a33c
00000330: 1b03 2d3d 2ea1 883c 5dde 353d 7210 4f3c
00000340: e3f9 62bb 90f8 8e3c cc59 2e3d aafb 1a3d
00000350: 6874 5c3c 11d8 383d 2e83 5c3d 8408 f83c
00000360: 6640 843d fe5b 423d 92ac 70bc 3a4b 0e3c
00000370: 3dfb 003d 677a 313d 934e ab3c 34de 793c
00000380: 599f 443d b868 b03c fcc5 393c 147d dc3c
00000390: f803 c93c 7dfe a93c 26d7 0e3d e0f3 783c
000003a0: 7cee df3c 0cb9 e83c f702 983c 79ee f83b
000003b0: 9846 99bc aebe 053d 5e29 0f3d 506a 45bb
000003c0: e1e0 a53c ae25 ae3c 5ca1 d9bb 0323 383d
000003d0: 55b7 e73b c58b 0080 f988 0080 078b 0080
000003e0: d98b 0080 5b8a 0080 758b 0080 f589 0080
000003f0: a08a 0080 068a 0080 fe88 0080 d989 0080

e_conv4.bias f4 [3]
0.005057508 0.019698562 -4.350565e-09
00000000: 74b9 a53b e15e a13c f97b 95b1

e_conv5.weight f4 [3, 12, 3, 3]
4.9156e-41 5.2463e-41 4.9114e-41 4.9176e-41 -5.2497e-41 4.9501e-41 5.0126e-41 4.958e-41
4.9656e-41 0.033468418 0.04062983 0.033912703 0.03677615 0.04441462 0.036893807 0.032567732
0.0394307 0.032383483 -4.9268e-41 -4.9717e-41 -4.9153e-41 4.9567e-41 -5.0595e-41 -5.6783e-41
5.1248e-41 -4.9344e-41 5.0217e-41 0.02642701 0.029086009 0.02705906 0.027648123 0.030498847
0.028204791 0.02661762 0.029478073 0.027186122 0.0049767643 0.0047195093 0.0055344803 0.005029742
0.0046458575 0.0057000592 0.005698429 0.005216248 0.0063735307 0.01521186 0.016499734 0.015182747
0.015048471 0.016388798 0.014814416 0.013843514 0.015030267 0.013423764 0.024495909 0.024489494
0.024683831 0.024032937 0.024138927 0.02441339 0.023359997 0.023449853 0.023637982 0.028065965
0.027474627 0.02745729 0.027692791 0.02717245 0.02697471 0.026385846 0.025896061 0.025675261
4.9183e-41 -5.782e-41 4.9746e-41 4.9673e-41 4.9474e-41 4.9085e-41 4.9854e-41 4.922e-41
4.9529e-41 0.025132548 0.02342668 0.024089653 0.024400894 0.022654986 0.02327726 0.024126887
0.02240444 0.022987152 0.024247967 0.022906836 0.02359585 0.023426315 0.022073822 0.022772597
0.02312939 0.021805821 0.022467148 -2.5326377e-09 -2.5335785e-09 -2.5204758e-09 -2.5370401e-09 -2.5383504e-09
-2.5258553e-09 -2.540307e-09 -2.5420408e-09 -2.5300761e-09 5.1558e-41 -4.9104e-41 -4.9432e-41 5.3388e-41
5.0026e-41 4.9307e-41 -4.9459e-41 4.9575e-41 4.991e-41 0.031702757 0.036192097 0.032471403
0.03373043 0.038393997 0.03428697 0.020731965 0.03543803 0.031668033 5.1681e-41 4.9176e-41
4.9103e-41 -5.0686e-41 4.945e-41 4.9427e-41 -5.0021e-41 4.9099e-41 -4.9446e-41 0.025316076
0.026101775 0.023919318 0.02563928 0.026666628 0.02597289 0.025227198 0.022563292 0.025812373
0.008797809 0.0088055525 0.008843978 0.007586853 0.00865369 0.008871934 0.008948062 0.008701847
0.008920069 0.013329486 0.013791566 0.013447213 0.01306328 0.013704449 0.013146283 0.012923858
0.008097111 0.010668934 0.023637438 0.022082325 0.015259327 0.012073301 0.023065655 0.028614035
0.025351547 0.022785213 0.023167899 0.024336753 0.022403589 0.02532376 0.026671942 0.033756305
0.029348034 0.026050888 0.025743658 0.026402177 4.9893e-41 4.9781e-41 4.9246e-41 4.956e-41
4.9401e-41 4.9855e-41 4.9651e-41 4.9204e-41 4.9134e-41 0.02696167 0.025481349 0.026580859
0.025706656 0.025517508 0.025483694 0.024958158 0.024293788 0.007778367 0.020765545 0.03421202
0.025952224 0.015290796 0.023982547 0.034597207 0.024661742 0.02372198 0.024650645 -2.3684652e-09
-2.3629732e-09 -2.3385855e-09 -2.3730071e-09 -2.3676754e-09 -2.3437123e-09 -2.3733904e-09 -2.3681626e-09 -2.3445863e-09
4.9763e-41 -4.9527e-41 -5.0035e-41 -4.9916e-41 -4.9284e-41 -4.9862e-41 -5.2654e-41 -5.1841e-41
4.96e-41 0.04581993 0.007797211 0.029713696 0.0076360772 0.007846949 0.037540335 0.018881407
0.049693134 0.020192076 4.9568e-41 -4.9534e-41 -5.1135e-41 -4.9938e-41 5.7752e-41 -4.9755e-41
4.9392e-41 -4.9253e-41 -4.9052e-41 0.02771333 0.046714354 0.04111717 0.03393271 0.016575843
0.026803913 0.037849523 0.04921843 0.04592615 -0.018163648 -0.01816224 -0.013812212 -0.017343018
00000000: 0789 0000 3f92 0000 e988 0000 1589 0000
00000010: 5792 0080 fd89 0000 bb8b 0000 358a 0000
00000020: 6c8a 0000 2e16 093d 776b 263d 0ce8 0a3d
00000030: 97a2 163d 1bec 353d f61d 173d be65 053d
00000040: 1682 213d 8ba4 043d 5789 0080 978a 0080
00000050: 0589 0080 2c8a 0000 0a8d 0080 4a9e 0080
00000060: dc8e 0000 8d89 0080 fc8b 0000 757d d83c
00000070: c845 ee3c f6aa dd3c 517e e23c b8d8 f93c
00000080: bc0d e73c 320d da3c 007c f13c 6eb5 de3c
00000090: 2014 a33b 1da6 9a3b 965a b53b 89d0 a43b
000000a0: 473c 983b 90c7 ba3b e3b9 ba3b 0fed aa3b
000000b0: 0dd9 d03b 2a3b 793c 732a 873c 0ec1 783c
000000c0: dd8d 763c cd41 863c 2ab8 723c e8cf 623c
000000d0: 8241 763c 59ef 5b3c a5ab c83c 319e c83c
000000e0: bf35 ca3c b9e0 c43c 00bf c53c 97fe c73c
000000f0: 775d bf3c e819 c03c 71a4 c13c 98ea e53c
00000100: 7812 e13c 1cee e03c fedb e23c c298 de3c
00000110: 11fa dc3c 2127 d83c fa23 d43c ed54 d23c
00000120: 1a89 0000 2ea1 0080 ac8a 0000 788a 0000
00000130: ea89 0000 d488 0000 f98a 0000 3589 0000
00000140: 118a 0000 c6e2 cd3c 4fe9 bf3c aa57 c53c
00000150: 62e4 c73c f396 b93c f4af be3c c0a5 c53c
00000160: 8489 b73c 8d4f bc3c aca3 c63c 1ea7 bb3c
00000170: 164c c13c 8be8 bf3c 29d4 b43c 998d ba3c
00000180: d979 bd3c 1fa2 b23c 060d b83c a20a 2eb1
00000190: 2f1b 2eb1 ae34 2db1 1558 2eb1 226f 2eb1
000001a0: 5193 2db1 8e91 2eb1 0eb0 2eb1 92dd 2db1
000001b0: b98f 0000 e288 0080 cc89 0080 d394 0000
000001c0: 748b 0000 7389 0000 df89 0080 328a 0000
000001d0: 218b 0000 c0da 013d 2a3e 143d bc00 053d
000001e0: eb28 0a3d 0643 1d3d 7e70 0c3d 15d6 a93c
000001f0: 7827 113d 57b6 013d 1190 0000 1589 0000
00000200: e188 0000 4b8d 0080 d989 0000 c889 0000
00000210: 708b 0080 de88 0000 d689 0080 a963 cf3c
00000220: 64d3 d53c 72f2 c33c 7809 d23c f973 da3c
00000230: 19c5 d43c 45a9 ce3c a7d6 b83c 7874 d33c
00000240: af24 103c 2a45 103c 55e6 103c 239b f83b
00000250: 35c8 0d3c 975b 113c e49a 123c 3192 0e3c
00000260: 7b25 123c eb63 5a3c 05f6 613c b351 5c3c
00000270: 5e07 563c a088 603c 8263 573c 97be 533c
00000280: bfa9 043c c1cc 2e3c 4da3 c13c fee5 b43c
00000290: 4202 7a3c 18cf 453c 2ff4 bc3c fb67 ea3c
000002a0: 0cae cf3c 0ea8 ba3c 9bca bd3c df5d c73c
000002b0: bb87 b73c c673 cf3c 1e7f da3c 0d44 0a3d
000002c0: 4a6b f03c ac68 d53c 5de4 d23c 6149 d83c
000002d0: 158b 0000 c58a 0000 4789 0000 278a 0000
000002e0: b689 0000 fa8a 0000 688a 0000 2989 0000
000002f0: f788 0000 b8de dc3c 43be d03c 1ac0 d93c
00000300: c496 d23c 180a d13c 2ec3 d03c 0d75 cc3c
00000310: c403 c73c ace1 fe3b 811c aa3c e721 0c3d
00000320: c299 d43c 3f86 7a3c 0c77 c43c cdb5 0d3d
00000330: 6c07 ca3c 9954 c23c 26f0 c93c 7bc2 22b1
00000340: dd61 22b1 d5b4 20b1 6212 23b1 96b4 22b1
00000350: 060f 21b1 2019 23b1 28bd 22b1 661e 21b1
00000360: b88a 0000 108a 0080 7a8b 0080 258b 0080
00000370: 6289 0080 ff8a 0080 c792 0080 8390 0080
00000380: 448a 0000 aead 3b3d bf7f ff3b 236a f33c
00000390: 0f38 fa3b 7d90 003c e5c3 193d 2ead 9a3c
000003a0: 078b 4b3d da69 a53c 2d8a 0000 158a 0080
000003b0: 8b8e 0080 358b 0080 fda0 0000 b28a 0080
000003c0: af89 0000 4c89 0080 bd88 0080 1107 e33c
000003d0: 8d57 3f3d 7a6a 283d 06fd 0a3d 10ca 873c
000003e0: e193 db3c 1a08 1b3d 4499 493d 0f1d 3c3d
000003f0: eecb 94bc fac8 94bc 9e4c 62bc f212 8ebc

e_conv5.bias f4 [3]
-0.0018675643 -0.003700305 0.020673724
00000000: 0fc9 f4ba d180 72bb f15b a93c
