ai_server/checkpoints/Epoch5.pth (torch, 10794 bytes, 10 tensors)

e_conv1.weight f4 [3, 3, 1, 1]
00000000: 498d 0080 048c 0080 358a 0080 7e02 3bbd
00000010: 5c63 273e 2844 8e3e ba88 0000 c29b 0080
00000020: 238e 0080
-5.0684e-41 -5.0228e-41 -4.958e-41 -0.045656674 0.16346496 0.27786374 4.9048e-41 -5.5875e-41
-5.0989e-41

e_conv1.bias f4 [3]
00000000: fb89 0000 1073 d23e c788 0000
4.9498e-41 0.4110341 4.9066e-41

e_conv2.weight f4 [3, 3, 3, 3]
00000000: 6c89 0000 5a90 0080 9895 0080 d289 0080
00000010: 878a 0080 0c8a 0000 ff88 0080 b489 0000
00000020: 448b 0000 6a82 6a3d 4adf a83d 1ba6 b73c
00000030: 0967 ae3c 6b8c a03c 6d5b 363d 5cce 0e3d
00000040: e059 443d e592 fe3c 7989 0080 b18a 0000
00000050: 3091 0000 408a 0000 ba90 0080 0d8d 0000
00000060: 7b89 0080 928c 0080 da88 0000 c392 0000
00000070: b58d 0000 5a89 0000 bf96 0080 b489 0000
00000080: f589 0080 1c8a 0080 d589 0080 ca8a 0080
00000090: 68c6 673c 93a6 b6bc 4a47 1b3c 737f 0cbc
000000a0: d2bd f7bb c50e 3dbc 70c0 02bc b78c 673a
000000b0: 2e8c 64bc e48a 0080 55ae 0080 1a89 0080
000000c0: 378a 0080 72ab 0080 b2a4 0080 2d8f 0080
000000d0: 6990 0080 eb89 0080 1e89 0080 948b 0000
000000e0: 8c8b 0000 8a8f 0080 d488 0080 ef88 0000
000000f0: d388 0080 aa89 0080 2a89 0080 943b cc3b
00000100: 71b6 003d dbef b83c 4434 443c d402 0e3d
00000110: 8eeb 733a 24d7 1b3d 6feb ac3c e474 213d
00000120: 4f8a 0080 508c 0080 75aa 0080 0e8b 0000
00000130: 46a6 0080 1a8e 0000 7e89 0080 b589 0000
00000140: f189 0080
4.9298e-41 -5.1784e-41 -5.3664e-41 -4.944e-41 -4.9694e-41 4.9522e-41 -4.9145e-41 4.9399e-41
4.9959e-41 0.05725328 0.08245714 0.022418072 0.021289365 0.019598207 0.044520784 0.03486477
0.047937274 0.031075904 -4.9316e-41 4.9753e-41 5.2083e-41 4.9595e-41 -5.1918e-41 5.06e-41
-4.9319e-41 -5.0427e-41 4.9093e-41 5.2648e-41 5.0835e-41 4.9272e-41 -5.4078e-41 4.9399e-41
-4.949e-41 -4.9544e-41 -4.9445e-41 -4.9788e-41 0.014146425 -0.022296226 0.009477446 -0.008575308
-0.00756047 -0.011539166 -0.007980451 0.0008832919 -0.013949437 -4.9825e-41 -6.2539e-41 -4.9183e-41
-4.9582e-41 -6.1503e-41 -5.9082e-41 -5.1362e-41 -5.1805e-41 -4.9476e-41 -4.9188e-41 5.0071e-41
5.006e-41 -5.1492e-41 -4.9085e-41 4.9123e-41 -4.9083e-41 -4.9385e-41 -4.9205e-41 0.006232688
0.03142399 0.02257531 0.011975352 0.034670666 0.0009304815 0.03804697 0.021108357 0.039418116
-4.9616e-41 -5.0335e-41 -6.1148e-41 4.9883e-41 -5.9648e-41 5.0976e-41 -4.9323e-41 4.94e-41
-4.9484e-41

e_conv2.bias f4 [3]
00000000: 9dbb 33bd c43c 0b3d 578d 573d
-0.043880094 0.033993497 0.052625027

e_conv3.weight f4 [3, 6, 5, 5]
00000000: 5889 0080 2c8a 0080 5689 0000 fd8b 0080
00000010: 998b 0080 a18a 0000 838a 0080 3489 0080
00000020: 618a 0080 1593 0080 f989 0000 a389 0080
00000030: 668b 0000 d989 0080 838a 0000 cb89 0000
00000040: c889 0000 49a8 0000 3a89 0080 3289 0000
00000050: b189 0080 9989 0000 ce89 0080 108a 0080
00000060: d3a9 0080 27b8 003d fb87 2f3c f66d d53c
00000070: f749 353d edf8 0c3d 96e7 463d 2f44 a53c
00000080: a771 063d 36a6 3d3a f5dc 303c 2906 3b3d
00000090: e7f4 713d 29e7 fc3c 1458 db3c a75c 523c
000000a0: d461 193d b455 6c3c 8902 763c 9c5f 3b3d
000000b0: fb85 493c de68 833c 0f5a 8e3c af6b 263d
000000c0: eeb0 ed3c 64fc 233d 9a8f 0000 0889 0000
000000d0: 4a8a 0000 3689 0000 0f89 0000 f989 0000
000000e0: e488 0080 1b8a 0000 5389 0080 c589 0080
000000f0: 2b8a 0000 cc89 0080 f78a 0000 c7ae 0000
00000100: c488 0000 df8e 0000 8d89 0080 1f8a 0000
00000110: a495 0080 6689 0080 85a7 0000 e288 0080
00000120: f38d 0000 5589 0080 3089 0080 7583 083d
00000130: 70f3 e03c 341b b83c 5ee9 353d 67ee 503d
00000140: 43e9 b93c 0ced 203d d3d3 473d 8891 073d
00000150: 864a dc3c cdaf 8c3b a226 653d d548 0c3d
00000160: ecf8 6d3d 8328 d73c bb2a e93c 1ada 233d
00000170: 9a39 bb3c 90bd c03c 02ed cb3c 2049 2f3d
00000180: 12ea ed3c 0447 323d 650e 263d c96c 513d
00000190: 6c7e 8ebb 4c47 c8bb 3ac4 b5bb 1e70 8abc
000001a0: 12f9 a9bc 559f 6dbc 8701 01bd e9fb b3bc
000001b0: eacf 3abc 6c0d 883c 7b62 b0bc 2bb0 1f3c
000001c0: fa70 e3bb 6a4e cdbb 8c7c bfbc a339 223c
000001d0: 6c46 f8ba 4bb5 e6ba ed0b 353b 9539 313a
000001e0: 04af f63b fe20 f83b 7ceb 36bc 6955 abbc
000001f0: b483 e2bb f186 ba3c c7ae b5bb 822a 203c
00000200: a8bb 21bb aee0 943c 80b2 243c c856 ad3c
00000210: 72cd 8c3c 3537 9abc 13a6 a33c ba17 5d3c
00000220: 3399 093c 7c52 cb3c 677b 583c 35cb 3cbc
00000230: 8ac4 17bb 1951 69bb 190d e8bb 5ec4 c8bc
00000240: 6b4f 2c3c c3f1 eabb 93b0 b4bc 833a c43b
00000250: df8f 25bb 40bb bd3c bd8a 0080 048a 0000
00000260: b189 0000 b988 0080 ec88 0000 d388 0080
00000270: 2d89 0000 1f90 0080 9189 0080 ac8f 0000
00000280: 338b 0000 e988 0000 2a8a 0080 f28a 0000
00000290: 5a8a 0000 408a 0080 a08c 0000 f289 0080
000002a0: 2889 0080 9f8a 0000 0dab 0080 428a 0000
000002b0: 818a 0080 ba95 0080 f089 0000 e4f1 4a3c
000002c0: df99 323d f7f4 683d 8bb8 703d df1f e93c
000002d0: b863 0d3d f21f 533c c3bb 1a3d e92b 023c
000002e0: cc6e 1b3d 4da9 803d f931 4a3d b1b8 9d3d
000002f0: 4f01 aa3d b5d0 873d 75dd bc3c af33 6c3d
00000300: c013 043d 77e9 9f3d 6a4a 9e3d 021d 183d
00000310: d1cf fc3c a293 6d3c 4c35 cc3c ca48 753d
00000320: e893 0080 208f 0080 4d8a 0000 e18a 0080
00000330: 1889 0080 1689 0080 7489 0000 6089 0000
00000340: 378a 0000 d588 0080 c688 0000 1e8a 0000
00000350: 488b 0000 168d 0080 1aa4 0000 f88a 0080
00000360: 898c 0080 5589 0080 9f8e 0000 0789 0080
00000370: a892 0080 b78c 0000 078a 0080 e089 0000
00000380: 0a8f 0000 1a22 253d ca78 0a3d 0243 033d
00000390: a39a 1a3d b2de 1c3d 02f3 253d 1b0d 8c3c
000003a0: be00 0d3d 0d99 273d 1681 583d 190a ce3c
000003b0: f9ef 343d 3809 6f3d 6324 243d b8e1 083d
000003c0: a33f 403d 99bd 853d 96c3 a33c b171 813d
000003d0: 0aaa 3f3d 5167 0e3d bc49 5c3d f4c8 283d
000003e0: bdb5 0e3c c5aa 4e3d d737 ff3b aca0 d13b
000003f0: a446 c93a d4a5 d13b 28c3 993b be4a c23b
-4.927e-41 -4.9567e-41 4.9267e-41 -5.0218e-41 -5.0078e-41 4.973e-41 -4.9689e-41 -4.9219e-41
-4.9641e-41 -5.2763e-41 4.9495e-41 -4.9375e-41 5.0007e-41 -4.945e-41 4.9689e-41 4.9431e-41
4.9427e-41 6.037e-41 -4.9228e-41 4.9216e-41 -4.9394e-41 4.9361e-41 -4.9435e-41 -4.9527e-41
-6.0921e-41 0.03142562 0.010713573 0.02605341 0.04425999 0.03441708 0.0485607 0.020174114
0.03282323 0.0007234545 0.010794868 0.04566017 0.059071448 0.030871945 0.026775397 0.012839473
0.03744681 0.01442473 0.015015253 0.045745477 0.01230001 0.016041216 0.017376928 0.04063004
0.02901503 0.04003562 5.1515e-41 4.9158e-41 4.9609e-41 4.9222e-41 4.9167e-41 4.9495e-41
-4.9107e-41 4.9543e-41 -4.9263e-41 -4.9422e-41 4.9565e-41 -4.9432e-41 4.9851e-41 6.2698e-41
4.9062e-41 5.1252e-41 -4.9344e-41 4.9549e-41 -5.3681e-41 -4.9289e-41 6.0095e-41 -4.9104e-41
5.0922e-41 -4.9265e-41 -4.9214e-41 0.033328492 0.02745983 0.022473909 0.04441201 0.05100861
0.022694236 0.039288566 0.048785996 0.033097774 0.026891004 0.004293418 0.055945046 0.034249146
0.05809872 0.026264435 0.028462758 0.04000292 0.022854615 0.02352789 0.024893288 0.042794347
0.029042277 0.043524757 0.04054107 0.051129136 -0.0043485668 -0.006112015 -0.0055470737 -0.016899165
-0.020748649 -0.01450332 -0.031495597 -0.021970706 -0.01140211 0.016607963 -0.021531334 0.009746592
-0.006940958 -0.006265451 -0.023374818 0.009901437 -0.0018941886 -0.0017601637 0.0027625517 0.00067605946
0.0075281877 0.0075722924 -0.011164542 -0.02091475 -0.006912673 0.022769423 -0.0055445167 0.00977576
-0.0024678502 0.018173542 0.010052323 0.021159545 0.017187808 -0.018825153 0.019976651 0.013494426
0.008398342 0.024819605 0.013213015 -0.011523058 -0.0023157918 -0.0035601316 -0.0070816395 -0.024507698
0.010516982 -0.0071699335 -0.022056853 0.0059884205 -0.0025262756 0.023160577 -4.977e-41 4.951e-41
4.9394e-41 -4.9047e-41 4.9118e-41 -4.9083e-41 4.921e-41 -5.1701e-41 -4.935e-41 5.154e-41
4.9935e-41 4.9114e-41 -4.9564e-41 4.9844e-41 4.9631e-41 -4.9595e-41 5.0447e-41 -4.9485e-41
-4.9202e-41 4.9728e-41 -6.1361e-41 4.9598e-41 -4.9686e-41 -5.3712e-41 4.9483e-41 0.012386773
0.043603774 0.05687424 0.058769744 0.02845758 0.034518927 0.012886034 0.03777672 0.007945039
0.03794746 0.062822916 0.049364064 0.07701243 0.08301031 0.066316046 0.023054818 0.057666477
0.032245398 0.07808202 0.07729037 0.03713704 0.030860813 0.01450053 0.024927758 0.05988387
-5.3059e-41 -5.1344e-41 4.9613e-41 -4.982e-41 -4.918e-41 -4.9177e-41 4.9309e-41 4.9281e-41
4.9582e-41 -4.9086e-41 4.9065e-41 4.9547e-41 4.9965e-41 -5.0612e-41 5.8869e-41 -4.9853e-41
-5.0415e-41 -4.9265e-41 5.1163e-41 -4.9156e-41 -5.261e-41 5.0479e-41 -4.9515e-41 4.946e-41
5.1313e-41 0.040315725 0.0338066 0.032046326 0.03774513 0.038298316 0.040514953 0.017096093
0.034424536 0.040917445 0.05285748 0.0251513 0.04417417 0.0583584 0.040073764 0.033418387
0.04693569 0.065303035 0.019990724 0.06320513 0.04679302 0.0347665 0.053781256 0.04120727
0.008710322 0.050455827 0.007788639 0.0063973274 0.0015356136 0.006397942 0.004692454 0.00592932

e_conv3.bias f4 [3]
00000000: f639 313c 9108 72bc d789 0000
0.010817042 -0.01477255 4.9448e-41

e_conv4.weight f4 [3, 6, 7, 7]
00000000: a476 a53c 473a d53b ef69 4e3c 9985 f83c
00000010: c630 483d c053 063c 7ee5 d33c c866 dc3c
00000020: 10e6 b13c 3d2a aa3b eda8 e23c 5502 4d3d
00000030: 96fd 883c 2923 153d 2735 b23c 2957 d23c
00000040: 3258 b13c c189 f53c c2c3 c53c 0d24 0d3d
00000050: a9b6 423d 4bcd dd3c 92fa 3c3c 773c f43c
00000060: 7e68 913c b92e 8a3c 6e86 ab3c f251 963c
00000070: 3bc5 273d c95d 193d 77cb 443c 9b86 d93c
00000080: 85e7 73bb 8aec 003d f7e3 bc3c 7750 cb3c
00000090: 450c 063d 08ac 1c3d e956 d43c 508c 9d3c
000000a0: 0ae0 013c 1337 e63c 21f7 383c c533 8d3c
000000b0: dbaf 8b3c 8c54 093d eca4 c63b 66e2 183d
000000c0: 0960 133d 5ee6 763b 69a8 a0bb f6eb a93b
000000d0: c4f7 b0bb ba88 7bbb 37c9 82bc 09f6 d23a
000000e0: 3105 87bb dd70 debb b7aa f6ba 4d5c 643b
000000f0: bd03 a43b d0a0 843b da5d df3a 5477 3abb
00000100: 405a 5dbb d780 94bb f116 43ba 09f5 b2ba
00000110: a16e 863b e419 e2bb 90df a939 f277 c7bb
00000120: 900f d53b 89a1 92bb 5cd5 e1bb 16f6 afbb
00000130: 525e e9bb 8ad7 8cbb d6a0 95bb 83d1 e6bb
00000140: 4ebf d63b a775 913a a637 81bc 55a2 5abb
00000150: d85f ae3b 5d57 bf38 cb5c 333b a9a8 c1bb
00000160: 4bf5 3f3b 70e9 593a 5694 e5ba d2ff cf3a
00000170: 6d44 9bbb 3f2b b5bb f695 38bc edb4 213c
00000180: 315b 13bb 75da c5bb a0cf eabb 1ab6 063d
00000190: bb39 653a 4b50 ba3b f6f9 a7ba feb4 423c
000001a0: 88aa 3b3c e8ec ac3c bcba 97bc 960f b03a
000001b0: 50d3 353b ad8e 323a 2d9f fa3b 91f2 4e3c
000001c0: e6da 683c 5580 e6ba 4b68 bdbc d210 b23c
000001d0: 3e93 ce3b dbfb f33c 0bbe 8b3b ec35 bd3c
000001e0: 4ab2 3ebc d527 7abc 85e4 d3bc d179 563c
000001f0: b0c7 8bbb 2d64 f9bb 35ca 18bc e7b3 b8bc
00000200: 2a07 c13b 9c38 903c b0b9 bc3c 7c06 eabb
00000210: 32ed 2b3c b6af fdbb cdb4 873c 99b5 6c3b
00000220: 5287 c7bb 5428 82bc 93b6 293c 44f6 a83b
00000230: f882 24bb 1c02 c6bc 1044 5ab8 a54b a13c
00000240: 795d 313b 5305 163c 3b06 b7bb 0694 213d
00000250: b233 113d 3fc6 253d 58bf c73c 6f65 cb3c
00000260: 6cfa 873d 5579 353d 3a2a 173d 1f67 623b
00000270: c2b0 193d d3b7 6abc 80e4 b13d cb7f 593d
00000280: eb0d 6d3c 877a 6c3d 3352 d33c a92b 753d
00000290: 669b 2b3d 77af 783c 747f 173c 9903 003d
000002a0: 9e56 b03c 75c7 b23c f4c7 0f3c 1e85 1ebb
000002b0: 0b5d 443d 37ef 893c f37d 563c 7df2 023d
000002c0: acf2 f43b 6715 57bc ca77 373d 65c4 843c
000002d0: 60b1 9c3c b15e fa3a 16cb 243d 2dc6 613c
000002e0: c5bc 9e3c d11c b03c ef10 6b3a e6ec 323d
000002f0: 2919 1d3b 67aa 113d 7257 033d ac02 0f3c
00000300: f10d 393c 100a 8b3c e2e1 233c 8773 c03c
00000310: eedc 403d e973 863d c8a7 2b3d 8fbf 6d3d
00000320: 18d4 0a3d b1ac a43c 8dd4 de3c a6f3 9a3c
00000330: 7e70 2c3d 4fab 853c 516f 363d 9e4e 483c
00000340: a7b1 8cbb 98c1 863c 0a88 2b3d a52f 1a3d
00000350: f4bf 553c 417a 393d c594 5d3d 93ed f53c
00000360: cdd7 833d 2810 403d 8e7f 80bc 04c2 063c
00000370: 9bd3 003d 8b00 323d 4c64 a83c 35d2 6a3c
00000380: 26aa 423d 5287 ad3c 41f0 333c fe10 dc3c
00000390: 731e c83c 66a1 a73c 5fae 0c3d 94d9 693c
000003a0: ae6e de3c 07a5 e83c dc13 973c e8bc ee3b
000003b0: e63a a0bc 26bd 033d c09f 0c3d 2f41 72bb
000003c0: 0b90 a43c 3259 ad3c e94a ecbb 41ac 383d
000003d0: 686a c93b c58b 0080 f988 0080 078b 0080
000003e0: d98b 0080 5b8a 0080 758b 0080 f589 0080
000003f0: a08a 0080 068a 0080 fe88 0080 d989 0080
0.020198174 0.0065071913 0.012598499 0.030337142 0.04887464 0.0081986785 0.025866266 0.026904479
0.021716148 0.0051930235 0.02766844 0.050051052 0.016722482 0.036410484 0.02175386 0.025676327
0.0216485 0.029972913 0.024141196 0.03445821 0.04753748 0.02707543 0.01153435 0.029813988
0.017750021 0.016867982 0.020938125 0.018349621 0.040959578 0.037442956 0.0120114 0.026553443
-0.0037216854 0.03147558 0.02305792 0.024818642 0.032726545 0.03825 0.025920348 0.019231945
0.00792695 0.028102433 0.011289389 0.0172366 0.017051628 0.033527896 0.0060621407 0.037325285
0.035980258 0.003767393 -0.0049028886 0.0051855994 -0.0054006297 -0.0038381056 -0.015965087 0.0016095053
-0.004120492 -0.0067883567 -0.0018819188 0.0034845055 0.0050053285 0.0040474907 0.001704152 -0.0028452473
-0.0033775717 -0.0045319605 -0.0007442078 -0.0013653348 0.0041025435 -0.006900059 0.0003240076 -0.0060872966
0.0065020993 -0.004474823 -0.0068918895 -0.005369912 -0.0071218396 -0.004298155 -0.0045662923 -0.0070440187
0.006553567 0.0011097685 -0.015773606 -0.0033360918 0.005321484 9.1238624e-05 0.0027368541 -0.0059099984
0.0029290493 0.0008312678 -0.0017515521 0.0015869087 -0.0047383816 -0.005528837 -0.011266222 0.009869796
-0.0022484774 -0.006038005 -0.007165864 0.03288851 0.0008744259 0.005685841 -0.0012815583 0.011883972
0.011454232 0.02110906 -0.01852166 0.0013432379 0.002774436 0.00068114215 0.0076483698 0.0126310745
0.014212346 -0.0017585853 -0.02312102 0.021736536 0.0063041737 0.02978318 0.0042645982 0.023097001
-0.011639187 -0.015268286 -0.025865803 0.013090567 -0.004265748 -0.007610819 -0.009325554 -0.022546722
0.0058907466 0.017605118 0.023037761 -0.0071418863 0.0104935635 -0.0077418936 0.016565705 0.0036118983
-0.0060891295 -0.01588837 0.0103584705 0.0051563103 -0.0025102478 -0.024170928 -5.203864e-05 0.01968939
0.002706377 0.009156543 -0.0055854595 0.039447807 0.03544969 0.040472265 0.024383232 0.02482864
0.06639561 0.044305164 0.036905505 0.0034546328 0.037522085 -0.014326054 0.08686161 0.05310039
0.01446865 0.05773404 0.025796032 0.05985609 0.041896246 0.015178553 0.009246696 0.03125343
0.021525677 0.021823624 0.0087757 -0.002418823 0.047940295 0.0168377 0.013091552 0.031969536
0.007475218 -0.013127661 0.044791974 0.01620693 0.019127548 0.0019101707 0.04023274 0.013780159
0.019377122 0.021498116 0.0008967062 0.043682955 0.0023971295 0.0355629 0.032065816 0.008728664
0.011294828 0.016972572 0.010002585 0.023492588 0.047085695 0.06565077 0.041908056 0.058044013
0.033893675 0.020101877 0.027200961 0.018915009 0.04209947 0.016317038 0.044539753 0.012225775
-0.0042936387 0.016449735 0.041877784 0.037643094 0.0130462535 0.045282606 0.054096956 0.03002051
0.06437645 0.046890408 -0.015685823 0.008224968 0.031451803 0.04345755 0.020555638 0.014332344
0.047525547 0.02118269 0.010982574 0.026863571 0.024428582 0.020462703 0.03434598 0.014273066
0.027152386 0.028399004 0.018442087 0.007285703 -0.019559335 0.032162808 0.034332037 -0.0036965122
0.020088216 0.021160696 -0.0072110784 0.04508615 0.006146718 -5.014e-41 -4.9137e-41 -4.9874e-41
-5.0168e-41 -4.9633e-41 -5.0028e-41 -4.949e-41 -4.9729e-41 -4.9513e-41 -4.9144e-41 -4.945e-41

e_conv4.bias f4 [3]
00000000: 62e5 003c c697 b53c 888e 33b0
0.007867189 0.022167098 -6.532237e-10

e_conv5.weight f4 [3, 12, 3, 3]
00000000: 0789 0000 3f92 0000 e988 0000 1589 0000
00000010: 5792 0080 fd89 0000 bb8b 0000 358a 0000
00000020: 6c8a 0000 0d71 043d f59d 1d3d b60b 063d
00000030: 79f4 0f3d 5bc3 2a3d e16c 103d 3718 013d
00000040: c62d 193d 9282 003d 5789 0080 978a 0080
00000050: 0589 0080 2c8a 0000 0a8d 0080 4a9e 0080
00000060: dc8e 0000 8d89 0080 fc8b 0000 b21d dc3c
00000070: 872c ef3c b4b4 e03c 83a1 e43c 6510 f93c
00000080: 18b8 e83c cb1e dd3c 00a1 f13c a951 e13c
00000090: 0213 eb3b 4534 f13b fd6c 023c 1495 f53b
000000a0: eb5c f83b e71c 083c e9eb 013c 8f12 013c
000000b0: d764 0e3c c910 723c b845 823c 23a8 713c
000000c0: 99a6 6f3c d86f 813c c23f 6c3c 4d1c 5e3c
000000d0: cd22 6f3c b317 583c 3752 c53c 2765 c53c
000000e0: 54aa c63c 28ea c13c 81cb c23c b7ae c43c
000000f0: 10ef bc3c 13b3 bd3c d8f1 be3c a837 df3c
00000100: 6424 db3c caf3 da3c e87e dc3c b5fa d83c
00000110: db77 d73c 6621 d33c 8fd0 cf3c e933 ce3c
00000120: 1a89 0000 2ea1 0080 ac8a 0000 788a 0000
00000130: ea89 0000 d488 0000 f98a 0000 3589 0000
00000140: 118a 0000 43ce c73c 0649 bc3c cecf c03c
00000150: 76b9 c23c 6ce3 b63c e81d bb3c 2ca8 c03c
00000160: e902 b53c 73f5 b83c 627e c13c 787e b83c
00000170: 5629 bd3c e2b1 bb3c ad98 b23c 425c b73c
00000180: 1d6e b93c 1c8e b03c 4107 b53c 1bce 9338
00000190: 0f6f 9338 d9bf 9338 c847 9338 74ea 9238
000001a0: 9a3b 9338 84f7 9238 479c 9238 94ed 9238
000001b0: b98f 0000 e288 0080 cc89 0080 d394 0000
000001c0: 748b 0000 7389 0000 df89 0080 328a 0000
000001d0: 218b 0000 399b fd3c c98f 0e3d 5bad 013d
000001e0: b2d9 053d 89f6 153d 30e4 073d 0a96 a23c
000001f0: 9d8a 0b3d 8d22 fd3c 1190 0000 1589 0000
00000200: e188 0000 4b8d 0080 d989 0000 c889 0000
00000210: 708b 0080 de88 0000 d689 0080 ebd8 d33c
00000220: 4504 d93c 7b3d c73c cc92 d53c bd96 dc3c
00000230: 19e3 d73c d85f d23c 295c b93c c7b0 d63c
00000240: d079 003c e8ca 023c a27b 093c c9d6 9d3b
00000250: c3b6 023c 39fe 0a3c 3847 093c 13e7 093c
00000260: 7a28 0e3c 15dd 543c 4a53 5b3c 3aac 563c
00000270: ebbb 503c f503 5a3c 6921 523c 8c88 4f3c
00000280: 8022 f53b 16d7 283c 15b5 be3c 577b b23c
00000290: b54e 723c a60f 3e3c f910 bb3c 1b92 e83c
000002a0: 2d70 cd3c c2aa b83c bd40 bb3c 87b1 c13c
000002b0: 3a97 b23c 9e11 ca3c df6e d53c 8877 083d
000002c0: c0d5 eb3c 35be d03c 68f8 ce3c 35e1 d33c
000002d0: 158b 0000 c58a 0000 4789 0000 278a 0000
000002e0: b689 0000 fa8a 0000 688a 0000 2989 0000
000002f0: f788 0000 4a6e d53c 60c5 cb3c 4ee6 d33c
00000300: 8b31 cc3c 4e2a cd3c 2cfa cb3c f81a c63c
00000310: c226 c33c ea82 e93b c9a3 a33c cd2c 0a3d
00000320: 0e57 cf3c c7ba 6e3c 26f5 c03c 889f 0b3d
00000330: 2332 c43c 8f87 be3c b926 c53c b712 6138
00000340: 7a60 6038 3a2c 6138 d25c 6038 f6ad 5f38
00000350: 537b 6038 a234 6038 5c8a 5f38 ab58 6038
00000360: b88a 0000 108a 0080 7a8b 0080 258b 0080
00000370: 6289 0080 ff8a 0080 c792 0080 8390 0080
00000380: 448a 0000 501d 393d 3646 bd3b ec99 eb3c
00000390: 5a01 c83b 2029 b03b d9f0 143d 3fd9 923c
000003a0: 4a11 463d d25b 9d3c 2d8a 0000 158a 0080
000003b0: 8b8e 0080 358b 0080 fda0 0000 b28a 0080
000003c0: af89 0000 4c89 0080 bd88 0080 1d40 d63c
000003d0: dd84 3b3d ce73 243d 6cf3 043d 0438 633c
000003e0: b8e6 cb3c a73d 163d 53a1 453d 1f93 383d
000003f0: bf12 32bc d274 2bbc 4502 62ba 2a85 0ebc
4.9156e-41 5.2463e-41 4.9114e-41 4.9176e-41 -5.2497e-41 4.9501e-41 5.0126e-41 4.958e-41
4.9656e-41 0.032334376 0.038480718 0.032726012 0.035145257 0.04169021 0.035260085 0.031517234
0.03739717 0.03137452 -4.9268e-41 -4.9717e-41 -4.9153e-41 4.9567e-41 -5.0595e-41 -5.6783e-41
5.1248e-41 -4.9344e-41 5.0217e-41 0.026869629 0.029196037 0.027429916 0.027909046 0.030403325
0.028408095 0.026992222 0.029495716 0.027504759 0.007173897 0.0073609673 0.007960555 0.007494578
0.007579436 0.008307672 0.0079297805 0.00787796 0.008691034 0.01477451 0.015902385 0.01474956
0.014627122 0.015800402 0.014419498 0.013556552 0.0145956995 0.013189244 0.024087055 0.024096085
0.02425114 0.023671225 0.023778679 0.024009092 0.023063213 0.023156678 0.02330868 0.027248219
0.02675075 0.026727576 0.026915982 0.026486734 0.026302269 0.025772762 0.025368003 0.025171237
4.9183e-41 -5.782e-41 4.9746e-41 4.9673e-41 4.9474e-41 4.9085e-41 4.9854e-41 4.922e-41
4.9529e-41 0.024390345 0.022984039 0.023536589 0.023770075 0.02232524 0.022841409 0.02351769
0.022096114 0.022577977 0.023619834 0.022521242 0.023091 0.02291197 0.021801317 0.02238286
0.022635514 0.021552138 0.022098185 7.047896e-05 7.0301925e-05 7.045241e-05 7.0228765e-05 7.005493e-05
7.020608e-05 7.007926e-05 6.9909314e-05 7.006075e-05 5.1558e-41 -4.9104e-41 -4.9432e-41 5.3388e-41
5.0026e-41 4.9307e-41 -4.9459e-41 4.9575e-41 4.991e-41 0.030957805 0.034805093 0.031659465
0.032678314 0.036612067 0.0331766 0.019846935 0.03406774 0.030900264 5.1681e-41 4.9176e-41
4.9103e-41 -5.0686e-41 4.945e-41 4.9427e-41 -5.0021e-41 4.9099e-41 -4.9446e-41 0.02586027
0.026491294 0.024321308 0.026070975 0.026927346 0.026353406 0.025680467 0.022626953 0.02620734
0.007841542 0.007982947 0.008391293 0.004816864 0.007978144 0.008483463 0.008378796 0.008416909
0.008676643 0.012992163 0.013386557 0.013102585 0.012740116 0.0133066075 0.012825348 0.012666833
0.0074809194 0.010305187 0.023279706 0.021787329 0.014789273 0.011600411 0.022835242 0.028389981
0.025077904 0.022542361 0.022858018 0.023644222 0.021800626 0.024666604 0.026053844 0.03331712
0.028788447 0.025481323 0.025264934 0.025864223 4.9893e-41 4.9781e-41 4.9246e-41 4.956e-41
4.9401e-41 4.9855e-41 4.9651e-41 4.9204e-41 4.9134e-41 0.026053566 0.02487439 0.025866654
0.024925968 0.025044587 0.024899565 0.024182782 0.023822192 0.007126202 0.01997556 0.03373413
0.025310066 0.014570898 0.023554396 0.034087688 0.023949688 0.023257999 0.024066316 5.366161e-05
5.3495613e-05 5.368537e-05 5.3492207e-05 5.3329357e-05 5.3520616e-05 5.345478e-05 5.32962e-05 5.348834e-05
4.9763e-41 -4.9527e-41 -5.0035e-41 -4.9916e-41 -4.9284e-41 -4.9862e-41 -5.2654e-41 -5.1841e-41
4.96e-41 0.04519397 0.005776192 0.02875992 0.0061036767 0.005375996 0.036362503 0.017925857
0.048356332 0.019208822 4.9568e-41 -4.9534e-41 -5.1135e-41 -4.9938e-41 5.7752e-41 -4.9755e-41
4.9392e-41 -4.9253e-41 -4.9052e-41 0.026153618 0.045781005 0.040149502 0.032458708 0.013868336
0.024890289 0.03667989 0.048249554 0.04506218 -0.010868727 -0.010464864 -0.0008621554 -0.008698741

e_conv5.bias f4 [3]
00000000: 50be 61bb e1e6 abbb b257 e33c
-0.003444571 -0.005246029 0.027751777
