ai_server/checkpoints/Epoch8.pth (torch, 10794 bytes, 10 tensors)

e_conv1.weight f4 [3, 3, 1, 1]
-5.0684e-41 -5.0228e-41 -4.958e-41 -0.10063869 0.17164358 0.2806879 4.9048e-41 -5.5875e-41
-5.0989e-41
00000000: 498d 0080 048c 0080 358a 0080 a81b cebd
00000010: 56c3 2f3e 53b6 8f3e ba88 0000 c29b 0080
00000020: 238e 0080

e_conv1.bias f4 [3]
4.9498e-41 0.4014748 4.9066e-41
00000000: fb89 0000 1b8e cd3e c788 0000

e_conv2.weight f4 [3, 3, 3, 3]
4.9298e-41 -5.1784e-41 -5.3664e-41 -4.944e-41 -4.9694e-41 4.9522e-41 -4.9145e-41 4.9399e-41
4.9959e-41 0.05852909 0.08311845 0.023833618 0.022670774 0.020558104 0.045610763 0.03614724
0.048687324 0.032246042 -4.9316e-41 4.9753e-41 5.2083e-41 4.9595e-41 -5.1918e-41 5.06e-41
-4.9319e-41 -5.0427e-41 4.9093e-41 5.2648e-41 5.0835e-41 4.9272e-41 -5.4078e-41 4.9399e-41
-4.949e-41 -4.9544e-41 -4.9445e-41 -4.9788e-41 0.011957551 -0.023811972 0.0064036595 -0.010582692
-0.011225644 -0.014540263 -0.01000515 -0.003208597 -0.016724711 -4.9825e-41 -6.2539e-41 -4.9183e-41
-4.9582e-41 -6.1503e-41 -5.9082e-41 -5.1362e-41 -5.1805e-41 -4.9476e-41 -4.9188e-41 5.0071e-41
5.006e-41 -5.1492e-41 -4.9085e-41 4.9123e-41 -4.9083e-41 -4.9385e-41 -4.9205e-41 0.003251459
0.026437009 0.018170089 0.008618276 0.029384946 -0.002836521 0.033649236 0.016307227 0.034111783
-4.9616e-41 -5.0335e-41 -6.1148e-41 4.9883e-41 -5.9648e-41 5.0976e-41 -4.9323e-41 4.94e-41
-4.9484e-41
00000000: 6c89 0000 5a90 0080 9895 0080 d289 0080
00000010: 878a 0080 0c8a 0000 ff88 0080 b489 0000
00000020: 448b 0000 33bc 6f3d 023a aa3d b83e c33c
00000030: 0fb8 b93c 7869 a83c 5ad2 3a3d 210f 143d
00000040: 5c6c 473d 6d14 043d 7989 0080 b18a 0000
00000050: 3091 0000 408a 0000 ba90 0080 0d8d 0000
00000060: 7b89 0080 928c 0080 da88 0000 c392 0000
00000070: b58d 0000 5a89 0000 bf96 0080 b489 0000
00000080: f589 0080 1c8a 0080 d589 0080 ca8a 0080
00000090: 9be9 433c 5311 c3bc cad5 d13b 0763 2dbc
000000a0: c3eb 37bc 493a 6ebc a4ec 23bc 5347 52bb
000000b0: 4302 89bc e48a 0080 55ae 0080 1a89 0080
000000c0: 378a 0080 72ab 0080 b2a4 0080 2d8f 0080
000000d0: 6990 0080 eb89 0080 1e89 0080 948b 0000
000000e0: 8c8b 0000 8a8f 0080 d488 0080 ef88 0000
000000f0: d388 0080 aa89 0080 2a89 0080 6e16 553b
00000100: 6d92 d83c 70d9 943c ab33 0d3c b3b8 f03c
00000110: ede4 39bb c8d3 093d bc96 853c ccb8 0b3d
00000120: 4f8a 0080 508c 0080 75aa 0080 0e8b 0000
00000130: 46a6 0080 1a8e 0000 7e89 0080 b589 0000
00000140: f189 0080

e_conv2.bias f4 [3]
-0.05151109 0.047508582 0.039903753
00000000: 4bfd 52bd 5c98 423d 1e72 233d

e_conv3.weight f4 [3, 6, 5, 5]
-4.927e-41 -4.9567e-41 4.9267e-41 -5.0218e-41 -5.0078e-41 4.973e-41 -4.9689e-41 -4.9219e-41
-4.9641e-41 -5.2763e-41 4.9495e-41 -4.9375e-41 5.0007e-41 -4.945e-41 4.9689e-41 4.9431e-41
4.9427e-41 6.037e-41 -4.9228e-41 4.9216e-41 -4.9394e-41 4.9361e-41 -4.9435e-41 -4.9527e-41
-6.0921e-41 0.033603426 0.012317683 0.027041363 0.044950392 0.035880648 0.05018094 0.021443525
0.033547837 0.0022033441 0.012554052 0.047156602 0.059325352 0.03147154 0.02747999 0.0143254865
0.03907307 0.015591092 0.015878722 0.045956336 0.013734316 0.01810547 0.018419947 0.040861655
0.029555216 0.040849995 5.1515e-41 4.9158e-41 4.9609e-41 4.9222e-41 4.9167e-41 4.9495e-41
-4.9107e-41 4.9543e-41 -4.9263e-41 -4.9422e-41 4.9565e-41 -4.9432e-41 4.9851e-41 6.2698e-41
4.9062e-41 5.1252e-41 -4.9344e-41 4.9549e-41 -5.3681e-41 -4.9289e-41 6.0095e-41 -4.9104e-41
5.0922e-41 -4.9265e-41 -4.9214e-41 0.035616808 0.0286325 0.023462381 0.043922257 0.050889682
0.02539269 0.039231595 0.047471933 0.03307343 0.02814824 0.008150447 0.05446397 0.033833515
0.05600958 0.02732955 0.03039974 0.039592795 0.023169434 0.023888169 0.025927385 0.043697797
0.029480532 0.042332757 0.039678384 0.050262257 -0.014481135 -0.01360255 -0.013280845 -0.016473453
-0.019378884 -0.016189946 -0.01857041 -0.01634833 -0.014873104 -0.011020738 -0.01775528 -0.009969149
-0.013284019 -0.0138578415 -0.019476553 -0.011639171 -0.012982512 -0.012741762 -0.012483086 -0.014911926
-0.013318473 -0.012184709 -0.015950488 -0.018709807 -0.017700877 0.020350754 -0.006854853 0.0069004116
-0.0042435965 0.015385755 0.008371954 0.01752365 0.013496558 -0.019574052 0.016771965 0.011378968
0.005605449 0.020372715 0.00978661 -0.0124496315 -0.003227003 -0.0054490934 -0.009069665 -0.025022123
0.007828751 -0.0076213325 -0.02241888 0.003057931 -0.004671514 0.019577302 -4.977e-41 4.951e-41
4.9394e-41 -4.9047e-41 4.9118e-41 -4.9083e-41 4.921e-41 -5.1701e-41 -4.935e-41 5.154e-41
4.9935e-41 4.9114e-41 -4.9564e-41 4.9844e-41 4.9631e-41 -4.9595e-41 5.0447e-41 -4.9485e-41
-4.9202e-41 4.9728e-41 -6.1361e-41 4.9598e-41 -4.9686e-41 -5.3712e-41 4.9483e-41 0.014866681
0.044577453 0.057412185 0.05949938 0.030238125 0.036403242 0.014378419 0.038621943 0.0095804315
0.039354812 0.06408751 0.050126426 0.0770717 0.08311847 0.06707131 0.025079297 0.058232743
0.03315678 0.07824465 0.07778581 0.03879019 0.03184494 0.01563782 0.026038896 0.06065382
-5.3059e-41 -5.1344e-41 4.9613e-41 -4.982e-41 -4.918e-41 -4.9177e-41 4.9309e-41 4.9281e-41
4.9582e-41 -4.9086e-41 4.9065e-41 4.9547e-41 4.9965e-41 -5.0612e-41 5.8869e-41 -4.9853e-41
-5.0415e-41 -4.9265e-41 5.1163e-41 -4.9156e-41 -5.261e-41 5.0479e-41 -4.9515e-41 4.946e-41
5.1313e-41 0.042274617 0.034805715 0.032769892 0.03830165 0.039635763 0.04211908 0.018920166
0.034692407 0.04093651 0.05283697 0.027652353 0.044052877 0.05690625 0.040030595 0.034548663
0.04789332 0.06370351 0.021101814 0.06154422 0.04694799 0.036561947 0.0529805 0.040892735
0.010770483 0.05039096 -0.012789133 -0.011838503 -0.01287733 -0.012575406 -0.015084959 -0.012894737
00000000: 5889 0080 2c8a 0080 5689 0000 fd8b 0080
00000010: 998b 0080 a18a 0000 838a 0080 3489 0080
00000020: 618a 0080 1593 0080 f989 0000 a389 0080
00000030: 668b 0000 d989 0080 838a 0000 cb89 0000
00000040: c889 0000 49a8 0000 3a89 0080 3289 0000
00000050: b189 0080 9989 0000 ce89 0080 108a 0080
00000060: d3a9 0080 bfa3 093d 1bd0 493c d985 dd3c
00000070: e71d 383d 96f7 123d 888a 4d3d 55aa af3c
00000080: 7569 093d fb65 103b 83af 4d3c 4827 413d
00000090: 24ff 723d 4de8 003d b71d e13c 72b5 6a3c
000000a0: 150b 203d c871 7f3c 1814 823c b63c 3c3d
000000b0: e605 613c ec51 943c 6ee5 963c 8d5e 273d
000000c0: c81d f23c 5352 273d 9a8f 0000 0889 0000
000000d0: 4a8a 0000 3689 0000 0f89 0000 f989 0000
000000e0: e488 0080 1b8a 0000 5389 0080 c589 0080
000000f0: 2b8a 0000 cc89 0080 f78a 0000 c7ae 0000
00000100: c488 0000 df8e 0000 8d89 0080 1f8a 0000
00000110: a495 0080 6689 0080 85a7 0000 e288 0080
00000120: f38d 0000 5589 0080 3089 0080 eee2 113d
00000130: b48e ea3c 2e34 c03c d3e7 333d b371 503d
00000140: 5504 d03c 4fb1 203d ee71 423d 0178 073d
00000150: 2397 e63c 7489 053c 9d15 5f3d 0395 0a3d
00000160: 4d6a 653d 38e2 df3c e008 f93c 0e2c 223d
00000170: d3cd bd3c 1fb1 c33c ab65 d43c 76fc 323d
00000180: 2881 f13c 1d65 2d3d cd85 223d ccdf 4d3d
00000190: 4842 6dbc 3bdd 5ebc e797 59bc 56f3 86bc
000001a0: 77c0 9ebc c7a0 84bc f920 98bc efec 85bc
000001b0: 52ae 73bc 5390 34bc 8573 91bc a455 23bc
000001c0: 37a5 59bc 000c 63bc 4b8d 9fbc 39b2 3ebc
000001d0: 9ab4 54bc d3c2 50bc dc85 4cbc 2751 74bc
000001e0: b935 5abc 60a2 47bc 99aa 82bc 4f45 99bc
000001f0: 6e01 91bc a0b6 a63c ad9e e0bb d91c e23b
00000200: de0d 8bbb 8914 7c3c 852a 093c c28d 8f3c
00000210: ab20 5d3c c359 a0bc 5c65 893c da6e 3a3c
00000220: eaad b73b aee4 a63c 0458 203c 8af9 4bbc
00000230: 207c 53bb 4f8e b2bb ef98 14bc 32fb ccbc
00000240: 2944 003c 5fbc f9bb cda7 b7bc 9267 483b
00000250: 8013 99bb 9460 a03c bd8a 0080 048a 0000
00000260: b189 0000 b988 0080 ec88 0000 d388 0080
00000270: 2d89 0000 1f90 0080 9189 0080 ac8f 0000
00000280: 338b 0000 e988 0000 2a8a 0080 f28a 0000
00000290: 5a8a 0000 408a 0080 a08c 0000 f289 0080
000002a0: 2889 0080 9f8a 0000 0dab 0080 428a 0000
000002b0: 818a 0080 ba95 0080 f089 0000 6193 733c
000002c0: d996 363d 0a29 6b3d 9fb5 733d f2b5 f73c
000002d0: 911b 153d 7693 6b3c 0b32 1e3d 3ef7 1c3c
000002e0: 8332 213d 5040 833d 5e51 4d3d c4d7 9d3d
000002f0: 043a aa3d af5c 893d 1973 cd3c 7585 6e3d
00000300: 67cf 073d bb3e a03d 2b4e 9f3d 76e2 1e3d
00000310: d76f 023d e31a 803c 864f d53c 2470 783d
00000320: e893 0080 208f 0080 4d8a 0000 e18a 0080
00000330: 1889 0080 1689 0080 7489 0000 6089 0000
00000340: 378a 0000 d588 0080 c688 0000 1e8a 0000
00000350: 488b 0000 168d 0080 1aa4 0000 f88a 0080
00000360: 898c 0080 5589 0080 9f8e 0000 0789 0080
00000370: a892 0080 b78c 0000 078a 0080 e089 0000
00000380: 0a8f 0000 2628 2d3d 7090 0e3d b939 063d
00000390: 31e2 1c3d 1c59 223d 0e85 2c3d 77fe 9a3c
000003a0: a019 0e3d 0bad 273d 946b 583d 3087 e23c
000003b0: ca70 343d 8716 693d 1ff7 233d e682 0d3d
000003c0: c92b 443d fc76 823d b6dd ac3c cb15 7c3d
000003d0: 894c 403d fbc1 153d 1502 593d 247f 273d
000003e0: ae76 303c c066 4e3d 8389 51bc 48f6 41bc
000003f0: 70fb 52bc 1309 4ebc e726 77bc 7244 53bc

e_conv3.bias f4 [3]
0.0037677265 -0.021691669 4.9448e-41
00000000: f6eb 763b bab2 b1bc d789 0000

e_conv4.weight f4 [3, 6, 7, 7]
0.0196447 0.008024029 0.013126598 0.027395446 0.04177402 0.009528456 0.023964023 0.024580808
0.019713432 0.007109619 0.025144044 0.042484235 0.0159291 0.03188486 0.020703012 0.023120893
0.020475712 0.02742505 0.022485757 0.030123778 0.040759705 0.025087856 0.012293464 0.02729146
0.018238865 0.017126381 0.019730054 0.017925456 0.03578418 0.0324689 0.013095796 0.024955286
0.00072031573 0.027786158 0.021368753 0.022595093 0.028235195 0.03313511 0.023826176 0.018186769
0.008757042 0.02486948 0.011618878 0.01568965 0.01602497 0.02933639 0.0074236407 0.031583615
0.03081302 -0.0061428756 -0.0053321104 -0.005016824 -0.0051195836 -0.0052500446 -0.005913698 -0.0070876316
-0.0059910277 -0.0051710713 -0.0049404665 -0.0049269525 -0.0050127534 -0.005536572 -0.0068514515 -0.0060617058
-0.0052981167 -0.0051884097 -0.005191975 -0.005228508 -0.005604476 -0.006940355 -0.0061243353 -0.00546383
-0.0053010075 -0.0054133595 -0.0054130983 -0.0057410146 -0.0069623934 -0.0061629387 -0.0054633683 -0.005435192
-0.0053264047 -0.00534701 -0.0058074943 -0.006893523 -0.006338693 -0.005675822 -0.005581096 -0.0056416467
-0.005582778 -0.005949545 -0.0071312436 -0.0071112807 -0.006488554 -0.006406089 -0.0064599537 -0.0063341856
-0.0068003796 -0.007929988 -0.0067497627 0.023917357 -0.0008370636 0.0030144027 -0.0024954067 0.0076766466
0.007758248 0.015081863 -0.016109426 -0.0004978113 0.0007588582 -0.0010001708 0.004287441 0.008521999
0.009773035 -0.0029693497 -0.019303845 0.015697451 0.003532695 0.021560717 0.0020396053 0.016639128
-0.01063192 -0.013155123 -0.021215713 0.00881226 -0.004924744 -0.007259619 -0.008764341 -0.019320073
0.003040536 0.0122746425 0.016273823 -0.0074086515 0.0065634716 -0.0077537675 0.010816305 0.0009847371
-0.006434262 -0.014233961 0.005954689 0.0022141074 -0.0036902118 -0.020834742 -0.001904174 0.01353767
0.00020070696 0.0050654896 -0.00607935 0.04131202 0.035479255 0.039511234 0.024357665 0.024946503
0.064164154 0.04476631 0.038482085 0.005165003 0.036335874 -0.012197783 0.08244369 0.051295325
0.01642331 0.05771346 0.025842493 0.05703768 0.040167663 0.015383255 0.010179887 0.031878088
0.023736276 0.021998992 0.0092433365 -0.0012869685 0.045889217 0.017153397 0.014755987 0.033372063
0.008514942 -0.011276586 0.04272257 0.016189208 0.019198077 0.0041921227 0.04097754 0.014315553
0.018987639 0.020882558 0.0017920923 0.04201768 0.0045294273 0.036680788 0.031480003 0.009143684
0.011451995 0.016893404 0.010668786 0.024317965 0.04941638 0.06536477 0.042154416 0.057375457
0.03449859 0.021848261 0.030107675 0.022207564 0.042592518 0.017458044 0.044196654 0.013509278
-0.0017787456 0.019463377 0.04400925 0.038297 0.014326483 0.044887725 0.05338356 0.030836446
0.06501119 0.0486485 -0.012653459 0.009658804 0.0316303 0.04314209 0.021668771 0.017100818
0.049048707 0.022316828 0.012120166 0.027094161 0.024827272 0.021386854 0.035964802 0.017124636
0.027802961 0.0285273 0.018875122 0.008297959 -0.016960904 0.033683214 0.03630208 -0.0015452121
0.020681435 0.021561963 -0.005417562 0.044796012 0.008966737 -5.014e-41 -4.9137e-41 -4.9874e-41
-5.0168e-41 -4.9633e-41 -5.0028e-41 -4.949e-41 -4.9729e-41 -4.9513e-41 -4.9144e-41 -4.945e-41
00000000: eced a03c 3877 033c f110 573c 6a6c e03c
00000010: 3c1b 2b3d 3e1d 1c3c 3350 c43c b15d c93c
00000020: 107e a13c cff7 e83b e2fa cd3c f303 2e3d
00000030: be7d 823c b399 023d 5d99 a93c 0768 bd3c
00000040: aebc a73c 80aa e03c 0d34 b83c 24c6 f63c
00000050: a6f3 263d 0c85 cd3c 866a 493c 5792 df3c
00000060: ac69 953c a04c 8c3c eca0 a13c 68d8 923c
00000070: 6f92 123d 1cfe 043d c08f 563c 076f cc3c
00000080: 92d3 3c3a cc9f e33c 860d af3c 5819 b93c
00000090: 7f4d e73c aeb8 073d 1d2f c33c 6bfc 943c
000000a0: b279 0f3c 14bb cb3c 1b5d 3e3c 9587 803c
000000b0: cc46 833c de52 f03c 0342 f33b d25d 013d
000000c0: 966b fc3c 2d4a c9bb fcb8 aebb 2c64 a4bb
000000d0: 2ec2 a7bb 9108 acbb b2c7 c1bb 5d3f e8bb
000000e0: 6250 c4bb 1772 a9bb a3e3 a1bb 4672 a1bb
000000f0: 0642 a4bb 226c b5bb 2482 e0bb 46a1 c6bb
00000100: d39b adbb 8903 aabb 7121 aabb e753 abbb
00000110: c1a5 b7bb eb6b e3bb a6ae c8bb ee09 b3bb
00000120: 13b4 adbb 8d62 b1bb 5c60 b1bb 1f1f bcbb
00000130: ca24 e4bb 7af2 c9bb 0e06 b3bb b219 b2bb
00000140: 1f89 aebb f935 afbb cb4c bebb 10e3 e1bb
00000150: d0b4 cfbb 3ffc b9bb a0e1 b6bb 90dd b8bb
00000160: bcef b6bb 67f4 c2bb 35ad e9bb bf05 e9bb
00000170: f09d d4bb 2bea d1bb 05ae d3bb 008f cfbb
00000180: b8d5 debb c8ec 01bc 1d2d ddbb 55ee c33c
00000190: 636e 5bba 498d 453b fa89 23bb 618c fb3b
000001a0: e738 fe3b eb19 773c eaf7 83bc 8d7f 02ba
000001b0: 1dee 463a 2a18 83ba a97d 8c3b db9f 0b3c
000001c0: 141f 203c 6c99 42bb 1923 9ebc f197 803c
000001d0: c984 673b 1aa0 b03c e6aa 053b c84e 883c
000001e0: 8131 2ebc 9688 57bc 93cc adbc 4c61 103c
000001f0: bf5f a1bb 19e2 edbb 4f98 0fbc 2145 9ebc
00000200: bb43 473b 951b 493c ae50 853c 46c4 f2bb
00000210: 6412 d73b 5113 febb df36 313c 4b12 813a
00000220: 80d6 d2bb 8f35 69bc 8d1f c33b 8f1a 113b
00000230: 7bd7 71bb 9fad aabc 7a95 f9ba 1acd 5d3c
00000240: dd74 5239 68fc a53b 4935 c7bb cb36 293d
00000250: b252 113d 88d6 213d ba89 c73c 9c5c cc3c
00000260: 7f68 833d e15c 373d 649f 1d3d 2f3f a93b
00000270: edd4 143d 36d9 47bc 3dd8 a83d 0c1b 523d
00000280: 2d8a 863c f364 6c3d a3b3 d33c 58a0 693d
00000290: d986 243d 0c0a 7c3c 8ac9 263c 9992 023d
000002a0: 9472 c23c 3b37 b43c 5d71 173c 7faf a8ba
000002b0: 55f6 3b3d 4885 8c3c 18c3 713c 25b1 083d
000002c0: 4182 0b3c 6ec1 38bc ddfd 2e3d 3b9f 843c
000002d0: 4945 9d3c 135e 893b 11d8 273d c88b 6a3c
000002e0: f78b 9b3c e611 ab3c a4e4 ea3a bb1a 2c3d
000002f0: 976b 943b 983e 163d 2df1 003d 64cf 153c
00000300: 26a1 3b3c 0964 8a3c 22cc 2e3c 7836 c73c
00000310: d468 4a3d f7dd 853d 1caa 2c3d 8702 6b3d
00000320: 654e 0d3d 20fb b23c 5fa4 f63c a3ec b53c
00000330: 7e75 2e3d 2c04 8f3c 8d07 353d 0556 5d3c
00000340: cc24 e9ba a971 9f3c 0b43 343d 51dd 1c3d
00000350: a0b9 6a3c 31dc 373d b8a8 5a3d b79c fc3c
00000360: 9624 853d a643 473d 7450 4fbc f63f 1e3c
00000370: c68e 013d c3b5 303d b582 b13c 0417 8c3c
00000380: 4ce7 483d c8d1 b63c a993 463c 93f4 dd3c
00000390: 9062 cb3c 7c33 af3c d44f 133d f748 8c3c
000003a0: 09c3 e33c 16b2 e93c 00a0 9a3c 2af4 073c
000003b0: 98f1 8abc 69f7 093d 7db1 143d b788 caba
000003c0: 1d6c a93c b7a2 b03c ce85 b1bb 067c 373d
000003d0: 39e9 123c c58b 0080 f988 0080 078b 0080
000003e0: d98b 0080 5b8a 0080 758b 0080 f589 0080
000003f0: a08a 0080 068a 0080 fe88 0080 d989 0080

e_conv4.bias f4 [3]
0.00041444594 0.015488646 4.9261e-41
00000000: fe49 d939 17c4 7d3c 5289 0000

e_conv5.weight f4 [3, 12, 3, 3]
4.9156e-41 5.2463e-41 4.9114e-41 4.9176e-41 -5.2497e-41 4.9501e-41 5.0126e-41 4.958e-41
4.9656e-41 0.035725493 0.044698473 0.036236368 0.039931465 0.049521197 0.040026657 0.034669682
0.04329008 0.034385074 -4.9268e-41 -4.9717e-41 -4.9153e-41 4.9567e-41 -5.0595e-41 -5.6783e-41
5.1248e-41 -4.9344e-41 5.0217e-41 0.02568189 0.02885587 0.026400814 0.0271987 0.030601762
0.027816486 0.025981773 0.029395571 0.026607344 0.00086743693 0.00043167575 0.0012540373 0.0008004703
0.00025139825 0.0013510814 0.001548485 0.00094619056 0.0021453097 0.01551354 0.017030157 0.015475062
0.015300835 0.016881436 0.015025184 0.013903279 0.015301943 0.013400621 0.025386248 0.025323471
0.025600888 0.024826912 0.02490007 0.025264861 0.024046969 0.024100484 0.024363888 0.02974987
0.028964102 0.028971609 0.02929049 0.028579898 0.028372465 0.027692355 0.027023649 0.026772471
4.9183e-41 -5.782e-41 4.9746e-41 4.9673e-41 4.9474e-41 4.9085e-41 4.9854e-41 4.922e-41
4.9529e-41 0.026744865 0.024425557 0.025301447 0.02578929 0.023426753 0.024254002 0.025474558
0.023135837 0.02391386 0.025611876 0.023767423 0.024688417 0.024570515 0.02271533 0.023641165
0.024243698 0.022420224 0.023303619 4.9879e-41 4.9076e-41 4.9577e-41 4.9153e-41 5.0175e-41
5.0012e-41 4.911e-41 4.9736e-41 4.9117e-41 5.1558e-41 -4.9104e-41 -4.9432e-41 5.3388e-41
5.0026e-41 4.9307e-41 -4.9459e-41 4.9575e-41 4.991e-41 0.03327656 0.038944304 0.03415569
0.035866942 0.04187327 0.036518935 0.02257968 0.038150005 0.033260994 5.1681e-41 4.9176e-41
4.9103e-41 -5.0686e-41 4.945e-41 4.9427e-41 -5.0021e-41 4.9099e-41 -4.9446e-41 0.02435878
0.02539833 0.023211626 0.024872486 0.026180224 0.025279425 0.024419252 0.022455039 0.02508842
0.0072087664 0.007207931 0.0068936027 0.0070756916 0.0070232777 0.006924201 0.0071052923 0.00679534
0.006828603 0.01356112 0.014128744 0.01368847 0.013255999 0.014013504 0.013333373 0.013005365
0.008890037 0.010975369 0.024366377 0.022679785 0.016205527 0.013033802 0.023528494 0.029057283
0.025913902 0.023277491 0.023789184 0.025737084 0.023625055 0.026649939 0.027917279 0.034638304
0.030472513 0.027210295 0.026718708 0.027495088 4.9893e-41 4.9781e-41 4.9246e-41 4.956e-41
4.9401e-41 4.9855e-41 4.9651e-41 4.9204e-41 4.9134e-41 0.028770529 0.02667504 0.027981095
0.027260853 0.0264431 0.026624221 0.026502253 0.025217243 0.009059582 0.022325108 0.035128575
0.02719368 0.016712822 0.024803575 0.0355704 0.02606597 0.024615237 0.025777059 -4.9686e-41
-4.938e-41 -5.0063e-41 -4.9808e-41 -4.9483e-41 -4.9687e-41 -4.996e-41 -5.0046e-41 -4.9921e-41
4.9763e-41 -4.9527e-41 -5.0035e-41 -4.9916e-41 -4.9284e-41 -4.9862e-41 -5.2654e-41 -5.1841e-41
4.96e-41 0.04713565 0.011872403 0.03168187 0.01076948 0.012808248 0.039944988 0.02089327
0.052414745 0.022252994 4.9568e-41 -4.9534e-41 -5.1135e-41 -4.9938e-41 5.7752e-41 -4.9755e-41
4.9392e-41 -4.9253e-41 -4.9052e-41 0.030322228 0.048095986 0.042568587 0.03637985 0.021413822
0.030100774 0.039714772 0.05068211 0.04718825 -0.022724397 -0.022988452 -0.021959137 -0.022825444
00000000: 0789 0000 3f92 0000 e988 0000 1589 0000
00000010: 5792 0080 fd89 0000 bb8b 0000 358a 0000
00000020: 6c8a 0000 e554 123d bf15 373d 966c 143d
00000030: 2d8f 233d bdd6 4a3d fef2 233d cc01 0e3d
00000040: f050 313d 5dd7 0c3d 5789 0080 978a 0080
00000050: 0589 0080 2c8a 0000 0a8d 0080 4a9e 0080
00000060: dc8e 0000 8d89 0080 fc8b 0000 d462 d23c
00000070: 2563 ec3c 8546 d83c cfcf de3c 8cb0 fa3c
00000080: 66df e33c bad7 d43c fbce f03c a5f7 d93c
00000090: b564 633a 8a52 e239 825e a43a a7d6 513a
000000a0: 1ace 8339 c516 b13a 89f6 ca3a c609 783a
000000b0: 5398 0c3b 812c 7e3c d482 8b3c 1d8b 7d3c
000000c0: 5ab0 7a3c f04a 8a3c 302c 763c 94ca 633c
000000d0: 00b5 7a3c 478e 5b3c d2f6 cf3c 2b73 cf3c
000000e0: f4b8 d13c cf61 cb3c 3bfb cb3c 41f8 ce3c
000000f0: 26fe c43c 616e c53c c796 c73c 00b6 f33c
00000100: 2046 ed3c de55 ed3c 9cf2 ef3c 6420 ea3c
00000110: 5f6d e83c 14db e23c b360 dd3c f151 db3c
00000120: 1a89 0000 2ea1 0080 ac8a 0000 788a 0000
00000130: ea89 0000 d488 0000 f98a 0000 3589 0000
00000140: 118a 0000 0c18 db3c 1b18 c83c fb44 cf3c
00000150: 1044 d33c 76e9 bf3c 54b0 c63c 05b0 d03c
00000160: 5e87 bd3c 00e7 c33c ffcf d13c e6b3 c23c
00000170: 5d3f ca3c 1b48 c93c 8015 ba3c 1eab c13c
00000180: b89a c63c 9eaa b73c 3be7 be3c 0b8b 0000
00000190: ce88 0000 338a 0000 0589 0000 de8b 0000
000001a0: 6a8b 0000 e688 0000 a58a 0000 eb88 0000
000001b0: b98f 0000 e288 0080 cc89 0080 d394 0000
000001c0: 748b 0000 7389 0000 df89 0080 328a 0000
000001d0: 218b 0000 014d 083d 1084 1f3d d6e6 0b3d
000001e0: 37e9 123d 4e83 2b3d e194 153d 05f9 b83c
000001f0: 2e43 1c3d ae3c 083d 1190 0000 1589 0000
00000200: e188 0000 4b8d 0080 d989 0000 c889 0000
00000210: 708b 0080 de88 0000 d689 0080 108c c73c
00000220: 2910 d03c 4f26 be3c 62c1 cb3c e977 d63c
00000230: cc16 cf3c e20a c83c a1f3 b73c 3b86 cd3c
00000240: 8437 ec3b 8230 ec3b bbe3 e13b 34db e73b
00000250: 8623 e63b 68e4 e23b 83d3 e83b 72ab de3b
00000260: 79c2 df3b 762f 5e3c 3f7c 673c 9b45 603c
00000270: b12f 593c e598 653c 3874 5a3c 7414 553c
00000280: 85a7 113c 09d2 333c ff9b c73c f5ca b93c
00000290: 74c1 843c ba8b 553c d4be c03c 8a09 ee3c
000002a0: 6449 d43c 70b0 be3c 89e1 c23c 94d6 d23c
000002b0: 5589 c13c f950 da3c c7b2 e43c e5e0 0d3d
000002c0: 7ea1 f93c 20e8 de3c 31e1 da3c 613d e13c
000002d0: 158b 0000 c58a 0000 4789 0000 278a 0000
000002e0: b689 0000 fa8a 0000 688a 0000 2989 0000
000002f0: f788 0000 2cb0 eb3c 9d85 da3c 9c38 e53c
00000300: 2752 df3c 339f d83c 0a1b da3c 411b d93c
00000310: 6494 ce3c a46e 143c 25e3 b63c fbe2 0f3d
00000320: 48c5 de3c 54e9 883c de30 cb3c 45b2 113d
00000330: 4d88 d53c e5a5 c93c 692a d33c 818a 0080
00000340: a789 0080 8e8b 0080 d88a 0080 f089 0080
00000350: 828a 0080 458b 0080 828b 0080 298b 0080
00000360: b88a 0000 108a 0080 7a8b 0080 258b 0080
00000370: 6289 0080 ff8a 0080 c792 0080 8390 0080
00000380: 448a 0000 5011 413d 7884 423c d9c4 013d
00000390: 7972 303c b0d9 513c 5b9d 233d 5d28 ab3c
000003a0: d8b0 563d e94b b63c 2d8a 0000 158a 0080
000003b0: 8b8e 0080 358b 0080 fda0 0000 b28a 0080
000003c0: af89 0000 4c89 0080 bd88 0080 5266 f83c
000003d0: 4c00 453d 665c 2e3d 0a03 153d 0a6c af3c
000003e0: e695 f63c f5ab 223d 0b98 4f3d 7748 413d
000003f0: 8428 babc 4752 bcbc a6e3 b3bc 6dfc babc

e_conv5.bias f4 [3]
0.00080926646 -0.0009869536 0.009244814
00000000: f424 543a ab5c 81ba 8f77 173c
