ai_server/checkpoints/Epoch2.pth (torch, 10794 bytes, 10 tensors)

e_conv1.weight f4 [3, 3, 1, 1]
-5.0684e-41 -5.0228e-41 -4.958e-41 0.03845889 0.15195529 0.24862742 4.9048e-41 -5.5875e-41
-5.0989e-41
00000000: 498d 0080 048c 0080 358a 0080 1287 1d3d
00000010: 2b9a 1b3e 3098 7e3e ba88 0000 c29b 0080
00000020: 238e 0080

e_conv1.bias f4 [3]
-0.0011412709 0.42388347 -1.8605872e-20
00000000: b296 95ba 4107 d93e 3dba af9e

e_conv2.weight f4 [3, 3, 3, 3]
4.9298e-41 -5.1784e-41 -5.3664e-41 -4.944e-41 -4.9694e-41 4.9522e-41 -4.9145e-41 4.9399e-41
4.9959e-41 0.05543946 0.08125871 0.020434832 0.01939336 0.018118057 0.042901713 0.033090167
0.046693847 0.029394696 -4.9316e-41 4.9753e-41 5.2083e-41 4.9595e-41 -5.1918e-41 5.06e-41
-4.9319e-41 -5.0427e-41 4.9093e-41 5.2648e-41 5.0835e-41 4.9272e-41 -5.4078e-41 4.9399e-41
-4.949e-41 -4.9544e-41 -4.9445e-41 -4.9788e-41 0.03606064 -0.007530194 0.031105638 0.0076813637
0.010443528 0.0049119787 0.008111178 0.020467268 0.001561981 -4.9825e-41 -6.2539e-41 -4.9183e-41
-4.9582e-41 -6.1503e-41 -5.9082e-41 -5.1362e-41 -5.1805e-41 -4.9476e-41 -4.9188e-41 5.0071e-41
5.006e-41 -5.1492e-41 -4.9085e-41 4.9123e-41 -4.9083e-41 -4.9385e-41 -4.9205e-41 0.0069883475
0.033834524 0.024453279 0.013094049 0.03739023 0.0024288106 0.039956253 0.02349094 0.042078026
-4.9616e-41 -5.0335e-41 -6.1148e-41 4.9883e-41 -5.9648e-41 5.0976e-41 -4.9323e-41 4.94e-41
-4.9484e-41
00000000: 6c89 0000 5a90 0080 9895 0080 d289 0080
00000010: 878a 0080 0c8a 0000 ff88 0080 b489 0000
00000020: 448b 0000 7d14 633d f76a a63d f366 a73c
00000030: d3de 9e3c 526c 943c b5b9 2f3d 8e89 073d
00000040: 0c42 3f3d 25cd f03c 7989 0080 b18a 0000
00000050: 3091 0000 408a 0000 ba90 0080 0d8d 0000
00000060: 7b89 0080 928c 0080 da88 0000 c392 0000
00000070: b58d 0000 5a89 0000 bf96 0080 b489 0000
00000080: f589 0080 1c8a 0080 d589 0080 ca8a 0080
00000090: 52b4 133d d8bf f6bb 40d1 fe3c f3b3 fb3b
000000a0: 551b 2b3c aaf4 a03b bfe4 043c f9aa a73c
000000b0: 63bb cc3a e48a 0080 55ae 0080 1a89 0080
000000c0: 378a 0080 72ab 0080 b2a4 0080 2d8f 0080
000000d0: 6990 0080 eb89 0080 1e89 0080 948b 0000
000000e0: 8c8b 0000 8a8f 0080 d488 0080 ef88 0000
000000f0: d388 0080 aa89 0080 2a89 0080 82fe e43b
00000100: 1296 0a3d 3e52 c83c 6c88 563c 7f26 193d
00000110: ae2c 1f3b 2ba9 233d 1270 c03c 025a 2c3d
00000120: 4f8a 0080 508c 0080 75aa 0080 0e8b 0000
00000130: 46a6 0080 1a8e 0000 7e89 0080 b589 0000
00000140: f189 0080

e_conv2.bias f4 [3]
-0.03314876 0.044121023 0.06686413
00000000: ffc6 07bd 3fb8 343d 10f0 883d

e_conv3.weight f4 [3, 6, 5, 5]
-4.927e-41 -4.9567e-41 4.9267e-41 -5.0218e-41 -5.0078e-41 4.973e-41 -4.9689e-41 -4.9219e-41
-4.9641e-41 -5.2763e-41 4.9495e-41 -4.9375e-41 5.0007e-41 -4.945e-41 4.9689e-41 4.9431e-41
4.9427e-41 6.037e-41 -4.9228e-41 4.9216e-41 -4.9394e-41 4.9361e-41 -4.9435e-41 -4.9527e-41
-6.0921e-41 0.028682087 0.008532335 0.024507912 0.043045733 0.032390602 0.046423748 0.018360911
0.0315693 -0.0013050146 0.0084770415 0.04368285 0.058356196 0.029778644 0.025593724 0.010838624
0.035362165 0.012780909 0.013677426 0.045114547 0.010381477 0.01351436 0.0158857 0.0399815
0.02805752 0.038786277 5.1515e-41 4.9158e-41 4.9609e-41 4.9222e-41 4.9167e-41 4.9495e-41
-4.9107e-41 4.9543e-41 -4.9263e-41 -4.9422e-41 4.9565e-41 -4.9432e-41 4.9851e-41 6.2698e-41
4.9062e-41 5.1252e-41 -4.9344e-41 4.9549e-41 -5.3681e-41 -4.9289e-41 6.0095e-41 -4.9104e-41
5.0922e-41 -4.9265e-41 -4.9214e-41 0.030174956 0.025455913 0.02064309 0.04419281 0.050406177
0.019123118 0.038646314 0.049481634 0.032397885 0.024819639 -0.0005071558 0.05687922 0.033997472
0.05966968 0.024428442 0.02577315 0.039799977 0.021835446 0.02246334 0.023114108 0.041249264
0.027941559 0.044167083 0.040828265 0.051434997 -0.001694029 -0.0032970924 -0.002261517 -0.01715026
-0.022286156 -0.014829323 -0.036421064 -0.023628857 -0.009745708 0.026937475 -0.023930212 0.017851815
-0.0037690399 -0.0028798385 -0.025431303 0.017409276 0.002641679 0.0031103839 0.009047095 0.006221807
0.01438981 0.0151652675 -0.009138673 -0.021939768 -0.003643573 0.025600385 -0.0036601636 0.013203984
-0.00011728943 0.021406049 0.012228449 0.025330931 0.021451352 -0.017407643 0.023668356 0.016130352
0.011799089 0.02985029 0.01724753 -0.009977164 -0.00081565505 -0.0010054922 -0.004391158 -0.02324978
0.013778405 -0.006109669 -0.02096649 0.009589155 0.00030126487 0.0272817 -4.977e-41 4.951e-41
4.9394e-41 -4.9047e-41 4.9118e-41 -4.9083e-41 4.921e-41 -5.1701e-41 -4.935e-41 5.154e-41
4.9935e-41 4.9114e-41 -4.9564e-41 4.9844e-41 4.9631e-41 -4.9595e-41 5.0447e-41 -4.9485e-41
-4.9202e-41 4.9728e-41 -6.1361e-41 4.9598e-41 -4.9686e-41 -5.3712e-41 4.9483e-41 0.009350574
0.04214102 0.055873625 0.057584934 0.02616756 0.03214893 0.010874558 0.036457073 0.0057912366
0.036082175 0.061144635 0.04816453 0.076566644 0.08253765 0.06517667 0.020581927 0.05671485
0.03090698 0.07758232 0.076463245 0.0350924 0.029480727 0.012942806 0.023419118 0.058777556
-5.3059e-41 -5.1344e-41 4.9613e-41 -4.982e-41 -4.918e-41 -4.9177e-41 4.9309e-41 4.9281e-41
4.9582e-41 -4.9086e-41 4.9065e-41 4.9547e-41 4.9965e-41 -5.0612e-41 5.8869e-41 -4.9853e-41
-5.0415e-41 -4.9265e-41 5.1163e-41 -4.9156e-41 -5.261e-41 5.0479e-41 -4.9515e-41 4.946e-41
5.1313e-41 0.037607513 0.03207148 0.030588323 0.03649845 0.03624369 0.038223792 0.01445865
0.03349764 0.04029281 0.05234139 0.021884045 0.0437419 0.05938509 0.039546613 0.031639244
0.04541792 0.066550165 0.01817433 0.064511284 0.04612499 0.032337647 0.05416266 0.04101447
0.005879553 0.05005702 0.01438473 0.013254322 0.0072367634 0.01352958 0.011189367 0.012210705
00000000: 5889 0080 2c8a 0080 5689 0000 fd8b 0080
00000010: 998b 0080 a18a 0000 838a 0080 3489 0080
00000020: 618a 0080 1593 0080 f989 0000 a389 0080
00000030: 668b 0000 d989 0080 838a 0000 cb89 0000
00000040: c889 0000 49a8 0000 3a89 0080 3289 0000
00000050: b189 0080 9989 0000 ce89 0080 108a 0080
00000060: d3a9 0080 b2f6 ea3c 35cb 0b3c d1c4 c83c
00000070: b950 303d 02ac 043d d426 3e3d 9f69 963c
00000080: cf4e 013d 060d abba 4ae3 0a3c caec 323d
00000090: e806 6f3d 58f2 f33c eea9 d13c 7c94 313c
000000a0: ebd7 103d 0567 513c 4817 603c 08ca 383d
000000b0: 1217 2a3c 566b 5d3c ba22 823c a4c3 233d
000000c0: e2d8 e53c 5cde 1e3d 9a8f 0000 0889 0000
000000d0: 4a8a 0000 3689 0000 0f89 0000 f989 0000
000000e0: e488 0080 1b8a 0000 5389 0080 c589 0080
000000f0: 2b8a 0000 cc89 0080 f78a 0000 c7ae 0000
00000100: c488 0000 df8e 0000 8d89 0080 1f8a 0000
00000110: a495 0080 6689 0080 85a7 0000 e288 0080
00000120: f38d 0000 5589 0080 3089 0080 7831 f73c
00000130: eb88 d03c b31b a93c 8503 353d b576 4e3d
00000140: 16a8 9c3c 994b 1e3d 41ad 4a3d a5b3 043d
00000150: 8e52 cb3c a6f2 04ba 2ffa 683d ef40 0b3d
00000160: 3268 743d 281e c83c 3722 d33c 4d05 233d
00000170: 40e0 b23c 0a05 b83c cc59 bd3c fdf4 283d
00000180: b2e5 e43c 8be8 343d 8a3b 273d 81ad 523d
00000190: 2e0a deba 0814 58bb f635 14bb b47e 8cbc
000001a0: 7591 b6bc b0f6 72bc 412e 15bd 4e91 c1bc
000001b0: 76ac 1fbc fbab dc3c 4b09 c4bc f83d 923c
000001c0: ff01 77bb acbb 3cbb 4f55 d0bc e69d 8e3c
000001d0: 0520 2d3b 95d7 4b3b 443a 143c 4de0 cb3b
000001e0: 3dc3 6b3c be77 783c 5fba 15bc 07bb b3bc
000001f0: 03c9 6ebb e6b7 d13c 5bdf 6fbb 8655 583c
00000200: 49f9 f5b8 bd5b af3c d559 483c d082 cf3c
00000210: bfba af3c 799a 8ebc 24e4 c13c cd23 843c
00000220: f750 413c 9888 f43c b14a 8d3c 4277 23bc
00000230: afd1 55ba b8ca 83ba b4e3 8fbb 5376 bebc
00000240: d2be 613c 9e33 c8bb ebc1 abbc d51b 1d3c
00000250: 16f3 9d39 df7d df3c bd8a 0080 048a 0000
00000260: b189 0000 b988 0080 ec88 0000 d388 0080
00000270: 2d89 0000 1f90 0080 9189 0080 ac8f 0000
00000280: 338b 0000 e988 0000 2a8a 0080 f28a 0000
00000290: 5a8a 0000 408a 0080 a08c 0000 f289 0080
000002a0: 2889 0080 9f8a 0000 0dab 0080 428a 0000
000002b0: 818a 0080 ba95 0080 f089 0000 2633 193c
000002c0: 109c 2c3d bedb 643d 2ede 6b3d 5a5d d63c
000002d0: 99ae 033d 342b 323c 0354 153d 6ac4 bd3b
000002e0: e7ca 133d cc72 7a3d 2c48 453d f9ce 9c3d
000002f0: 8009 a93d 597b 853d 6e9b a83c d54d 683d
00000300: a330 fd3c 7be3 9e3d c398 9c3d 0cbd 0f3d
00000310: 9181 f13c 100e 543c 73d9 bf3c bcc0 703d
00000320: e893 0080 208f 0080 4d8a 0000 e18a 0080
00000330: 1889 0080 1689 0080 7489 0000 6089 0000
00000340: 378a 0000 d588 0080 c688 0000 1e8a 0000
00000350: 488b 0000 168d 0080 1aa4 0000 f88a 0080
00000360: 898c 0080 5589 0080 9f8e 0000 0789 0080
00000370: a892 0080 b78c 0000 078a 0080 e089 0000
00000380: 0a8f 0000 560a 1a3d 625d 033d 5d94 fa3c
00000390: 667f 153d 4374 143d 8d90 1c3d f9e3 6c3c
000003a0: d234 093d 130a 253d ed63 563d 2b46 b33c
000003b0: b52a 333d c83d 733d a1fb 213d 2798 013d
000003c0: 2408 3a3d 744b 883d 55e2 943c 7e1e 843d
000003d0: 8fed 3c3d 7b74 043d aad9 5d3d cafe 273d
000003e0: 44a9 c03b 9708 4d3d eead 6b3c a828 593c
000003f0: 5f22 ed3b 2cab 5d3c 9b53 373c 690f 483c

e_conv3.bias f4 [3]
0.021012047 -0.004533586 -5.6004048e-33
00000000: 7521 ac3c 7a8e 94bb b8a1 e889

e_conv4.weight f4 [3, 6, 7, 7]
0.019687379 0.0034488845 0.010882657 0.03307803 0.056882326 0.005432192 0.02709433 0.028712602
0.023202829 0.001789425 0.02995769 0.058729485 0.016725196 0.04103755 0.02201497 0.027939292
0.02224633 0.03236976 0.025384396 0.03903108 0.05509051 0.028576108 0.009640239 0.03218447
0.0163433 0.01573297 0.021588895 0.017877584 0.04653092 0.042858798 0.009823542 0.02782558
-0.010151354 0.03529883 0.024207683 0.026641019 0.037532542 0.043946847 0.027827099 0.019778883
0.0060064993 0.031210208 0.009863603 0.01829657 0.017549127 0.03809615 0.0035465723 0.043748192
0.041537862 0.014808669 -0.00486696 0.018754594 -0.0058306353 -0.0022953365 -0.030392662 0.010692114
-0.0030137307 -0.008747118 0.002895516 0.0152569935 0.018658271 0.016396929 0.011334086 0.00024088453
-0.0005087324 -0.0028844879 0.005796414 0.004199744 0.016781867 -0.008348992 0.0075799963 -0.006802647
0.022700673 -0.0028708212 -0.008646007 -0.0052369297 -0.008904332 -0.0033130606 -0.0035013945 -0.008909379
0.022475643 0.009705527 -0.029554732 -0.0003074959 0.019021401 0.0073148855 0.013783914 -0.006403383
0.01398528 0.009020632 0.0034267434 0.010816101 -0.0034150619 -0.004928399 -0.018333238 0.030570727
0.0023882277 -0.0060617393 -0.0069325226 0.0437917 0.0036488972 0.009539498 0.0009518658 0.017447352
0.016290285 0.028642427 -0.0203401 0.0043105087 0.00593396 0.0034891807 0.012323475 0.017999245
0.019977398 0.0004922173 -0.026522104 0.029399056 0.01033085 0.039927226 0.0075368695 0.031146713
-0.01186978 -0.016752806 -0.030208107 0.018820623 -0.002596635 -0.0072070593 -0.009105154 -0.025216507
0.010039975 0.024537498 0.031620435 -0.0058571473 0.015757782 -0.006821519 0.024039892 0.007584304
-0.0046794224 -0.016692832 0.01634565 0.009362502 -0.0002682181 -0.026885265 0.0030710436 0.027642217
0.0065857987 0.014793511 -0.004128166 0.037291832 0.035242874 0.0413665 0.024259822 0.02455504
0.06871894 0.043631032 0.0350889 0.00140233 0.038687423 -0.016819894 0.0916443 0.054969173
0.012153242 0.057719838 0.025622638 0.062866285 0.04371663 0.014858774 0.008102678 0.030439414
0.019065585 0.021541502 0.008172943 -0.0037394082 0.050158832 0.016410269 0.011150381 0.03043331
0.006263858 -0.015233728 0.047059543 0.016200067 0.019001642 -0.0006915767 0.03944339 0.01314872
0.019781874 0.022175696 -0.00010060168 0.04550472 -2.146099e-05 0.034367625 0.03269016 0.008253298
0.011128404 0.017070644 0.009247556 0.02253415 0.04430741 0.06563235 0.04137899 0.058490545
0.032996528 0.017960738 0.023767123 0.015177488 0.041313734 0.014900548 0.04469266 0.010666538
-0.0071918964 0.012946367 0.03938956 0.03672889 0.011524762 0.045530606 0.05466075 0.0289333
0.06339033 0.0448275 -0.019042958 0.006581601 0.031139724 0.04364396 0.019194491 0.011154311
0.045737647 0.019838057 0.009681893 0.026530389 0.023901971 0.019327965 0.03239343 0.011118116
0.026332898 0.028171994 0.017918237 0.006138117 -0.022423124 0.030327778 0.03209843 -0.0060778954
0.01937993 0.020672744 -0.009171516 0.04523597 0.0029572775 -4.9191e-41 -4.9299e-41 -4.928e-41
-4.947e-41 -4.9076e-41 -4.9476e-41 -4.9609e-41 -4.9352e-41 -4.9438e-41 -4.933e-41 -4.9054e-41
00000000: 6d47 a13c ae06 623b 2c4d 323c d47c 073d
00000010: 71fd 683d 8700 b23b eef4 dd3c b136 eb3c
00000020: dc13 be3c 248b ea3a d469 f53c 548e 703d
00000030: 4703 893c fd16 283d bd58 b43c f1e0 e43c
00000040: ef3d b63c 2796 043d f0f2 cf3c 0edf 1f3d
00000050: 96a6 613d 7118 ea3c 18f2 1d3c ddd3 033d
00000060: 62e2 853c 6ee2 803c 32db b03c 0374 923c
00000070: 3597 3e3d b58c 2f3d ecf2 203c 79f2 e33c
00000080: dd51 26bc 8295 103d 314f c63c 443e da3c
00000090: b9bb 193d 9c01 343d a8f5 e33c 5307 a23c
000000a0: 2bd2 c43b 8dac ff3c f39a 213c b0e2 953c
000000b0: 30c3 8f3c b50a 1c3d 9c6d 683b 4e31 333d
000000c0: 9b23 2a3d 0fa0 723c 057b 9fbb 3ca3 993c
000000d0: ea0e bfbb 5b6d 16bb 08fa f8bc fa2d 2f3c
000000e0: 0382 45bb 1250 0fbc b3c2 3d3b 78f8 793c
000000f0: 3bd9 983c da52 863c 9ab2 393c f395 7c39
00000100: 745c 05ba ad09 3dbb d8ef bd3b 029e 893b
00000110: 207a 893c 36ca 08bc 9e61 f83b bde8 debb
00000120: c3f6 b93c 6324 3cbb fba7 0dbc 8d9a abbb
00000130: 7ae3 11bc ef1f 59bb a777 65bb a5f8 11bc
00000140: d71e b83c ee03 1f3c c41c f2bc 6737 a1b9
00000150: c5d2 9b3c b5b1 ef3b edd5 613c 78d3 d1bb
00000160: 8422 653c 46cb 133c 3793 603b 0436 313c
00000170: 3bcf 5fbb 687e a1bb 962f 96bc 766f fa3c
00000180: d083 1c3b 8ea1 c6bb 372a e3bb ed5e 333d
00000190: 5622 6f3b 8e4b 1c3c a286 793a c0ed 8e3c
000001a0: 3473 853c 86a3 ea3c 48a0 a6bc 2b3f 8d3b
000001b0: aa71 c23b bdaa 643b 67e8 493c 2773 933c
000001c0: a4a7 a33c 2508 013a e244 d9bc 4ad6 f03c
000001d0: ba42 293c bb8a 233d d8f7 f63b 6427 ff3c
000001e0: 7779 42bc 2e3d 89bc fe76 f7bc b52d 9a3c
000001f0: 4e2c 2abb 3229 ecbb c92d 15bc d992 cebc
00000200: b57e 243c dd02 c93c 6e84 013d 50ed bfbb
00000210: 7716 813c 0d87 dfbb 4fef c43c c185 f83b
00000220: d755 99bb 68bf 88bc 50e7 853c 2e65 193c
00000230: a09f 8cb9 7d3e dcbc 9043 493b ee71 e23c
00000240: afcd d73b 7b60 723c 9145 87bb 52bf 183d
00000250: d55a 103d eb6f 293d 89bc c63c a727 c93c
00000260: 84bc 8c3d 74b6 323d 61b9 0f3d 63ce b73a
00000270: b476 1e3d e0c9 89bc 02b0 bb3d 5b27 613d
00000280: 641e 473c a36b 6c3d 91e6 d13c 0ac0 803d
00000290: 3610 333d 3772 733c 18c1 043c 145c f93c
000002a0: 6e2f 9c3c ce77 b03c cfe7 053c dc10 75bb
000002b0: 5973 4d3d d46e 863c 16b0 363c 474f f93c
000002c0: 0d41 cd3b e396 79bc 82c1 403d 01b6 843c
000002d0: 55a9 9b3c ed4a 35ba 648f 213d bb6d 573c
000002e0: 990d a23c cea9 b53c 1efa d2b8 2863 3a3d
000002f0: 2007 b4b7 11c5 0c3d 1ee6 053d d738 073c
00000300: e953 363c bcd7 8b3c 1083 173c 8a99 b83c
00000310: b07b 353d 416a 863d 047d 293d c893 6f3d
00000320: 5e27 073d 6622 933c 45b3 c23c 00ab 783c
00000330: 9738 293d 6e21 743c a70f 373d b4c2 2e3c
00000340: 00aa ebbb 001d 543c f356 213d 0871 163d
00000350: 5bd2 3c3c 4d7e 3a3d f3e3 5f3d 8705 ed3c
00000360: cad2 813d 0a9d 373d faff 9bbc 79aa d73b
00000370: bc18 ff3c 02c4 323d c43d 9d3c 92c0 363c
00000380: 6657 3b3d 6c83 a23c cda0 1e3c 4256 d93c
00000390: 11ce c33c ae55 9e3c f9ae 043d c228 363c
000003a0: 17b8 d73c f4c8 e63c 44c9 923c 4222 c93b
000003b0: b3b0 b7bc f671 f83c a579 033d 1529 c7bb
000003c0: a9c2 9e3c e359 a93c 2044 16bc 5a49 393d
000003d0: e2ce 413b 2089 0080 6d89 0080 5f89 0080
000003e0: e789 0080 ce88 0080 eb89 0080 4a8a 0080
000003f0: 9389 0080 d089 0080 8389 0080 be88 0080

e_conv4.bias f4 [3]
0.019419705 0.032426223 -7.1533555e-07
00000000: 1316 9f3c 5cd1 043d 7c05 40b5

e_conv5.weight f4 [3, 12, 3, 3]
4.9156e-41 5.2463e-41 4.9114e-41 4.9176e-41 -5.2497e-41 4.9501e-41 5.0126e-41 4.958e-41
4.9656e-41 0.027964864 0.030710634 0.028197601 0.029143862 0.032016564 0.029263366 0.0274784
0.030066857 0.02748638 -4.9268e-41 -4.9717e-41 -4.9153e-41 4.9567e-41 -5.0595e-41 -5.6783e-41
5.1248e-41 -4.9344e-41 5.0217e-41 0.026889458 0.027982777 0.027212676 0.027289331 0.028459037
0.027595252 0.026817113 0.027991034 0.027133558 0.010224178 0.010592323 0.010590775 0.010472334
0.010806266 0.010810402 0.010351901 0.010608843 0.0106487 0.012889138 0.01340937 0.012923098
0.012785871 0.013325521 0.012721514 0.012260143 0.012740366 0.012129173 0.022298845 0.022337558
0.022416066 0.022046193 0.022133624 0.022268988 0.021709876 0.021792565 0.02187377 0.024131497
0.023937818 0.023947248 0.023935717 0.02379983 0.023709843 0.023366904 0.023234468 0.023162803
4.9457e-41 4.9296e-41 4.9165e-41 4.9469e-41 4.952e-41 4.9229e-41 4.9141e-41 4.9117e-41
4.924e-41 0.021937095 0.021411974 0.021655623 0.021655118 0.021096932 0.021318357 0.021483341
0.02094845 0.021152403 0.02149913 0.021106623 0.021339435 0.021156173 0.020748656 0.020997755
0.020975605 0.020589877 0.020807954 0.00031707072 0.00032117273 0.0003193129 0.00031100796 0.00031890295
0.00032028995 0.000310109 0.00030931894 0.0003115174 5.1558e-41 -4.9104e-41 -4.9432e-41 5.3388e-41
5.0026e-41 4.9307e-41 -4.9459e-41 4.9575e-41 4.991e-41 0.028062958 0.029851722 0.028578525
0.028813878 0.03040788 0.029152961 0.016588164 0.029219301 0.028006664 5.1681e-41 4.9176e-41
4.9103e-41 -5.0686e-41 4.945e-41 4.9427e-41 -5.0021e-41 4.9099e-41 -4.9446e-41 0.026542885
0.026666086 0.024581911 0.026403217 0.026691671 0.026545718 0.0261062 0.021791384 0.026462343
0.008638538 0.009026577 0.009221852 0.0033753712 0.009038762 0.009217922 0.009007251 0.009533408
0.009165758 0.0115408385 0.01171236 0.011656925 0.011341687 0.011659533 0.011465337 0.0115113845
0.005248168 0.008872151 0.021737872 0.020462656 0.012949857 0.009732284 0.021722957 0.027307019
0.023839498 0.021422027 0.021545816 0.021047661 0.019503625 0.02220505 0.023696873 0.031515438
0.026633514 0.023301 0.023383135 0.023805471 4.9319e-41 4.9513e-41 4.9187e-41 4.921e-41
4.9093e-41 4.9549e-41 4.947e-41 4.9464e-41 4.9397e-41 0.02306613 0.022783399 0.023463676
0.022337006 0.023371853 0.022903975 0.021623045 0.022167612 0.0049484465 0.017345343 0.03202474
0.023124536 0.012166823 0.022013186 0.0323065 0.021572918 0.02161961 0.022076903 0.00036311318
0.0003619789 0.00038593795 0.00036759564 0.00036321703 0.00036352596 0.00037599864 0.00035981942 0.00036482053
4.9763e-41 -4.9527e-41 -5.0035e-41 -4.9916e-41 -4.9284e-41 -4.9862e-41 -5.2654e-41 -5.1841e-41
4.96e-41 0.04239579 -0.0010995211 0.025054159 0.0006504358 -0.0027966674 0.032026764 0.014226253
0.04359356 0.0154801905 4.9568e-41 -4.9534e-41 -5.1135e-41 -4.9938e-41 5.7752e-41 -4.9755e-41
4.9392e-41 -4.9253e-41 -4.9052e-41 0.020103289 0.041839384 0.036046483 0.026771283 0.0044657025
0.017914206 0.031936284 0.044276685 0.041356005 -0.0008110848 -4.060486e-05 0.0150057515 0.0025038098
00000000: 0789 0000 3f92 0000 e988 0000 1589 0000
00000010: 5792 0080 fd89 0000 bb8b 0000 358a 0000
00000020: 6c8a 0000 9216 e53c de94 fb3c a8fe e63c
00000030: 1cbf ee3c cd23 033d bab9 ef3c 621a e13c
00000040: c54e f63c 1e2b e13c 5789 0080 978a 0080
00000050: 0589 0080 2c8a 0000 0a8d 0080 4a9e 0080
00000060: dc8e 0000 8d89 0080 fc8b 0000 4847 dc3c
00000070: 233c e53c 1eed de3c e08d df3c ed22 e93c
00000080: 700f e23c 90af db3c 744d e53c 3247 de3c
00000090: 5083 273c 6c8b 2d3c ee84 2d3c 2794 2b3c
000000a0: c40c 313c 1d1e 313c 059b 293c b6d0 2d3c
000000b0: e377 2e3c f72c 533c f9b2 5b3c 67bb 533c
000000c0: d47b 513c 4953 5a3c e66d 503c c4de 483c
000000d0: f8bc 503c 70b9 463c 11ac b63c 41fd b63c
000000e0: e6a1 b73c 389a b43c 9351 b53c 746d b63c
000000f0: e9d8 b13c 5286 b23c 9f30 b33c 6baf c53c
00000100: 3e19 c43c 052d c43c d614 c43c dcf7 c23c
00000110: 253b c23c f36b bf3c 3656 be3c ebbf bd3c
00000120: de89 0000 6b89 0000 0d89 0000 e689 0000
00000130: 0b8a 0000 3b89 0000 fc88 0000 eb88 0000
00000140: 4389 0000 6cb5 b33c 2a68 af3c 2267 b13c
00000150: 1366 b13c 79d3 ac3c d6a3 ae3c d5fd af3c
00000160: 159c ab3c ce47 ad3c f21e b03c cce7 ac3c
00000170: 0ad0 ae3c b64f ad3c 16f9 a93c 7c03 ac3c
00000180: 08d5 ab3c 1aac a83c 7175 aa3c 833c a639
00000190: 1363 a839 7469 a739 c80e a339 6e32 a739
000001a0: 97ec a739 2096 a239 162c a239 2853 a339
000001b0: b98f 0000 e288 0080 cc89 0080 d394 0000
000001c0: 748b 0000 7389 0000 df89 0080 328a 0000
000001d0: 218b 0000 4ae4 e53c 998b f43c 831d ea3c
000001e0: 150b ec3c f219 f93c 31d2 ee3c e7e3 873c
000001f0: 515d ef3c 3b6e e53c 1190 0000 1589 0000
00000200: e188 0000 4b8d 0080 d989 0000 c889 0000
00000210: 708b 0080 de88 0000 d689 0080 7770 d93c
00000220: d672 da3c 0160 c93c 8f4b d83c 7ea8 da3c
00000230: 6876 d93c abdc d53c d883 b23c 8ec7 d83c
00000240: a888 0d3c 35e4 133c 4017 173c 5535 5d3b
00000250: 5117 143c c406 173c 2693 133c 0332 1c3c
00000260: fa2b 163c c915 3d3c 33e5 3f3c b0fc 3e3c
00000270: 7cd2 393c a007 3f3c 1cd9 3b3c 3f9a 3c3c
00000280: d3f8 ab3b 805c 113c 9f13 b23c 4da1 a73c
00000290: a32b 543c 2874 1f3c 58f4 b13c f8b2 df3c
000002a0: 0d4b c33c 3f7d af3c da80 b03c 256c ac3c
000002b0: 11c6 9f3c 5de7 b53c f21f c23c 5516 013d
000002c0: 872e da3c bde1 be3c fd8d bf3c b103 c33c
000002d0: 7b89 0000 068a 0000 1d89 0000 2d89 0000
000002e0: da88 0000 1f8a 0000 e789 0000 e389 0000
000002f0: b389 0000 2ef5 bc3c 40a4 ba3c e536 c03c
00000300: 19fc b63c 5476 bf3c 1ea1 bb3c d022 b13c
00000310: da98 b53c 9426 a23b d217 8e3c 602c 033d
00000320: ab6f bd3c 5b57 473c ff54 b43c d253 043d
00000330: b0b9 b03c 9c1b b13c 9fda b43c 3a60 be39
00000340: fcc7 bd39 b757 ca39 dab9 c039 2a6e be39
00000350: a197 be39 af21 c539 25a6 bc39 6245 bf39
00000360: b88a 0000 108a 0080 7a8b 0080 258b 0080
00000370: 6289 0080 ff8a 0080 c792 0080 8390 0080
00000380: 448a 0000 35a7 2d3d ce1d 90ba 613e cd3c
00000390: 0282 2a3a 4b48 37bb 7f2e 033d 3b15 693c
000003a0: 298f 323d a0a0 7d3c 2d8a 0000 158a 0080
000003b0: 8b8e 0080 358b 0080 fda0 0000 b28a 0080
000003c0: af89 0000 4c89 0080 bd88 0080 a7af a43c
000003d0: c65f 2b3d 7aa5 133d 734f db3c 0755 923b
000003e0: d0c0 923c 9fcf 023d 785b 353d ea64 293d
000003f0: fb9e 54ba 234f 2ab8 afda 753c f516 243b

e_conv5.bias f4 [3]
-0.0066175796 -0.008873746 0.053376757
00000000: 48d8 d8bb 3063 11bc 96a1 5a3d
