ai_server/checkpoints/Epoch4.pth (torch, 10794 bytes, 10 tensors)

e_conv1.weight f4 [3, 3, 1, 1]
00000000: 498d 0080 048c 0080 358a 0080 ac85 a8bc
00000010: 2975 243e 232f 8b3e ba88 0000 c29b 0080
00000020: 238e 0080
-5.0684e-41 -5.0228e-41 -4.958e-41 -0.020571552 0.16060318 0.271844 4.9048e-41 -5.5875e-41
-5.0989e-41

e_conv1.bias f4 [3]
00000000: fb89 0000 6293 d43e c788 0000
4.9498e-41 0.41518694 4.9066e-41

e_conv2.weight f4 [3, 3, 3, 3]
00000000: 6c89 0000 5a90 0080 9895 0080 d289 0080
00000010: 878a 0080 0c8a 0000 ff88 0080 b489 0000
00000020: 448b 0000 ea75 683d a445 a83d 1c20 b33c
00000030: bb08 aa3c 5e56 9d3c 0b90 343d bec3 0c3d
00000040: 310b 433d 64c6 fa3c 7989 0080 b18a 0000
00000050: 3091 0000 408a 0000 ba90 0080 0d8d 0000
00000060: 7b89 0080 928c 0080 da88 0000 c392 0000
00000070: b58d 0000 5a89 0000 bf96 0080 b489 0000
00000080: f589 0080 1c8a 0080 d589 0080 ca8a 0080
00000090: c7c8 b53c 9516 95bc f515 8e3c 8ee6 68bb
000000a0: f367 deba 2309 d3bb 2768 48bb e1a8 f83b
000000b0: 7873 19bc e48a 0080 55ae 0080 1a89 0080
000000c0: 378a 0080 72ab 0080 b2a4 0080 2d8f 0080
000000d0: 6990 0080 eb89 0080 1e89 0080 948b 0000
000000e0: 8c8b 0000 8a8f 0080 d488 0080 ef88 0000
000000f0: d388 0080 aa89 0080 2a89 0080 04c7 dc3b
00000100: 392f 053d 0f64 c03c 7e65 4e3c aee1 123d
00000110: 9a10 dd3a b88a 1f3d 0f9a b53c ca42 263d
00000120: 4f8a 0080 508c 0080 75aa 0080 0e8b 0000
00000130: 46a6 0080 1a8e 0000 7e89 0080 b589 0000
00000140: f189 0080
4.9298e-41 -5.1784e-41 -5.3664e-41 -4.944e-41 -4.9694e-41 4.9522e-41 -4.9145e-41 4.9399e-41
4.9959e-41 0.056753077 0.08216408 0.021865897 0.020756116 0.019206222 0.044082683 0.03436636
0.047618095 0.030612178 -4.9316e-41 4.9753e-41 5.2083e-41 4.9595e-41 -5.1918e-41 5.06e-41
-4.9319e-41 -5.0427e-41 4.9093e-41 5.2648e-41 5.0835e-41 4.9272e-41 -5.4078e-41 4.9399e-41
-4.949e-41 -4.9544e-41 -4.9445e-41 -4.9788e-41 0.022190465 -0.018199245 0.017344454 -0.0035537812
-0.0016968235 -0.006440298 -0.0030579658 0.0075884913 -0.009365909 -4.9825e-41 -6.2539e-41 -4.9183e-41
-4.9582e-41 -6.1503e-41 -5.9082e-41 -5.1362e-41 -5.1805e-41 -4.9476e-41 -4.9188e-41 5.0071e-41
5.006e-41 -5.1492e-41 -4.9085e-41 4.9123e-41 -4.9083e-41 -4.9385e-41 -4.9205e-41 0.0067375917
0.03251574 0.023485212 0.01259744 0.035859756 0.001686591 0.038950652 0.022168187 0.04059104
-4.9616e-41 -5.0335e-41 -6.1148e-41 4.9883e-41 -5.9648e-41 5.0976e-41 -4.9323e-41 4.94e-41
-4.9484e-41

e_conv2.bias f4 [3]
00000000: 516c 25bd 23c6 f63c d0e7 6a3d
-0.0403865 0.030123776 0.05734998

e_conv3.weight f4 [3, 6, 5, 5]
00000000: 5889 0080 2c8a 0080 5689 0000 fd8b 0080
00000010: 998b 0080 a18a 0000 838a 0080 3489 0080
00000020: 618a 0080 1593 0080 f989 0000 a389 0080
00000030: 668b 0000 d989 0080 838a 0000 cb89 0000
00000040: c889 0000 49a8 0000 3a89 0080 3289 0000
00000050: b189 0080 9989 0000 ce89 0080 108a 0080
00000060: d3a9 0080 94d6 fa3c 9b7c 253c fb22 d23c
00000070: f314 343d eaaa 0a3d 7165 443d b82f a13c
00000080: bd2a 053d 670f 2439 22ff 253c 54b4 383d
00000090: 5e5d 713d 09ba fa3c 20ec d83c 751a 493c
000000a0: 66e4 163d eddf 643c 183d 703c 63e0 3a3d
000000b0: 759c 403c c669 7a3c 2ffe 8a3c 36e2 253d
000000c0: 6ec8 eb3c 80a3 223d 9a8f 0000 0889 0000
000000d0: 4a8a 0000 3689 0000 0f89 0000 f989 0000
000000e0: e488 0080 1b8a 0000 5389 0080 c589 0080
000000f0: 2b8a 0000 cc89 0080 f78a 0000 c7ae 0000
00000100: c488 0000 df8e 0000 8d89 0080 1f8a 0000
00000110: a495 0080 6689 0080 85a7 0000 e288 0080
00000120: f38d 0000 5589 0080 3089 0080 d083 043d
00000130: a81d dc3c f0c6 b33c 8de1 353d 625e 503d
00000140: 82c2 b03c e649 203d 96fc 483d d6e0 063d
00000150: 373b d73c 8aa7 353b 1993 663d 2829 0c3d
00000160: cd43 703d a2ac d23c 773f e23c 45be 233d
00000170: 86e4 b83c b24a be3c 0e8c c73c d951 2d3d
00000180: b044 eb3c cf49 333d 2d99 263d 9cf9 513d
00000190: 4098 60bb 4d80 b5bb a1f3 9ebb d4f3 94bc
000001a0: 8265 b8bc 83a8 7cbc 4473 11bd ce96 c6bc
000001b0: 4f8f 3fbc 9ef3 b03c bd32 c2bc 95ad 583c
000001c0: 39ec d3bb bfd8 b7bb dcdd d1bc 237a 5c3c
000001d0: 5c66 ffb9 a04c a2b9 e4c0 a63b e62f 393b
000001e0: ab33 303c acde 303c fd62 39bc af8d babc
000001f0: d4ac c5bb e175 c23c 9769 a0bb 543e 333c
00000200: 6cdb d9ba 60ee 9d3c 89de 303c 6add b83c
00000210: 5893 983c f138 96bc f2e7 ad3c 21b0 6b3c
00000220: 5856 1c3c f825 d93c bab3 6e3c 2e1f 34bc
00000230: 4d15 edba c52e 31bb fe84 cabb 264b c5bc
00000240: 9f4e 3e3c 8a3c dfbb a9b4 b1bc 85a1 eb3b
00000250: 6f29 cfba 0910 c93c bd8a 0080 048a 0000
00000260: b189 0000 b988 0080 ec88 0000 d388 0080
00000270: 2d89 0000 1f90 0080 9189 0080 ac8f 0000
00000280: 338b 0000 e988 0000 2a8a 0080 f28a 0000
00000290: 5a8a 0000 408a 0080 a08c 0000 f289 0080
000002a0: 2889 0080 9f8a 0000 0dab 0080 428a 0000
000002b0: 818a 0080 ba95 0080 f089 0000 8229 3c3c
000002c0: ad08 313d 4d02 683d ab83 6f3d e8bc e33c
000002d0: d68d 0a3d c3d8 493c 1f56 193d 1737 f03b
000002e0: f947 193d 6761 7f3d 52ed 483d fd96 9d3d
000002f0: 77d9 a93d ac35 873d 2cd2 b63c f33b 6b3d
00000300: dc99 023d 79b9 9f3d 37e1 9d3d ffa3 153d
00000310: d0b3 f93c df6e 663c f6be c83c ed12 743d
00000320: e893 0080 208f 0080 4d8a 0000 e18a 0080
00000330: 1889 0080 1689 0080 7489 0000 6089 0000
00000340: 378a 0000 d588 0080 c688 0000 1e8a 0000
00000350: 488b 0000 168d 0080 1aa4 0000 f88a 0080
00000360: 898c 0080 5589 0080 9f8e 0000 0789 0080
00000370: a892 0080 b78c 0000 078a 0080 e089 0000
00000380: 0a8f 0000 37ad 213d 5b5c 083d 9088 013d
00000390: 7c23 193d 784d 1a3d 8304 233d 2d6b 853c
000003a0: 34f2 0b3d cbec 263d c5ee 573d 1590 c53c
000003b0: c87a 343d b681 703d 4091 233d 4da1 063d
000003c0: ea46 3e3d 3c99 863d 2234 9f3c 2e58 823d
000003d0: 27d8 3e3d fa36 0b3d f4d7 5c3d 139b 283d
000003e0: 5422 003c 0e2d 4e3d ee38 333c a83e 183c
000003f0: 9215 6f3b b636 1a3c b322 f93b 040f 103c
-4.927e-41 -4.9567e-41 4.9267e-41 -5.0218e-41 -5.0078e-41 4.973e-41 -4.9689e-41 -4.9219e-41
-4.9641e-41 -5.2763e-41 4.9495e-41 -4.9375e-41 5.0007e-41 -4.945e-41 4.9689e-41 4.9431e-41
4.9427e-41 6.037e-41 -4.9228e-41 4.9216e-41 -4.9394e-41 4.9361e-41 -4.9435e-41 -4.9527e-41
-6.0921e-41 0.030619897 0.010100509 0.025651446 0.04396529 0.033854403 0.047948305 0.019676074
0.03251146 0.00015645997 0.010131629 0.04509385 0.058926933 0.030606287 0.02647978 0.012274374
0.03683891 0.013969404 0.014663003 0.045624148 0.011756052 0.015284007 0.016966907 0.040498935
0.028782096 0.039706707 5.1515e-41 4.9158e-41 4.9609e-41 4.9222e-41 4.9167e-41 4.9495e-41
-4.9107e-41 4.9543e-41 -4.9263e-41 -4.9422e-41 4.9565e-41 -4.9432e-41 4.9851e-41 6.2698e-41
4.9062e-41 5.1252e-41 -4.9344e-41 4.9549e-41 -5.3681e-41 -4.9289e-41 6.0095e-41 -4.9104e-41
5.0922e-41 -4.9265e-41 -4.9214e-41 0.03235227 0.02686961 0.021945447 0.044404555 0.05087126
0.021577124 0.039132975 0.04906901 0.032929264 0.026273353 0.002771827 0.056292627 0.034218937
0.05865841 0.025717083 0.027618153 0.039976377 0.022569906 0.023228977 0.024358775 0.042314384
0.028719276 0.04377156 0.040673424 0.051263437 -0.0034270436 -0.0055389763 -0.00485082 -0.018182673
-0.02250934 -0.015421036 -0.035510316 -0.024241831 -0.011691882 0.02160054 -0.023705835 0.013224979
-0.006467369 -0.005610555 -0.025618486 0.013456854 -0.00048713654 -0.00030956138 0.0050889123 0.002825731
0.010754506 0.010795277 -0.011315105 -0.022772638 -0.0060325656 0.02373785 -0.0048954 0.010940153
-0.0016621179 0.019278705 0.010795244 0.022566516 0.018624946 -0.018337699 0.021228764 0.014385254
0.00954207 0.026507363 0.014569217 -0.010993762 -0.0018088013 -0.0027035933 -0.0061804047 -0.024083685
0.011615424 -0.0068126367 -0.02169259 0.0071908855 -0.0015805195 0.024543779 -4.977e-41 4.951e-41
4.9394e-41 -4.9047e-41 4.9118e-41 -4.9083e-41 4.921e-41 -5.1701e-41 -4.935e-41 5.154e-41
4.9935e-41 4.9114e-41 -4.9564e-41 4.9844e-41 4.9631e-41 -4.9595e-41 5.0447e-41 -4.9485e-41
-4.9202e-41 4.9728e-41 -6.1361e-41 4.9598e-41 -4.9686e-41 -5.3712e-41 4.9483e-41 0.011484506
0.043221164 0.05664282 0.058475178 0.027800038 0.03382667 0.012319746 0.037435647 0.007330786
0.037422154 0.06234875 0.04905445 0.07694814 0.08293431 0.06602034 0.022317015 0.05743022
0.031885013 0.07799048 0.07708972 0.036533352 0.03048125 0.01406452 0.02450512 0.05958836
-5.3059e-41 -5.1344e-41 4.9613e-41 -4.982e-41 -4.918e-41 -4.9177e-41 4.9309e-41 4.9281e-41
4.9582e-41 -4.9086e-41 4.9065e-41 4.9547e-41 4.9965e-41 -5.0612e-41 5.8869e-41 -4.9853e-41
-5.0415e-41 -4.9265e-41 5.1163e-41 -4.9156e-41 -5.261e-41 5.0479e-41 -4.9515e-41 4.946e-41
5.1313e-41 0.03947183 0.033291202 0.031624377 0.037387356 0.037671536 0.039799225 0.016286457
0.03416653 0.040753167 0.052717943 0.024116555 0.044062406 0.058717452 0.039933443 0.032868672
0.046454348 0.06572196 0.019434039 0.06364475 0.046592858 0.033987977 0.053916886 0.041163515
0.007820684 0.050335936 0.010938866 0.009292282 0.0036481363 0.009412458 0.0076030134 0.0087926425

e_conv3.bias f4 [3]
00000000: 4d19 673c df0f 3cbc d789 0000
0.014105153 -0.011478393 4.9448e-41

e_conv4.weight f4 [3, 6, 7, 7]
00000000: 7d02 a53c ce95 b93b 881a 473c faff ff3c
00000010: 8891 523d f8cd f33b 20cf d73c 1eaf e13c
00000020: bf4e b63c 6426 8a3b b1e3 e83c d42c 583d
00000030: 96a4 893c cf52 1b3d e87c b33c 2592 d83c
00000040: 3740 b33c 0be4 fb3c 2348 c93c bc25 133d
00000050: 1686 4c3d e91a e23c ac58 343c f07a fa3c
00000060: e016 8e3c 549d 873c 7a96 ad3c 3fb2 953c
00000070: a204 2f3d 9c5e 203d 5a4c 3a3c d2e3 dc3c
00000080: 7496 b9bb b6eb 053d b34f c03c 9165 d03c
00000090: d749 0c3d 5ef4 233d f94e d93c 1c2b 9f3c
000000a0: d506 f23b 1f8f ee3c 2cd3 323c a648 903c
000000b0: 6d35 8d3c 712a 0f3d d465 ae3b 5a26 213d
000000c0: 12a0 1a3d bf44 0e3c 1826 c2bb b3fc 343c
000000d0: e785 d9bb 769d 85bb ce1c c7bc 30fd b43b
000000e0: 28c9 90bb f1ac 12bc c33c 21ba a66d 093c
000000f0: afbc 313c 37c7 173c fcab bc3b 8955 0bbb
00000100: fe5f 47bb 4b53 9dbb f5b5 cc3a 2d8e d239
00000110: 97cb 1b3c 3e77 0bbc 0c39 523b 237f f6bb
00000120: ef1b 613c 5ee5 96bb e017 10bc 665f cfbb
00000130: fb8f 11bc 4963 98bb f2ae a7bb 0e5d 14bc
00000140: 626e 603c 68f5 913b 6695 c3bc f4ec 2fbb
00000150: fdb3 3a3c 4e0f 2b3b 7bc5 ec3b 1670 edbb
00000160: 36c3 f33b 6afb 7d3b 4205 8eb8 fce0 af3b
00000170: 59f8 abbb 45c2 d1bb f701 83bc 5a00 9e3c
00000180: 295b 85ba c68c e5bb d03e e7bb 6504 153d
00000190: 1e9c e83a 60ff e23b bf46 11ba 4617 603c
000001a0: 5d7b 553c a0c5 c03c c559 9cbc 8d7a 163b
000001b0: 5828 783b 9c70 cf3a b1eb 153c f065 6b3c
000001c0: c39d 833c b978 87ba eb3d c6bc a10c c63c
000001d0: dba2 f83b 533f 073d 919a ae3b 9f50 d23c
000001e0: 26d4 3fbc a2f4 80bc 023c dfbc e14c 743c
000001f0: 8983 74bb 0a98 f4bb 477a 17bc 7eab bfbc
00000200: b00e ec3b 5836 a23c 1906 d33c 58b0 dcbb
00000210: 5694 473c f3e7 f3bb 8323 9b3c f55e 9f3b
00000220: 704f b9bb 585d 84bc 24d2 483c 661a d53b
00000230: 46f7 eaba 9424 cdbc 7b37 733a 86e3 b53c
00000240: 86a3 803b 2649 333c 3594 a7bb b2d9 1e3d
00000250: 651c 113d a122 273d d6c9 c73c e009 cb3c
00000260: b797 893d 5dbe 343d 57df 143d 8a0c 3a3b
00000270: 0f65 1b3d 8b1d 77bc bc1c b53d a31f 5c3d
00000280: 3b81 613c 8e86 6c3d 0627 d33c 0f44 793d
00000290: a522 2e3d 5293 773c 8419 123c a026 fe3c
000002a0: 91f7 a93c 6744 b23c f016 0d3c 267a 38bb
000002b0: b061 473d 930e 893c 0abb 4c3c 88f3 003d
000002c0: 78f5 e83b 1dc4 61bc 8785 3a3d 11ea 843c
000002d0: 588e 9c3c bde7 8f3a 3ac4 233d 2ec5 5e3c
000002e0: a9f3 9f3c b905 b23c d6c3 1b3a e965 353d
000002f0: 8916 d73a 131a 103d 2d3b 043d 4fcc 0c3c
00000300: fc6b 383c c16b 8b3c ed3b 203c 1913 be3c
00000310: 0058 3d3d bf8e 863d 5c26 2b3d 2b8e 6e3d
00000320: b2d4 093d 3f62 9f3c 6f1e d63c 323e 913c
00000330: 7c92 2b3d 1f2d 823c 02ce 363d f593 403c
00000340: f557 aabb 5b95 7b3c e354 283d 1e1b 193d
00000350: 1e08 4e3c 3eef 393d b47b 5e3d 6858 f33c
00000360: 064a 833d 8468 3d3d 3557 89bc 4b79 fc3b
00000370: 527d 003d df5b 323d 2901 a53c 9a68 5a3c
00000380: 095c 403d f815 aa3c 552b 2d3c 7648 db3c
00000390: 29da c63c accf a43c 9437 0a3d e82e 593c
000003a0: 4263 dc3c 8c24 e83c 0bc1 953c fad9 e23b
000003b0: e8c0 a7bc 976c 013d e0b3 093d de3d 92bb
000003c0: c7c0 a23c ea1d ac3c e780 00bc adfc 383d
000003d0: db32 a83b c58b 0080 f988 0080 078b 0080
000003e0: d98b 0080 5b8a 0080 758b 0080 f589 0080
000003f0: a08a 0080 068a 0080 fe88 0080 d989 0080
0.020142788 0.00566361 0.012152322 0.031249989 0.05140832 0.007440325 0.026343882 0.027549323
0.022254346 0.0042160023 0.028428884 0.052777126 0.016802114 0.03792077 0.021910146 0.026436875
0.021881206 0.030748388 0.02457053 0.03592466 0.04993256 0.027600722 0.011007469 0.0305762
0.017344892 0.016554512 0.021189917 0.01827347 0.042729028 0.039152727 0.011370743 0.026964102
-0.0056636874 0.032695495 0.023475504 0.025439056 0.034250107 0.04002797 0.026526915 0.019429736
0.0073860683 0.02912098 0.010914605 0.017612766 0.01723739 0.034952585 0.0053221975 0.039343216
0.03775031 0.0086833825 -0.0059249513 0.011046576 -0.006638277 -0.0040776087 -0.024305727 0.0055233464
-0.004418511 -0.008952365 -0.0006150717 0.008387959 0.010848208 0.009263805 0.005757807 -0.00212607
-0.0030422206 -0.004801189 0.0015618192 0.0004016025 0.009508989 -0.008512316 0.003207746 -0.00752248
0.01373957 -0.0046049794 -0.008794755 -0.006328511 -0.008884425 -0.0046505076 -0.0051172907 -0.009055389
0.013698192 0.0044543035 -0.02387495 -0.0026844116 0.011395452 0.0026101652 0.00722569 -0.0072460277
0.0074390424 0.003875459 -6.772067e-05 0.0053673964 -0.005248111 -0.0064013326 -0.015992148 0.019287277
-0.0010174263 -0.007005307 -0.0070570484 0.036381144 0.0017746722 0.0069274157 -0.0005541853 0.013677424
0.0130299 0.023531735 -0.019085774 0.002296123 0.0037865844 0.0015826407 0.0091504315 0.0143675655
0.016066438 -0.0010335661 -0.024199447 0.024175944 0.0075877733 0.033019375 0.0053284843 0.025673209
-0.011708295 -0.01574165 -0.027250294 0.0149109075 -0.0037309846 -0.0074644135 -0.009245462 -0.023397204
0.0072038993 0.019801304 0.025759744 -0.006734889 0.012181362 -0.007443422 0.018937832 0.0048636147
-0.0056552216 -0.016157791 0.012257133 0.006503391 -0.0017926476 -0.025041856 0.00092779816 0.022203218
0.0039257435 0.010942733 -0.005114103 0.03878183 0.03542747 0.04080451 0.024388235 0.024784982
0.067183904 0.044126857 0.036345806 0.0028388822 0.037938174 -0.015082727 0.08843371 0.05374111
0.013763721 0.05774551 0.025775444 0.06085592 0.04251351 0.0151108075 0.008917216 0.031024277
0.020747932 0.021761132 0.008611426 -0.0028148978 0.048677146 0.016730582 0.012495765 0.03148225
0.0071093403 -0.013779667 0.045537498 0.016224893 0.019110844 0.0010979098 0.039982058 0.013596816
0.019525366 0.021731244 0.00059419626 0.044286642 0.0016409914 0.035181116 0.032282997 0.008593633
0.011256214 0.017019155 0.009779912 0.023202466 0.0462265 0.065701954 0.04178463 0.05824105
0.033650108 0.019456027 0.026137559 0.017729852 0.041887745 0.015890656 0.044630058 0.011754026
-0.0051984736 0.015355433 0.04109658 0.037379377 0.0125751775 0.045394175 0.05431719 0.029705241
0.06410603 0.046242252 -0.016765216 0.007704889 0.031369515 0.043544646 0.020142155 0.013330603
0.04696277 0.020762429 0.010569413 0.02676795 0.024273949 0.020118557 0.03374441 0.013255812
0.026902799 0.02833774 0.018280527 0.0069229575 -0.020477727 0.0315977 0.033618808 -0.0044629415
0.019867314 0.021010358 -0.007843233 0.045162845 0.0051330156 -5.014e-41 -4.9137e-41 -4.9874e-41
-5.0168e-41 -4.9633e-41 -5.0028e-41 -4.949e-41 -4.9729e-41 -4.9513e-41 -4.9144e-41 -4.945e-41

e_conv4.bias f4 [3]
00000000: c0ec 3c3c 5334 d03c d749 ccb9
0.011531055 0.025415575 -0.00038964927

e_conv5.weight f4 [3, 12, 3, 3]
00000000: 0789 0000 3f92 0000 e988 0000 1589 0000
00000010: 5792 0080 fd89 0000 bb8b 0000 358a 0000
00000020: 6c8a 0000 a9b6 fd3c 0d97 133d 1e4a 003d
00000030: 7331 083d 7734 1e3d 6fb4 083d acc8 f73c
00000040: 22ab 0f3d 9d12 f73c 5789 0080 978a 0080
00000050: 0589 0080 2c8a 0000 0a8d 0080 4a9e 0080
00000060: dc8e 0000 8d89 0080 fc8b 0000 0c75 dd3c
00000070: 0d7c ed3c 6b85 e13c 0f4d e43c fd79 f53c
00000080: 45fb e73c e7d7 dd3c 8a14 ef3c 6aa1 e13c
00000090: 9aa8 113c abfc 193c a8d4 1c3c 8efe 183c
000000a0: c53b 203c 40b5 233c fd88 193c 0285 1e3c
000000b0: 310c 233c cfab 683c 6f32 783c c292 683c
000000c0: dd79 663c 759c 763c 8ccc 633c 8586 573c
000000d0: 11d3 653c e6b2 523c 2fcd c03c 3807 c13c
000000e0: fd0f c23c b3c7 bd3c 75af be3c 8b4a c03c
000000f0: af66 b93c f235 ba3c c73d bb3c 9b12 d73c
00000100: add6 d33c 8ab1 d33c 68ad d43c 16fa d13c
00000110: 8dad d03c 04c0 cc3c 1332 ca3c b1e2 c83c
00000120: 1a89 0000 2ea1 0080 ac8a 0000 788a 0000
00000130: ea89 0000 d488 0000 f98a 0000 3589 0000
00000140: 118a 0000 7410 c13c fa09 b83c 2fb2 bb3c
00000150: 4fe4 bc3c 2491 b33c d7f6 b63c 2e00 bb3c
00000160: 9cdd b13c 1c07 b53c 71aa bb3c 0eaf b43c
00000170: 2569 b83c a2d0 b63c 51ba af3c 5891 b33c
00000180: 21bc b43c 88db ad3c 906c b13c 0dd5 213b
00000190: 448d 213b 5294 213b 94b1 213b 146a 213b
000001a0: 5e70 213b 23a1 213b e459 213b a75f 213b
000001b0: b98f 0000 e288 0080 cc89 0080 d394 0000
000001c0: 748b 0000 7389 0000 df89 0080 328a 0000
000001d0: 218b 0000 3858 f63c dc2a 083d ab9b fb3c
000001e0: 47e4 003d afdc 0d3d b3b9 023d b634 9a3c
000001f0: 093a 053d 2ac6 f53c 1190 0000 1589 0000
00000200: e188 0000 4b8d 0080 d989 0000 c889 0000
00000210: 708b 0080 de88 0000 d689 0080 e777 d63c
00000220: 8b4c da3c 28bf c83c 0733 d73c deb8 dc3c
00000230: a227 d93c 8930 d43c b9d5 b73c fa11 d83c
00000240: ba2a 033c 9c3a 083c ebdb 0d3c 860a 7a3b
00000250: d19d 093c dfb5 0f3c 2de1 0b3c 7842 113c
00000260: 1eb4 103c 7be3 4e3c c42d 543c f1b6 503c
00000270: a4fa 4a3c 3df4 523c 618f 4c3c 9ff7 4a3c
00000280: 6138 e03b 85b4 223c 17f5 ba3c e34f af3c
00000290: 0e2a 693c 68ab 343c 7e6b b83c 5d01 e63c
000002a0: 7d62 ca3c cdec b53c 83fd b73c e401 bb3c
000002b0: 5cb5 ac3c afc2 c33c bb59 cf3c aa2f 063d
000002c0: af51 e63c e713 cb3c 8e1c ca3c bc8f ce3c
000002d0: 158b 0000 c58a 0000 4789 0000 278a 0000
000002e0: b689 0000 fa8a 0000 688a 0000 2989 0000
000002f0: f788 0000 c77d cd3c 5a56 c63c 929a cd3c
00000300: 5e4e c53c e1d6 c83c 48c2 c63c 6d41 bf3c
00000310: f4d4 be3c a66d d23b 1aac 9c3c 0bfb 073d
00000320: 6fa1 c93c 02f2 613c 79fb bc3c d44e 093d
00000330: 55d8 bd3c d33e ba3c 95e6 bf3c 4aa2 c93a
00000340: 971f c93a 9a8b c93a 3b53 c93a b5d2 c83a
00000350: e83f c93a a440 c93a f0c3 c83a 6d31 c93a
00000360: b88a 0000 108a 0080 7a8b 0080 258b 0080
00000370: 6289 0080 ff8a 0080 c792 0080 8390 0080
00000380: 448a 0000 87fe 353d 1d43 6d3b d4ca e23c
00000390: 3d6e 913b 7290 353b dc9e 0f3d b002 8a3c
000003a0: 0015 403d 735e 943c 2d8a 0000 158a 0080
000003b0: 8b8e 0080 358b 0080 fda0 0000 b28a 0080
000003c0: af89 0000 4c89 0080 bd88 0080 f0a7 c63c
000003d0: 996e 363d c335 1f3d 521f fb3c f849 313c
000003e0: 4690 b93c ad1e 103d 2d6c 403d 91c9 333d
000003f0: 5f1d d1bb dbd1 babb 5ace e23b c7ba 62bb
4.9156e-41 5.2463e-41 4.9114e-41 4.9176e-41 -5.2497e-41 4.9501e-41 5.0126e-41 4.958e-41
4.9656e-41 0.030970888 0.036032725 0.031320684 0.033250283 0.038624253 0.0333752 0.030247055
0.035075314 0.030160243 -4.9268e-41 -4.9717e-41 -4.9153e-41 4.9567e-41 -5.0595e-41 -5.6783e-41
5.1248e-41 -4.9344e-41 5.0217e-41 0.027033351 0.028989816 0.027529439 0.027868776 0.029965395
0.028318057 0.02708049 0.029184598 0.027542789 0.008890295 0.00939862 0.009572186 0.009338034
0.009779875 0.009991944 0.009371039 0.009675266 0.009951637 0.014201119 0.015148743 0.014195146
0.01406714 0.015051951 0.013903748 0.013154631 0.014027373 0.0128600355 0.02353534 0.023563012
0.023689264 0.023166513 0.023277024 0.023473045 0.022631971 0.022730801 0.022856606 0.026253989
0.025859201 0.025841493 0.025961593 0.025631946 0.02547338 0.024993904 0.02468208 0.024522157
4.9183e-41 -5.782e-41 4.9746e-41 4.9673e-41 4.9474e-41 4.9085e-41 4.9854e-41 4.922e-41
4.9529e-41 0.023567416 0.022465695 0.022912113 0.023058085 0.021919794 0.0223345 0.022827234
0.021712117 0.022098117 0.022908421 0.022056129 0.022511074 0.02231628 0.021451147 0.021919891
0.022062363 0.021222845 0.021658212 0.0024693639 0.0024650851 0.0024655056 0.0024672495 0.0024629878
0.0024633626 0.0024662695 0.002462023 0.0024623664 5.1558e-41 -4.9104e-41 -4.9432e-41 5.3388e-41
5.0026e-41 4.9307e-41 -4.9459e-41 4.9575e-41 4.991e-41 0.030071363 0.033244 0.030713877
0.031467702 0.03463429 0.031915378 0.018823963 0.03252605 0.030001719 5.1681e-41 4.9176e-41
4.9103e-41 -5.0686e-41 4.945e-41 4.9427e-41 -5.0021e-41 4.9099e-41 -4.9446e-41 0.02618022
0.026647827 0.024505213 0.026269449 0.02694362 0.026508156 0.02590205 0.022440778 0.02637576
0.008005792 0.008314755 0.00865839 0.0038153245 0.008399443 0.008771389 0.008537573 0.008865945
0.008832006 0.012627478 0.0129503645 0.012738929 0.012388859 0.012875614 0.012485356 0.012388139
0.0068426584 0.0099307345 0.022821946 0.021400398 0.014231218 0.011027195 0.022512194 0.028076822
0.024705166 0.022207642 0.022459751 0.02282805 0.021082573 0.023896543 0.025311342 0.0327603
0.028115122 0.024789764 0.024671819 0.025215022 4.9893e-41 4.9781e-41 4.9246e-41 4.956e-41
4.9401e-41 4.9855e-41 4.9651e-41 4.9204e-41 4.9134e-41 0.02508439 0.024211098 0.025098119
0.02408522 0.024516525 0.024262562 0.023346627 0.023294903 0.0064217625 0.019125033 0.033198398
0.02461311 0.013790609 0.02306913 0.033522442 0.023174444 0.022735035 0.02342538 0.0015383449
0.0015344498 0.0015376688 0.0015359888 0.0015321585 0.0015354129 0.0015354347 0.0015317183 0.0015349813
4.9763e-41 -4.9527e-41 -5.0035e-41 -4.9916e-41 -4.9284e-41 -4.9862e-41 -5.2654e-41 -5.1841e-41
4.96e-41 0.04443219 0.0036203333 0.027684607 0.0044381903 0.0027704504 0.03506361 0.016846985
0.046895027 0.018111443 4.9568e-41 -4.9534e-41 -5.1135e-41 -4.9938e-41 5.7752e-41 -4.9755e-41
4.9392e-41 -4.9253e-41 -4.9052e-41 0.02425 0.044539068 0.03886963 0.030654583 0.010820858
0.022651803 0.035185505 0.046978164 0.0438934 -0.006381675 -0.0057012863 0.0069215717 -0.0034596191

e_conv5.bias f4 [3]
00000000: c2ee 9cbb 1111 d3bb f4fc 133d
-0.0047892043 -0.0064412435 0.036129907
