ai_server/checkpoints/Epoch0.pth (torch, 10794 bytes, 10 tensors)

e_conv1.weight f4 [3, 3, 1, 1]
000000 49 8d 00 80 04 8c 00 80 35 8a 00 80 07 97 a0 3d
       -5.0684e-41 -5.0228e-41 -4.958e-41 0.07841306
000010 c5 64 da 3d b0 a0 36 3e b5 1c c9 20 c2 9b 00 80
       0.106637515 0.17834735 3.406972e-19 -5.5875e-41
000020 23 8e 00 80
       -5.0989e-41

e_conv1.bias f4 [3]
000000 66 81 91 be e7 03 e4 3e 0d c8 33 bd
       -0.28419036 0.44534227 -0.043891955

e_conv2.weight f4 [3, 3, 3, 3]
000000 6c 89 00 00 5a 90 00 80 98 95 00 80 a3 6f 82 9d
       4.9298e-41 -5.1784e-41 -5.3664e-41 -3.4526143e-21
000010 93 bb d1 02 0c 8a 00 00 ff 88 00 80 b4 89 00 00
       3.0817452e-37 4.9522e-41 -4.9145e-41 4.9399e-41
000020 44 8b 00 00 f8 98 58 3d 94 03 a2 3d ee 0f 91 3c
       4.9959e-41 0.052880257 0.07910839 0.017707791
000030 51 c1 89 3c aa 74 81 3c cf cd 25 3d a4 f4 fa 3c
       0.016815813 0.0158027 0.040479477 0.030634232
000040 f6 9c 36 3d c5 d3 dc 3c 79 89 00 80 b1 8a 00 00
       0.044583283 0.026956448 -4.9316e-41 4.9753e-41
000050 30 91 00 00 40 8a 00 00 ba 90 00 80 0d 8d 00 00
       5.2083e-41 4.9595e-41 -5.1918e-41 5.06e-41
000060 78 81 e6 9d 92 8c 00 80 da 88 00 00 c3 92 00 00
       -6.101436e-21 -5.0427e-41 4.9093e-41 5.2648e-41
000070 b5 8d 00 00 5d d0 1c ad bf 96 00 80 b4 89 00 00
       5.0835e-41 -8.913839e-12 -5.4078e-41 4.9399e-41
000080 f5 89 00 80 17 63 e0 a4 13 23 c6 2f ca 8a 00 80
       -4.949e-41 -9.731238e-17 3.6040912e-10 -4.9788e-41
000090 79 98 21 3d 25 55 a9 bb 0e 43 0d 3d da 52 27 3c
       0.03945205 -0.0051676207 0.034487776 0.010212624
0000a0 d6 5e 5c 3c e7 58 f6 3b d8 79 2e 3c 83 c3 c2 3c
       0.013450345 0.007517922 0.010649167 0.023774868
0000b0 05 6d 84 3b e4 8a 00 80 55 ae 00 80 8b 99 2c 02
       0.0040413165 -4.9825e-41 -6.2539e-41 1.2680629e-37
0000c0 61 8f af 8f 72 ab 00 80 b2 a4 00 80 2d 8f 00 80
       -1.731156e-29 -6.1503e-41 -5.9082e-41 -5.1362e-41
0000d0 69 90 00 80 eb 89 00 80 1e 89 00 80 94 8b 00 00
       -5.1805e-41 -4.9476e-41 -4.9188e-41 5.0071e-41
0000e0 8c 8b 00 00 8a 8f 00 80 d4 88 00 80 56 40 7d 85
       5.006e-41 -5.1492e-41 -4.9085e-41 -1.19078195e-35
0000f0 d3 88 00 80 52 91 01 00 c8 5d 06 00 5a c4 ba 3b
       -4.9083e-41 1.43967e-40 5.84655e-40 0.0056996765
000100 e9 e1 08 3d 30 39 c2 3c 2f bc 45 3c b3 69 18 3d
       0.03341857 0.02370891 0.012068792 0.037210178
000110 69 f1 cd 3a 43 42 21 3d 3c e1 bd 3c 5a 65 2b 3d
       0.0015712205 0.039369833 0.02317869 0.041844703
000120 4f 8a 00 80 50 8c 00 80 75 aa 00 80 0e 8b 00 00
       -4.9616e-41 -5.0335e-41 -6.1148e-41 4.9883e-41
000130 46 a6 00 80 1a 8e 00 00 7e 89 00 80 b5 89 00 00
       -5.9648e-41 5.0976e-41 -4.9323e-41 4.94e-41
000140 f1 89 00 80
       -4.9484e-41

e_conv2.bias f4 [3]
000000 c5 16 5a bc 99 9e 7e 3d e1 7a af 3d
       -0.013311093 0.06216297 0.08568359

e_conv3.weight f4 [3, 6, 5, 5]
000000 58 89 00 80 2c 8a 00 80 56 89 00 00 fd 8b 00 80
       -4.927e-41 -4.9567e-41 4.9267e-41 -5.0218e-41
000010 99 8b 00 80 a1 8a 00 00 83 8a 00 80 9b f5 7c 8a
       -5.0078e-41 4.973e-41 -4.9689e-41 -1.2179552e-32
000020 61 8a 00 80 15 93 00 80 f9 89 00 00 b8 2e d2 a2
       -4.9641e-41 -5.2763e-41 4.9495e-41 -5.697008e-18
000030 66 8b 00 00 88 d6 c0 18 83 8a 00 00 8e ba 3c 1e
       5.0007e-41 4.9847458e-24 4.9689e-41 9.991216e-21
000040 c8 89 00 00 49 a8 00 00 62 f0 2e 0b 32 89 00 00
       4.9427e-41 6.037e-41 3.3692025e-32 4.9216e-41
000050 b1 89 00 80 75 0c 05 8e b1 35 4d 87 b2 ee 02 00
       -4.9394e-41 -1.6399514e-30 -1.5438264e-34 2.69299e-40
000060 d3 a9 00 80 39 97 d0 3c aa 31 b9 3b b2 c3 b4 3c
       -6.0921e-41 0.025462734 0.0056516724 0.022065971
000070 e2 3d 27 3d db 63 f2 3c a4 f5 32 3d 4a 6d 81 3c
       0.0408305 0.02958863 0.043691292 0.015799183
000080 43 c4 f0 3c 15 27 85 bb 66 4c b4 3b b0 63 28 3d
       0.02939046 -0.004063497 0.0055022715 0.041110694
000090 87 fa 67 3d 8d 69 e3 3c 0b 68 c0 3c 40 27 05 3c
       0.056635406 0.027760291 0.023487112 0.008127034
0000a0 6b 23 06 3d a7 c1 2a 3c b2 a0 3c 3c 05 e9 31 3d
       0.03274862 0.010422147 0.011512922 0.043435115
0000b0 4a 32 fe 3b ea ba 2d 3c 30 be 5f 3c 42 02 1d 3d
       0.0077574598 0.010603646 0.013656184 0.03833223
0000c0 e4 4b d6 3c 1f 2f 16 3d 9a 8f 00 00 08 89 00 00
       0.026159234 0.036666032 5.1515e-41 4.9158e-41
0000d0 4a 8a 00 00 4e 9c 37 82 0f 89 00 00 03 5b 76 ac
       4.9609e-41 -1.3489574e-37 4.9167e-41 -3.5009224e-12
0000e0 e4 88 00 80 eb 4f 95 96 53 89 00 80 c5 89 00 80
       -4.9107e-41 -2.4122684e-25 -4.9263e-41 -4.9422e-41
0000f0 1f 6c 00 80 42 67 58 08 f7 8a 00 00 c7 ae 00 00
       -3.8787e-41 6.5121515e-34 4.9851e-41 6.2698e-41
000100 c8 5c 36 0e df 8e 00 00 6a 04 2c 16 1f 8a 00 00
       2.2477905e-30 5.1252e-41 1.3895442e-25 4.9549e-41
000110 a4 95 00 80 66 89 00 80 85 a7 00 00 e2 88 00 80
       -5.3681e-41 -4.9289e-41 6.0095e-41 -4.9104e-41
000120 f3 8d 00 00 55 89 00 80 68 4b cd 2e ab 1c d3 3c
       5.0922e-41 -4.9265e-41 9.3357155e-11 0.025770506
000130 21 67 b2 3c 1c 99 8b 3c 11 25 2b 3d 93 97 43 3d
       0.021777691 0.017040782 0.041783396 0.047751974
000140 bf 9e 6c 3c 7e 8d 13 3d 09 ce 43 3d 3d ff f2 3c
       0.014442145 0.03602361 0.047803912 0.029662723
000150 de cc ac 3c 57 a3 c6 bb ab 3e 63 3d d2 aa 01 3d
       0.021093782 -0.006061952 0.055479687 0.031657048
000160 71 4f 70 3d 00 4f ab 3c ad d3 b2 3c 03 f4 19 3d
       0.05866951 0.020911694 0.02182945 0.037586223
000170 f3 46 9b 3c 18 f4 9f 3c 89 1c a1 3c 0a 72 1c 3d
       0.01895473 0.019525573 0.019666927 0.038194694
000180 74 8b cd 3c a8 51 2e 3d 36 76 1f 3d 2e 10 4b 3d
       0.02509091 0.042558342 0.038931094 0.049575977
000190 87 46 62 3b 57 da 24 3b d6 2d 80 3b 3e 59 48 bc
       0.00345269 0.0025154555 0.003911714 -0.012228308
0001a0 fd d9 94 bc 98 5a 2b bc 48 ee 06 bd 0f ae 9a bc
       -0.018170351 -0.010458611 -0.032942086 -0.018881826
0001b0 43 90 83 bb a1 ce 0f 3d 24 bf a4 bc 1b 63 d2 3c
       -0.004015 0.035109166 -0.020110674 0.025682023
0001c0 76 93 2e 3b 51 9f 67 3b 7e 4d ad bc da ab c8 3c
       0.0026638187 0.0035342763 -0.021155115 0.024496008
0001d0 86 4d 19 3c c7 2a 26 3c 08 c1 86 3c 1b 3e 55 3c
       0.009356862 0.010142035 0.016449466 0.013015295
0001e0 c7 fe ad 3c c1 27 bb 3c 46 93 48 bb 5b d4 8a bc
       0.021239651 0.022846105 -0.003060536 -0.016946962
0001f0 18 93 1b 3b d4 8f 00 3d 34 c6 ba 3a 2e 7b 9e 3c
       0.0023738798 0.031387165 0.0014249743 0.019345846
000200 68 69 ac 3b 83 69 e0 3c 67 21 90 3c df 3f 03 3d
       0.005261589 0.027394062 0.017594052 0.032043334
000210 7f 17 e7 3c c6 2e 4f bc 7c cd f5 3c a7 f8 b2 3c
       0.028209446 -0.012645429 0.03000521 0.021847082
000220 47 82 93 3c 1d 42 18 3d f4 73 c3 3c a8 62 a7 bb
       0.018006457 0.037172426 0.023859002 -0.0051081963
000230 24 6d 87 3b fb de 97 3b 50 5c ad 3a d6 f9 97 bc
       0.0041328836 0.0046347356 0.0013226364 -0.018551748
000240 ba af a2 3c b0 e2 bd ba e9 c1 85 bc d3 af 82 3c
       0.019859184 -0.0014487114 -0.016327815 0.01595298
000250 a5 24 c8 3b 9c 2b 0b 3d bd 8a 00 80 fc 60 20 8f
       0.006107884 0.033977136 -4.977e-41 -7.9072876e-30
000260 b1 89 00 00 b9 88 00 80 ec 88 00 00 d3 88 00 80
       4.9394e-41 -4.9047e-41 4.9118e-41 -4.9083e-41
000270 2d 89 00 00 1f 90 00 80 91 89 00 80 ac 8f 00 00
       4.921e-41 -5.1701e-41 -4.935e-41 5.154e-41
000280 33 8b 00 00 63 8c 12 82 2a 8a 00 80 f2 8a 00 00
       4.9935e-41 -1.0766675e-37 -4.9564e-41 4.9844e-41
000290 5a 8a 00 00 2f 2c 47 80 a0 8c 00 00 f2 89 00 80
       4.9631e-41 -6.53617e-39 5.0447e-41 -4.9485e-41
0002a0 28 89 00 80 9f 8a 00 00 0d ab 00 80 42 8a 00 00
       -4.9202e-41 4.9728e-41 -6.1361e-41 4.9598e-41
0002b0 81 8a 00 80 ba 95 00 80 f0 89 00 00 bf 26 c1 3b
       -4.9686e-41 -5.3712e-41 4.9483e-41 0.0058945115
0002c0 7c 03 23 3d d2 ad 5c 3d 73 2c 63 3d 63 41 be 3c
       0.039798245 0.053876705 0.055462312 0.023224538
0002d0 af 90 ef 3c e4 f9 05 3c 68 6b 0c 3d 62 5c 44 3b
       0.029243795 0.008177254 0.034282118 0.002996229
0002e0 8c 3b 09 3d fc e4 70 3d 22 fa 3c 3d af d2 99 3d
       0.033504054 0.058812127 0.046136983 0.07510888
0002f0 fd 03 a6 3d a5 69 81 3d 2b ef 90 3c b7 ee 60 3d
       0.081062295 0.06318978 0.01769217 0.054915156
000300 9d 10 ec 3c 9f e6 9b 3d 14 14 99 3d 69 4b 05 3d
       0.028816516 0.07612347 0.07474533 0.03254262
000310 fe 3b e0 3c 05 45 2f 3c 36 c3 ad 3c 79 e9 68 3d
       0.027372357 0.010697608 0.021211248 0.056863282
000320 e8 93 00 80 20 8f 00 80 4d 8a 00 00 e1 8a 00 80
       -5.3059e-41 -5.1344e-41 4.9613e-41 -4.982e-41
000330 18 89 00 80 16 89 00 80 74 89 00 00 60 89 00 00
       -4.918e-41 -4.9177e-41 4.9309e-41 4.9281e-41
000340 37 8a 00 00 e1 61 3b 2a c6 88 00 00 9b 1c 46 26
       4.9582e-41 1.6642895e-13 4.9065e-41 6.8733817e-16
000350 48 8b 00 00 16 8d 00 80 1a a4 00 00 f8 8a 00 80
       4.9965e-41 -5.0612e-41 5.8869e-41 -4.9853e-41
000360 89 8c 00 80 7f 9b 62 80 9f 8e 00 00 07 89 00 80
       -5.0415e-41 -9.05566e-39 5.1163e-41 -4.9156e-41
000370 a8 92 00 80 b7 8c 00 00 ba 88 3a 1b e0 89 00 00
       -5.261e-41 5.0479e-41 1.5429738e-22 4.946e-41
000380 0a 8f 00 00 6b 99 09 3d 76 d7 ea 3c f4 2b e0 3c
       5.1313e-41 0.033593576 0.028667193 0.027364708
000390 c1 05 09 3d db ae 05 3d ff 94 0d 3d 33 52 2a 3c
       0.033452753 0.03263746 0.034565922 0.010395574
0003a0 4c ba fb 3c 5e b1 1a 3d 6e 9d 4c 3d 4f 86 8f 3c
       0.030728482 0.037766807 0.049954824 0.017520098
0003b0 dd c0 29 3d ec 55 6e 3d bd 29 18 3d 98 fa e7 3c
       0.041443694 0.05818741 0.03714918 0.028317735
0003c0 22 df 2d 3d f8 56 86 3d 66 c1 72 3c ec 32 82 3d
       0.042449124 0.06559557 0.014816618 0.06357369
0003d0 c9 fd 32 3d 05 16 eb 3c 78 54 57 3d d1 85 1f 3d
       0.04369906 0.028697023 0.05257079 0.038945977
0003e0 57 ca e7 3a 07 14 44 3d 18 71 ab 3c 6f 83 a7 3c
       0.0017684203 0.047870662 0.02092795 0.020448415
0003f0 52 b9 68 3c 26 fc aa 3c 34 05 93 3c 0c 3d 9a 3c
       0.01420434 0.020872187 0.017946817 0.018827938

e_conv3.bias f4 [3]
000000 12 89 24 3d 94 9a 70 3c 65 fc 64 b6
       0.040169783 0.014685292 -3.412156e-06

e_conv4.weight f4 [3, 6, 7, 7]
000000 00 6a 89 3c cc 43 d3 ba 1f 03 e9 3b 64 f0 07 3d
       0.016774178 -0.0016118228 0.0071109678 0.03318824
000010 da 85 7b 3d 25 52 26 3a 66 e5 d1 3c ce 17 e4 3c
       0.061406948 0.0006344638 0.025622081 0.027843382
000020 f3 0c b5 3c d6 14 59 bb 35 1d f4 3c 8a ed 82 3d
       0.022100901 -0.0033123991 0.029799083 0.06392963
000030 5b 62 6b 3c d1 29 2e 3d a4 7d a3 3c 72 87 e2 3c
       0.0143667115 0.042520348 0.019957371 0.027652476
000040 9a d1 a9 3c 38 11 05 3d 35 09 c8 3c e7 bb 26 3d
       0.020729829 0.032487124 0.024418453 0.04070654
000050 2f 66 72 3d be c6 e2 3c 72 9e c2 3b 05 63 04 3d
       0.05917948 0.027682658 0.0059392983 0.032320995
000060 23 fd 5a 3c 73 eb 52 3c 39 1d a4 3c 1c 5a 79 3c
       0.013366017 0.012873518 0.020033466 0.015219238
000070 f1 37 49 3d cf ff 39 3d 0f eb c7 3b f6 6c de 3c
       0.049125616 0.045409974 0.006101019 0.027151566
000080 a7 66 8f bc 35 54 15 3d 05 e4 bb 3c 05 fa d4 3c
       -0.017505003 0.03645726 0.022935877 0.025998125
000090 14 d5 21 3d e3 fe 3f 3d 50 3e e2 3c a5 e5 95 3c
       0.039509848 0.04687394 0.027617604 0.01829798
0000a0 4c fc 10 3b 1f 40 01 3d db 33 d2 3b ad 81 8b 3c
       0.0022123037 0.03155529 0.006414873 0.017029608
0000b0 56 df 82 3c 28 26 24 3d c8 63 20 ba 12 90 40 3d
       0.015975635 0.04007545 -0.0006118384 0.047012396
0000c0 61 f4 33 3d 08 f9 c4 3c f2 29 c4 b8 f0 8c f3 3c
       0.04393423 0.024044529 -9.353821e-05 0.02973029
0000d0 55 ab a4 ba 42 69 51 3b 7e 1a 04 bd 13 f5 9b 3c
       -0.0012563268 0.0031953608 -0.032251827 0.019037759
0000e0 a1 5f 01 3b aa 4e 98 bb 30 3d 25 3c b8 41 d1 3c
       0.0019740837 -0.0046480494 0.010085389 0.025544032
0000f0 26 72 f4 3c e4 6a dc 3c 35 5a a5 3c 89 9d c9 3b
       0.029839586 0.026906438 0.020184616 0.006152813
000100 f3 d7 bc 3b 4e 16 39 3b 1b 56 5f 3c d6 26 3f 3c
       0.005763048 0.0028242054 0.013631369 0.011666974
000110 31 d6 e0 3c c3 96 92 bb 51 0c 7c 3c 4e a3 0f bb
       0.027445884 -0.0044735386 0.015383796 -0.0021917406
000120 82 23 0f 3d 18 d7 2d 3b 4e ef 94 bb e4 b7 8d b9
       0.034945972 0.002652591 -0.004545129 -0.00027030625
000130 f9 07 a9 bb 07 98 e7 3a c0 d8 04 3b 4e 6b 9b bb
       -0.005158421 0.0017669209 0.0020270795 -0.0047430163
000140 66 cf 0d 3d 41 9b 98 3c 4d 1c fc bc 61 52 bc 3b
       0.03462162 0.018628718 -0.030775214 0.005747125
000150 45 04 f6 3c c7 90 81 3c 36 bc c4 3c 32 7b c2 ba
       0.030031333 0.015816106 0.024015527 -0.001483774
000160 f0 70 c6 3c a8 e6 92 3c 1b d4 2d 3c da 87 a2 3c
       0.024223775 0.017932251 0.010609652 0.01984017
000170 be 0d 21 3b d8 05 25 3a 69 bc 85 bc b6 3b 39 3d
       0.0024574841 0.0006295121 -0.016325193 0.04522296
000180 55 ee 1e 3c a9 46 a1 ba 83 4a 5b bb 17 8a 64 3d
       0.0097003775 -0.0012304384 -0.003346116 0.055795755
000190 9f 4f 19 3c dd 24 84 3c 93 3b cc 3b 22 e4 ce 3c
       0.009357362 0.016130859 0.0062326877 0.025255267
0001a0 82 24 c0 3c 18 b7 1b 3d e3 68 95 bc 60 f6 27 3c
       0.023454908 0.03801641 -0.01823849 0.0102516115
0001b0 35 ae 45 3c 66 5e 18 3c 79 c6 9f 3c 9e 09 d2 3c
       0.01206546 0.00929985 0.019503819 0.025639351
0001c0 04 a7 e5 3c 57 21 c0 3b db cf d0 bc 49 5b 20 3d
       0.02803374 0.0058633494 -0.025489738 0.039149556
0001d0 6a bb 8c 3c 3f ce 52 3d ff b6 5e 3c d9 1a 28 3d
       0.01717921 0.051466223 0.013593434 0.04104123
0001e0 b1 7f 09 bc 52 04 68 bc 75 43 f4 bc 43 a2 dd 3c
       -0.00839226 -0.014161186 -0.029817322 0.027054911
0001f0 5a 58 19 3b 5f 76 5c bb 98 f8 ae bb b5 ad c1 bc
       0.002339861 -0.003363989 -0.0053396933 -0.0236424
000200 f2 bc 8b 3c e0 57 0a 3d 0f 6a 2c 3d 50 0d a0 ba
       0.01705787 0.03377521 0.042093333 -0.0012210999
000210 f0 cd bf 3c 77 f8 24 bb 97 6f 09 3d 2b 9c 6c 3c
       0.023413628 -0.002517251 0.033553686 0.01444153
000220 d7 d4 52 39 2b ed 5e bc b9 ed c9 3c 6a 7f 84 3c
       0.0002010645 -0.01360635 0.024649488 0.016174037
000230 7d 00 a6 3b 00 de cf bc 36 6a 17 3c f4 21 1a 3d
       0.005065976 -0.025374413 0.009241631 0.037630036
000240 73 55 5a 3c 2b de ba 3c 7f 02 09 3a c4 8b 12 3d
       0.013326037 0.022811016 0.0005226507 0.035777822
000250 1a 75 0f 3d 1d d9 2b 3d e4 65 c5 3c a0 d7 c6 3c
       0.035023786 0.041955102 0.024096437 0.02427274
000260 fc 16 90 3d d4 6c 30 3d b4 a6 0a 3d d8 f6 2e b9
       0.07035634 0.043072537 0.033850387 -0.0001668589
000270 87 d8 21 3d 92 57 99 bc 9c ea c2 3d fb 91 66 3d
       0.039513137 -0.018718515 0.095174044 0.05629156
000280 b4 20 2a 3c 1b 10 6d 3d 18 03 d1 3c eb 64 85 3d
       0.010383774 0.057876687 0.02551417 0.06513389
000290 b6 c3 38 3d f7 d7 6f 3c ac de ec 3b 1e 69 f4 3c
       0.04510852 0.014638892 0.007228693 0.02983528
0002a0 63 db 8e 3c 77 54 af 3c 99 7e ff 3b ce eb 97 bb
       0.017438596 0.02140258 0.007797074 -0.0046362644
0002b0 58 8c 54 3d 0f 0f 84 3c d5 9e 1f 3c ba d9 f1 3c
       0.051891655 0.016120462 0.009742458 0.029522765
0002c0 b5 eb b2 3b 86 d1 88 bc fe 30 48 3d a6 85 85 3c
       0.0054602274 -0.016701471 0.048874848 0.01629908
0002d0 c8 55 9b 3c 59 b3 28 bb c3 22 20 3d c9 6e 51 3c
       0.018961802 -0.0025741665 0.03909565 0.012782761
0002e0 47 6a a5 3c ab cc ba 3c c1 f2 42 ba 59 2d 40 3d
       0.020192279 0.022802671 -0.0007436686 0.046918247
0002f0 27 f2 e7 ba 0e 21 0a 3d ce 42 08 3d 04 2f 03 3c
       -0.0017696068 0.03372293 0.033266835 0.008006815
000300 18 3c 36 3c f9 42 8d 3c 53 22 0f 3c 8c 40 b3 3c
       0.011122726 0.01724385 0.008736211 0.021881364
000310 ef 13 2c 3d 59 96 85 3d 52 69 26 3d 69 51 6f 3d
       0.042011198 0.06522817 0.040627785 0.05842725
000320 99 e2 02 3d 22 0c 83 3c 0f 2f ab 3c dc d8 48 3c
       0.03195438 0.015996996 0.020896463 0.012258735
000330 b5 99 25 3d 31 ab 5e 3c c7 3a 36 3d 43 0c 17 3c
       0.04042979 0.01359062 0.04448965 0.009219232
000340 a2 e4 1d bc 7f fc 24 3c 0f 49 19 3d 23 c6 12 3d
       -0.00963703 0.010069965 0.03742319 0.03583349
000350 db 88 27 3c f2 47 3a 3d e1 6b 60 3d 9f 05 e4 3c
       0.0102255 0.04547877 0.05479038 0.027834712
000360 a5 60 7f 3d 23 00 31 3d 72 fc b0 bc 0c 4b ac 3b
       0.062348027 0.04321302 -0.02160475 0.0052579697
000370 a3 ee fb 3c 2a 6f 32 3d 8f 0b 93 3c dd f4 0c 3c
       0.03075344 0.043563046 0.017949848 0.008603302
000380 38 9c 35 3d 67 5a 99 3c e0 48 0d 3c 2c 3b d6 3c
       0.044338435 0.018719865 0.008623332 0.026151262
000390 32 2d bf 3c cc 93 95 3c 99 a7 fb 3c 5c 60 0f 3c
       0.02333698 0.018258952 0.030719565 0.008751001
0003a0 ad 8d d1 3c e5 42 e4 3c 17 82 8e 3c 6e fc a7 3b
       0.025580252 0.027863929 0.017396016 0.0051265275
0003b0 48 81 ca bc de 5c eb 3c 40 e8 f8 3c 1c 00 02 bc
       -0.02471985 0.028730806 0.030384183 -0.007934596
0003c0 af 6a 99 3c 34 3e a5 3c 97 46 30 bc 4b 9a 38 3d
       0.018727629 0.020171262 -0.010759017 0.04506902
0003d0 cb af d6 39 9e a7 ec b5 c9 23 15 36 d7 32 03 b3
       0.00040948237 -1.7632153e-06 2.222356e-06 -3.0547053e-08
0003e0 ef c5 a5 34 67 f3 8d b5 37 20 67 35 89 48 6e 35
       3.087766e-07 -1.0576158e-06 8.6101085e-07 8.876746e-07
0003f0 f2 52 20 34 e2 a2 27 36 65 f2 f6 b5 46 80 7a b5
       1.4931337e-07 2.497975e-06 -1.8398974e-06 -9.331892e-07

e_conv4.bias f4 [3]
000000 4c 01 20 3d df 08 54 3d 77 8b 00 00
       0.039063737 0.051766273 5.003e-41

e_conv5.weight f4 [3, 12, 3, 3]
000000 07 89 00 00 3f 92 00 00 e9 88 00 00 cd 97 ea 0d
       4.9156e-41 5.2463e-41 4.9114e-41 1.4457908e-30
000010 57 92 00 80 fd 89 00 00 bb 8b 00 00 04 27 5c 8b
       -5.2497e-41 4.9501e-41 5.0126e-41 -4.239981e-32
000020 f3 ab 18 82 c2 f6 bc 3c d5 cb bf 3c c8 59 bd 3c
       -1.1216543e-37 0.023066882 0.023412624 0.0231141
000030 49 fe bd 3c 89 37 c0 3c db 57 be 3c d3 1d bc 3c
       0.023192542 0.023463981 0.023235252 0.02296344
000040 f5 4b be 3c 0f 59 bc 3c 57 89 00 80 97 8a 00 80
       0.023229579 0.022991685 -4.9268e-41 -4.9717e-41
000050 05 89 00 80 2c 8a 00 00 0a 8d 00 80 4a 9e 00 80
       -4.9153e-41 4.9567e-41 -5.0595e-41 -5.6783e-41
000060 dc 8e 00 00 8d 89 00 80 fc 8b 00 00 95 b4 bd 3c
       5.1248e-41 -4.9344e-41 5.0217e-41 0.023157397
000070 f6 b0 be 3c dd 34 be 3c ae c4 bd 3c ea c4 be 3c
       0.02327774 0.023218567 0.023165073 0.023287255
000080 bf 4f be 3c da 3c bd 3c db 33 be 3c e1 c0 bd 3c
       0.023231385 0.023100305 0.023218086 0.02316326
000090 f3 70 7a 3c c4 f8 7a 3c f5 3c 7b 3c 3f 95 7a 3c
       0.015285718 0.015318099 0.0153343575 0.015294372
0000a0 ea ef 7a 3c 5c 3d 7b 3c 22 1e 7a 3c 82 72 7a 3c
       0.015315989 0.015334453 0.015265973 0.01528609
0000b0 36 d3 7a 3c bc 2f 84 3c 78 91 84 3c 94 8d 84 3c
       0.015309146 0.016136043 0.016182646 0.016180791
0000c0 31 fc 83 3c 72 5b 84 3c a0 0c 84 3c 77 70 83 3c
       0.016111465 0.016156886 0.016119301 0.016044838
0000d0 ad cb 83 3c 4f 7f 83 3c dc 5b a9 3c 45 60 a9 3c
       0.016088331 0.016051916 0.020673685 0.020675788
0000e0 09 8f a9 3c b1 b8 a8 3c c0 d6 a8 3c 14 5b a9 3c
       0.020698087 0.02059588 0.020610213 0.020673312
0000f0 dd 3f a8 3c 17 65 a8 3c 7b 95 a8 3c 62 52 ae 3c
       0.020538265 0.020556016 0.02057909 0.021279518
000100 1d 15 ae 3c 19 51 ae 3c 66 f3 ad 3c 86 1b ae 3c
       0.021250302 0.021278905 0.021234225 0.021253359
000110 27 d9 ad 3c e6 1e ad 3c 46 2c ad 3c d5 31 ad 3c
       0.02122171 0.021132898 0.021139275 0.021141926
000120 b2 49 2c 36 a2 f6 a4 35 24 66 c6 35 bd 60 d0 35
       2.5672894e-06 1.2290732e-06 1.4781876e-06 1.5525362e-06
000130 15 d1 c3 35 93 7a 3a b6 6f b4 2b b5 a2 d1 32 b6
       1.4589483e-06 -2.7787507e-06 -6.396503e-07 -2.664609e-06
000140 5e bf 9a 35 b1 ca a6 3c 86 81 a6 3c fd e4 a6 3c
       1.1529589e-06 0.020360323 0.020325433 0.020372862
000150 08 8e a6 3c 1d 06 a6 3c 88 4d a6 3c 46 0b a6 3c
       0.020331398 0.020266587 0.020300642 0.020269047
000160 10 b5 a5 3c 59 ed a5 3c f7 b7 a5 3c 39 9f a5 3c
       0.020227939 0.020254778 0.020229323 0.020217525
000170 5e c0 a5 3c 61 4a a5 3c 2a 0b a5 3c 8a 4f a5 3c
       0.02023333 0.020177068 0.020146925 0.020179529
000180 c1 f2 a4 3c 09 d9 a4 3c e1 db a4 3c 4c 8a 00 80
       0.020135285 0.020123022 0.020124378 -4.9612e-41
000190 52 89 00 80 c3 8a 00 00 ae 8d 00 80 46 8a 00 00
       -4.9261e-41 4.9778e-41 -5.0825e-41 4.9603e-41
0001a0 79 89 00 00 01 a3 00 80 81 8a 00 80 a7 9a 00 80
       4.9316e-41 -5.8475e-41 -4.9686e-41 -5.5479e-41
0001b0 b9 8f 00 00 e2 88 00 80 5a 96 b1 1a d3 94 00 00
       5.1558e-41 -4.9104e-41 7.344839e-23 5.3388e-41
0001c0 74 8b 00 00 73 89 00 00 df 89 00 80 32 8a 00 00
       5.0026e-41 4.9307e-41 -4.9459e-41 4.9575e-41
0001d0 21 8b 00 00 a8 8e cd 3c 1b bf d1 3c 30 b4 d0 3c
       4.991e-41 0.025092438 0.025603822 0.025476545
0001e0 d8 43 cf 3c 2b 55 d0 3c 7d 09 d1 3c fa 3e 5d 3c
       0.025300905 0.025431236 0.02551722 0.013503784
0001f0 8d 2d ce 3c 81 f6 cd 3c 11 90 00 00 15 89 00 00
       0.025168205 0.025141956 5.1681e-41 4.9176e-41
000200 78 51 44 81 4b 8d 00 80 d9 89 00 00 c8 89 00 00
       -3.6057965e-38 -5.0686e-41 4.945e-41 4.9427e-41
000210 70 8b 00 80 de 88 00 00 d6 89 00 80 95 c6 c9 3c
       -5.0021e-41 4.9099e-41 -4.9446e-41 0.024630824
000220 05 6a c8 3c e3 40 b7 3c 9c 86 c7 3c 39 2b c7 3c
       0.024464617 0.022369808 0.024356179 0.024312602
000230 ec d3 c7 3c 9a f3 c5 3c c2 c8 9b 3c bb c2 c7 3c
       0.024393044 0.02416401 0.019016627 0.024384847
000240 fa 4c 48 3c 76 90 4f 3c 90 fc 50 3c 78 64 c9 3b
       0.012225384 0.0126687195 0.012755528 0.00614601
000250 dc db 4e 3c 5a 93 4f 3c 89 c9 4d 3c ee ce 58 3c
       0.012625661 0.012669409 0.012560257 0.01323293
000260 df b1 4e 3c df b4 66 3c 01 96 67 3c da 8f 68 3c
       0.01261565 0.014081209 0.014134885 0.014194453
000270 ee e3 64 3c 93 dc 67 3c bd 29 67 3c f5 aa 6a 3c
       0.013970358 0.01415171 0.014109072 0.014322986
000280 ef 8c f1 3b 2e 29 3c 3c 6c 1f a9 3c 9b f0 9f 3c
       0.007371537 0.011484427 0.020644866 0.01952391
000290 95 ef 3e 3c 4b f0 0a 3c c7 e4 ab 3c d6 a8 d9 3c
       0.0116538005 0.008480142 0.020983113 0.026569765
0002a0 a3 d5 bc 3c 68 c0 a9 3c 96 90 a9 3c cb f6 9b 3c
       0.023051089 0.02072163 0.020698827 0.019038578
0002b0 b6 e3 90 3c d8 d0 a5 3c 04 6e b3 3c 4f 5e f6 3c
       0.017686706 0.020241186 0.021903045 0.030074267
0002c0 d0 29 cc 3c 80 69 b1 3c 3e a0 b3 3c 0a c4 b5 3c
       0.024922282 0.021656752 0.021926995 0.022188205
0002d0 3d 01 fd 35 9e 0e c3 36 59 02 94 35 8e 6f 07 36
       1.8850329e-06 5.8131545e-06 1.1027543e-06 2.01815e-06
0002e0 29 a5 ba b4 9d a4 80 35 19 fe 15 b4 d0 6a 80 35
       -3.476537e-07 9.584652e-07 -1.3969147e-07 9.56783e-07
0002f0 a4 57 04 36 d7 6e ae 3c db 63 b0 3c a4 55 b4 3c
       1.9720546e-06 0.021293087 0.02153199 0.022013493
000300 91 dd aa 3c a7 b6 b7 3c 3f 2f b2 3c bb 86 a5 3c
       0.020857604 0.022425963 0.021751044 0.020205846
000310 74 4c ae 3c d5 13 74 3b 3e 06 82 3c 72 b7 fe 3c
       0.02127669 0.0037243266 0.015872117 0.031093333
000320 24 5b b3 3c e2 2c 32 3c fc e4 ad 3c 3f 78 00 3d
       0.021894045 0.010874959 0.021227352 0.031364676
000330 56 93 a6 3c 52 7a aa 3c 10 61 ac 3c 6d 9d 00 00
       0.020333927 0.02081028 0.021042377 5.6474e-41
000340 da 8a 00 80 de be 64 03 c2 88 00 80 f0 8a 00 00
       -4.981e-41 6.7222283e-37 -4.906e-41 4.9841e-41
000350 75 8a 00 00 7c 89 00 00 64 98 00 80 00 89 00 80
       4.9669e-41 4.932e-41 -5.4667e-41 -4.9146e-41
000360 b8 8a 00 00 10 8a 00 80 7a 8b 00 80 25 8b 00 80
       4.9763e-41 -4.9527e-41 -5.0035e-41 -4.9916e-41
000370 cc 4e 52 80 ff 8a 00 80 c7 92 00 80 83 90 00 80
       -7.558778e-39 -4.9862e-41 -5.2654e-41 -5.1841e-41
000380 15 85 18 00 20 91 21 3d 12 04 d2 bb 12 ef b0 3c
       2.251793e-39 0.039445043 -0.0064091766 0.021598373
000390 a0 57 7f bb b9 33 10 bc 08 a9 e7 3c ce 33 30 3c
       -0.003896214 -0.008801394 0.028278843 0.010754539
0003a0 9c a8 22 3d 38 64 45 3c 2d 8a 00 00 15 8a 00 80
       0.03971158 0.01204782 4.9568e-41 -4.9534e-41
0003b0 8b 8e 00 80 35 8b 00 80 fd a0 00 00 b2 8a 00 80
       -5.1135e-41 -4.9938e-41 5.7752e-41 -4.9755e-41
0003c0 af 89 00 00 58 ce 5f 02 84 12 1c 87 3f 64 6e 3c
       4.9392e-41 1.644267e-37 -1.1741577e-34 0.014550268
0003d0 7d da 1b 3d 14 1a 03 3d 69 3a b1 3c f7 0f 4b bb
       0.038050164 0.032007292 0.021634297 -0.0030984858
0003e0 9b d0 43 3c 5a cf e0 3c e1 3e 26 3d e8 75 1a 3d
       0.011951591 0.027442623 0.04058731 0.0377101
0003f0 c2 b8 c7 3b d0 5b e4 3b ac e6 c3 3c 28 13 1f 3c
       0.006095023 0.0069689527 0.023913704 0.009709157

e_conv5.bias f4 [3]
000000 c0 f0 f3 3b f8 0d 2b 3a 75 83 9a 3d
       0.007444471 0.0006525214 0.07544605
