ai_server/checkpoints/Epoch7.pth (torch, 10794 bytes, 10 tensors)

e_conv1.weight f4 [3, 3, 1, 1]
000000 49 8d 00 80 04 8c 00 80 35 8a 00 80 3c 1b af bd
       -5.0684e-41 -5.0228e-41 -4.958e-41 -0.085501164
000010 01 0b 2d 3e 87 50 90 3e ba 88 00 00 c2 9b 00 80
       0.16898729 0.28186437 4.9048e-41 -5.5875e-41
000020 23 8e 00 80
       -5.0989e-41

e_conv1.bias f4 [3]
000000 fb 89 00 00 5c 0b cf 3e c7 88 00 00
       4.9498e-41 0.40438354 4.9066e-41

e_conv2.weight f4 [3, 3, 3, 3]
000000 6c 89 00 00 5a 90 00 80 98 95 00 80 d2 89 00 80
       4.9298e-41 -5.1784e-41 -5.3664e-41 -4.944e-41
000010 87 8a 00 80 0c 8a 00 00 ff 88 00 80 b4 89 00 00
       -4.9694e-41 4.9522e-41 -4.9145e-41 4.9399e-41
000020 44 8b 00 00 2e 1b 6f 3d 7b 56 aa 3d d5 a6 c1 3c
       4.9959e-41 0.05837553 0.08317276 0.023639122
000030 da 2d b8 3c f8 0c a8 3c 98 78 3a 3d 6f 6c 13 3d
       0.022482801 0.020513996 0.045525163 0.035992082
000040 04 87 47 3d 80 9e 03 3d 79 89 00 80 b1 8a 00 00
       0.048712745 0.03213358 -4.9316e-41 4.9753e-41
000050 30 91 00 00 40 8a 00 00 ba 90 00 80 0d 8d 00 00
       5.2083e-41 4.9595e-41 -5.1918e-41 5.06e-41
000060 7b 89 00 80 92 8c 00 80 da 88 00 00 c3 92 00 00
       -4.9319e-41 -5.0427e-41 4.9093e-41 5.2648e-41
000070 b5 8d 00 00 5a 89 00 00 bf 96 00 80 b4 89 00 00
       5.0835e-41 4.9272e-41 -5.4078e-41 4.9399e-41
000080 f5 89 00 80 1c 8a 00 80 d5 89 00 80 ca 8a 00 80
       -4.949e-41 -4.9544e-41 -4.9445e-41 -4.9788e-41
000090 12 e6 4c 3c a3 ac bd bc af e2 ec 3b 43 27 21 bc
       0.012506025 -0.023153609 0.007229171 -0.009836021
0000a0 17 61 24 bc 74 3a 5d bc 71 89 17 bc ca 3d 00 bb
       -0.010032914 -0.013502706 -0.009249077 -0.001956808
0000b0 50 c8 80 bc e4 8a 00 80 55 ae 00 80 1a 89 00 80
       -0.015720516 -4.9825e-41 -6.2539e-41 -4.9183e-41
0000c0 37 8a 00 80 72 ab 00 80 b2 a4 00 80 2d 8f 00 80
       -4.9582e-41 -6.1503e-41 -5.9082e-41 -5.1362e-41
0000d0 69 90 00 80 eb 89 00 80 1e 89 00 80 94 8b 00 00
       -5.1805e-41 -4.9476e-41 -4.9188e-41 5.0071e-41
0000e0 8c 8b 00 00 8a 8f 00 80 d4 88 00 80 ef 88 00 00
       5.006e-41 -5.1492e-41 -4.9085e-41 4.9123e-41
0000f0 d3 88 00 80 aa 89 00 80 2a 89 00 80 91 b6 9d 3b
       -4.9083e-41 -4.9385e-41 -4.9205e-41 0.0048130234
000100 e4 40 eb 3c 0b e4 a5 3c 25 fc 28 3c ce 21 02 3d
       0.028717466 0.02025034 0.010314022 0.03177052
000110 13 dd 82 ba ba 5b 12 3d 19 ae 97 3c 1b 97 15 3d
       -0.0009984098 0.03573201 0.018515633 0.03652106
000120 4f 8a 00 80 50 8c 00 80 75 aa 00 80 0e 8b 00 00
       -4.9616e-41 -5.0335e-41 -6.1148e-41 4.9883e-41
000130 46 a6 00 80 1a 8e 00 00 7e 89 00 80 b5 89 00 00
       -5.9648e-41 5.0976e-41 -4.9323e-41 4.94e-41
000140 f1 89 00 80
       -4.9484e-41

e_conv2.bias f4 [3]
000000 f2 b3 49 bd 32 39 36 3d 0a 41 35 3d
       -0.049243875 0.04448814 0.04425148

e_conv3.weight f4 [3, 6, 5, 5]
000000 58 89 00 80 2c 8a 00 80 56 89 00 00 fd 8b 00 80
       -4.927e-41 -4.9567e-41 4.9267e-41 -5.0218e-41
000010 99 8b 00 80 a1 8a 00 00 83 8a 00 80 34 89 00 80
       -5.0078e-41 4.973e-41 -4.9689e-41 -4.9219e-41
000020 61 8a 00 80 15 93 00 80 f9 89 00 00 a3 89 00 80
       -4.9641e-41 -5.2763e-41 4.9495e-41 -4.9375e-41
000030 66 8b 00 00 d9 89 00 80 83 8a 00 00 cb 89 00 00
       5.0007e-41 -4.945e-41 4.9689e-41 4.9431e-41
000040 c8 89 00 00 49 a8 00 00 3a 89 00 80 32 89 00 00
       4.9427e-41 6.037e-41 -4.9228e-41 4.9216e-41
000050 b1 89 00 80 99 89 00 00 ce 89 00 80 10 8a 00 80
       -4.9394e-41 4.9361e-41 -4.9435e-41 -4.9527e-41
000060 d3 a9 00 80 51 b2 07 3d 1d 42 45 3c 57 f0 dc 3c
       -6.0921e-41 0.03312904 0.012039688 0.026970072
000070 3a 39 38 3d 15 07 12 3d fe 5c 4c 3d 17 53 ae 3c
       0.04497645 0.035651285 0.04989337 0.021279855
000080 5b 7e 09 3d c9 4f 01 3b 9c 62 48 3c 79 25 40 3d
       0.033567768 0.0019731394 0.012230542 0.046910737
000090 75 b3 73 3d 85 29 01 3d 44 54 e1 3c ef e4 66 3c
       0.059497315 0.031533737 0.027506001 0.014092668
0000a0 a5 db 1e 3d 6b 52 7d 3c 8a dd 81 3c 6c 01 3d 3d
       0.038783688 0.0154615445 0.015852708 0.046143934
0000b0 00 7a 5d 3c 2a c0 90 3c 2e 25 96 3c 65 1a 28 3d
       0.013517857 0.017669756 0.018328276 0.041040797
0000c0 a1 be f2 3c ac 43 27 3d 9a 8f 00 00 08 89 00 00
       0.029631915 0.04083602 5.1515e-41 4.9158e-41
0000d0 4a 8a 00 00 36 89 00 00 0f 89 00 00 f9 89 00 00
       4.9609e-41 4.9222e-41 4.9167e-41 4.9495e-41
0000e0 e4 88 00 80 1b 8a 00 00 53 89 00 80 c5 89 00 80
       -4.9107e-41 4.9543e-41 -4.9263e-41 -4.9422e-41
0000f0 2b 8a 00 00 cc 89 00 80 f7 8a 00 00 c7 ae 00 00
       4.9565e-41 -4.9432e-41 4.9851e-41 6.2698e-41
000100 c4 88 00 00 df 8e 00 00 8d 89 00 80 1f 8a 00 00
       4.9062e-41 5.1252e-41 -4.9344e-41 4.9549e-41
000110 a4 95 00 80 66 89 00 80 85 a7 00 00 e2 88 00 80
       -5.3681e-41 -4.9289e-41 6.0095e-41 -4.9104e-41
000120 f3 8d 00 00 55 89 00 80 30 89 00 80 b2 56 10 3d
       5.0922e-41 -4.9265e-41 -4.9214e-41 0.03523893
000130 ef 83 ea 3c 86 b2 c0 3c 9b 21 36 3d 29 2b 52 3d
       0.028627364 0.023522627 0.044465642 0.051310692
000140 a3 d9 cb 3c 68 54 22 3d b9 c8 45 3d 97 16 09 3d
       0.02488405 0.039631277 0.048287127 0.03346881
000150 bf 63 e6 3c 9f 14 ee 3b d2 a1 62 3d ef ba 0c 3d
       0.028123735 0.007265642 0.055330105 0.03435796
000160 66 cd 69 3d 53 36 e0 3c e2 ea f6 3c 18 4a 24 3d
       0.05708065 0.027369654 0.030141298 0.040109724
000170 f9 25 c0 3c e3 eb c5 3c 96 cf d4 3c 1e 4d 33 3d
       0.023455607 0.024160331 0.025977891 0.043774717
000180 40 74 f3 3c 08 92 30 3d 3c 43 25 3d 3d 9d 50 3d
       0.029718518 0.043108016 0.040347323 0.050931204
000190 4a f5 4c bc cc 6b 48 bc 5b f0 42 bc c4 91 87 bc
       -0.012509653 -0.012232732 -0.0118981255 -0.016548999
0001a0 d8 a9 9f bc a6 b6 81 bc f1 49 ac bc a2 4a 8f bc
       -0.019490167 -0.015834164 -0.021031352 -0.017491642
0001b0 66 16 6a bc db 18 bf bb 32 e5 96 bc 3f d2 d1 bb
       -0.014287567 -0.0058318204 -0.018419836 -0.006403237
0001c0 09 51 48 bc 2e 2d 4d bc 10 e4 a4 bc 4e c0 f8 bb
       -0.012226352 -0.012522979 -0.02012828 -0.007591284
0001d0 52 e7 33 bc 30 d9 30 bc 39 f3 1e bc 44 8a 43 bc
       -0.010980444 -0.010793969 -0.0097015435 -0.011934821
0001e0 8d b2 18 bc 15 33 0b bc 65 d1 76 bc 0e 3b 9c bc
       -0.009319914 -0.008496066 -0.015064572 -0.019071128
0001f0 44 7a 7e bc 4e c2 ae 3c 40 b3 cd bb 96 42 03 3c
       -0.01553208 0.021332886 -0.006277472 0.008011481
000200 9b df 65 bb f0 0f 87 3c f8 fe 14 3c db d2 9a 3c
       -0.0035075906 0.016487092 0.009093992 0.018899372
000210 ef df 73 3c f1 43 9d bc bd 8c 93 3c df a9 48 3c
       0.014884933 -0.019197436 0.018011445 0.012247532
000220 5a 1d db 3b 21 60 b4 3c 06 98 35 3c 17 9f 44 bc
       0.0066868486 0.022018494 0.0110836085 -0.012000821
000230 81 e7 35 bb a0 65 99 bb 85 91 07 bc ef 9a ca bc
       -0.0027756395 -0.004681304 -0.008274441 -0.024732081
000240 4b 8e 11 3c ca 23 f0 bb 2e af b5 bc 31 ea 88 3b
       0.008884023 -0.007328485 -0.022178259 0.0041783084
000250 bc 3b 7a bb 05 8f ab 3c bd 8a 00 80 04 8a 00 00
       -0.0038182577 0.02094222 -4.977e-41 4.951e-41
000260 b1 89 00 00 b9 88 00 80 ec 88 00 00 d3 88 00 80
       4.9394e-41 -4.9047e-41 4.9118e-41 -4.9083e-41
000270 2d 89 00 00 1f 90 00 80 91 89 00 80 ac 8f 00 00
       4.921e-41 -5.1701e-41 -4.935e-41 5.154e-41
000280 33 8b 00 00 e9 88 00 00 2a 8a 00 80 f2 8a 00 00
       4.9935e-41 4.9114e-41 -4.9564e-41 4.9844e-41
000290 5a 8a 00 00 40 8a 00 80 a0 8c 00 00 f2 89 00 80
       4.9631e-41 -4.9595e-41 5.0447e-41 -4.9485e-41
0002a0 28 89 00 80 9f 8a 00 00 0d ab 00 80 42 8a 00 00
       -4.9202e-41 4.9728e-41 -6.1361e-41 4.9598e-41
0002b0 81 8a 00 80 ba 95 00 80 f0 89 00 00 76 10 6a 3c
       -4.9686e-41 -5.3712e-41 4.9483e-41 0.014286151
0002c0 f8 43 36 3d a1 6f 6b 3d f7 b9 73 3d c6 e6 f4 3c
       0.044498414 0.057479504 0.05950352 0.029895198
0002d0 50 8a 13 3d c0 94 67 3c 6c 14 1e 3d ff 43 18 3c
       0.036020577 0.014134586 0.038593695 0.009293555
0002e0 ac 4e 20 3d 0a e3 82 3d 93 4e 4d 3d 00 51 9e 3d
       0.039137527 0.063909605 0.050123762 0.07730293
0002f0 73 aa aa 3d c1 5b 89 3d 45 f4 c9 3c ae c4 6e 3d
       0.08333292 0.06706954 0.02465261 0.058293037
000300 62 9d 07 3d 4a a5 a0 3d 77 79 9f 3d 38 9f 1d 3d
       0.033109076 0.078440264 0.077868395 0.03848192
000310 e7 1c 02 3d 9d 2a 7e 3c 28 5b d4 3c 90 66 78 3d
       0.031765845 0.0155130895 0.025922373 0.060644686
000320 e8 93 00 80 20 8f 00 80 4d 8a 00 00 e1 8a 00 80
       -5.3059e-41 -5.1344e-41 4.9613e-41 -4.982e-41
000330 18 89 00 80 16 89 00 80 74 89 00 00 60 89 00 00
       -4.918e-41 -4.9177e-41 4.9309e-41 4.9281e-41
000340 37 8a 00 00 d5 88 00 80 c6 88 00 00 1e 8a 00 00
       4.9582e-41 -4.9086e-41 4.9065e-41 4.9547e-41
000350 48 8b 00 00 16 8d 00 80 1a a4 00 00 f8 8a 00 80
       4.9965e-41 -5.0612e-41 5.8869e-41 -4.9853e-41
000360 89 8c 00 80 55 89 00 80 9f 8e 00 00 07 89 00 80
       -5.0415e-41 -4.9265e-41 5.1163e-41 -4.9156e-41
000370 a8 92 00 80 b7 8c 00 00 07 8a 00 80 e0 89 00 00
       -5.261e-41 5.0479e-41 -4.9515e-41 4.946e-41
000380 0a 8f 00 00 22 02 2c 3d bd bd 0e 3d 00 cb 06 3d
       5.1313e-41 0.04199422 0.034848917 0.03290844
000390 d0 ab 1d 3d f2 13 22 3d 8c db 2b 3d ce 32 99 3c
       0.03849393 0.039569803 0.041957423 0.018700983
0003a0 9d 4a 0f 3d 29 32 29 3d d8 f7 59 3d 8a d8 de 3c
       0.034983266 0.041307602 0.053214878 0.027202863
0003b0 9d 21 36 3d fe 91 6c 3d 6b 94 25 3d c6 8b 0d 3d
       0.04446565 0.057756416 0.040424746 0.034557126
0003c0 99 60 44 3d 6c 4a 84 3d 50 0b ad 3c c0 d8 7f 3d
       0.047943685 0.06459507 0.021123558 0.06246257
0003d0 7b a1 41 3d 2d d8 14 3d 34 97 5b 3d ba 76 29 3d
       0.04727314 0.036338974 0.053610995 0.041372992
0003e0 16 c0 2b 3c 6a 04 50 3d 78 fb 0d bc 04 c6 07 bc
       0.010482809 0.05078546 -0.008665912 -0.008286957
0003f0 e1 5f 25 bc 10 04 11 bc fa 21 35 bc 68 24 16 bc
       -0.01009366 -0.008851066 -0.011055464 -0.009163953

e_conv3.bias f4 [3]
000000 9f 20 bf 3b 73 56 a1 bc d7 89 00 00
       0.005832746 -0.019694543 4.9448e-41

e_conv4.weight f4 [3, 6, 7, 7]
000000 4f 71 a5 3c 64 08 02 3c 24 a6 5a 3c ee fe ea 3c
       0.020195631 0.007936571 0.013345275 0.028686013
000010 34 a8 35 3d 92 b1 1b 3c f6 52 cc 3c 31 5d d2 3c
       0.044349864 0.009502785 0.024941903 0.025679203
000020 33 b2 a9 3c 30 32 e2 3b 74 87 d7 3c 9f 2b 39 3d
       0.020714855 0.0069029555 0.026309706 0.045207616
000030 8d ad 87 3c 2f ef 09 3d c0 64 af 3c e4 08 c7 3c
       0.016562248 0.03367537 0.021410346 0.024296232
000040 23 e5 ad 3c 96 50 ea 3c 43 99 bf 3c 80 79 02 3d
       0.021227425 0.02860288 0.02338851 0.031854153
000050 9f 25 31 3d d2 b3 d5 3c dc f3 4b 3c f3 2b e9 3c
       0.04324877 0.026086722 0.012448277 0.02846334
000060 8f 69 97 3c 2e e2 8e 3c 8c eb a7 3c b0 2e 97 3c
       0.018482951 0.017441835 0.02049806 0.01845488
000070 18 b3 1a 3d 2c e1 0c 3d 6f 86 57 3c 15 b7 d3 3c
       0.037768453 0.034394428 0.01315461 0.025844136
000080 8c d8 85 b9 f1 32 f0 3c 1d 99 b6 3c ce df c1 3c
       -0.00025529077 0.029321166 0.022289807 0.023666289
000090 d6 d5 f5 3c 74 c9 0f 3d 3c b0 cb 3c 64 d8 9a 3c
       0.030009191 0.03510423 0.024864309 0.018902011
0000a0 b2 b9 11 3c 09 2c d7 3c ca ed 42 3c 28 92 87 3c
       0.008894371 0.026266115 0.011897514 0.016549185
0000b0 b7 03 89 3c 6d 13 fe 3c 8e 25 f2 3b d4 38 0a 3d
       0.016725404 0.031015122 0.007389731 0.0337456
0000c0 2c 5d 06 3d 4d e8 cc bb a5 b8 c0 bb 2d c3 ad bb
       0.0328037 -0.0062532783 -0.0058813863 -0.005302808
0000d0 d4 db bc bb 10 5e be bb 19 0b de bb d3 f3 eb bb
       -0.0057635102 -0.005809553 -0.0067762253 -0.007200697
0000e0 e7 61 d2 bb 7c 7e bf bb af cb b4 bb 4b d6 ae bb
       -0.0064203623 -0.0058439355 -0.005517445 -0.0053356043
0000f0 22 0c af bb c0 57 be bb 25 2f e6 bb 4c f7 d3 bb
       -0.0053420225 -0.0058088005 -0.007024663 -0.006468689
000100 85 71 c0 bb 09 11 c0 bb 41 5e bc bb 94 7c bd bb
       -0.0058729076 -0.0058614057 -0.0057485406 -0.005782673
000110 9a 3a c1 bb b6 2b f3 bb 2b 8e d2 bb d2 90 c8 bb
       -0.0058968784 -0.0074209822 -0.006425639 -0.0061207796
000120 fd 5c b7 bb b0 5a c7 bb 71 65 c9 bb d2 07 d0 bb
       -0.005595802 -0.006083809 -0.006146126 -0.0063485885
000130 53 69 f4 bb 99 59 d8 bb 1c 51 c6 bb 42 ee c9 bb
       -0.0074588447 -0.0066024777 -0.0060521495 -0.0061624357
000140 08 fd b7 bb 51 1c be bb 21 1d dd bb e0 e8 ed bb
       -0.0056148805 -0.0058017154 -0.006747857 -0.007260427
000150 9f 09 d2 bb 45 73 c6 bb 60 5a c2 bb fa 33 ce bb
       -0.0064098383 -0.0060562217 -0.0059311837 -0.006292817
000160 11 22 c2 bb e1 15 ce bb b7 71 f2 bb d1 e0 eb bb
       -0.005924471 -0.0062892293 -0.00739881 -0.007198431
000170 c4 93 e2 bb 3e 92 e2 bb 89 f8 ea bb f5 54 cf bb
       -0.0069145877 -0.006914406 -0.007170741 -0.0063272663
000180 fe 6f e9 bb 80 d1 06 bc eb 85 de bb 0a 97 dc 3c
       -0.007123946 -0.00822866 -0.0067908666 0.02692749
000190 e0 8b 49 b9 66 4b 82 3b 84 de 03 bb b2 b3 15 3c
       -0.00019220961 0.0039762734 -0.0020121643 0.009137081
0001a0 33 92 14 3c 23 68 8c 3c c4 c1 89 bc 9e 25 47 39
       0.00906806 0.0171395 -0.016816027 0.00018992132
0001b0 54 b6 c5 3a 42 d3 be b9 7b 3a b3 3b 30 3b 23 3c
       0.0015084245 -0.00036397023 0.005469618 0.009962842
0001c0 33 68 39 3c 25 fc 22 bb e2 8c a7 bc 7e 92 91 3c
       0.011316347 -0.0024869528 -0.02045292 0.017770048
0001d0 5b 89 94 3b 7b 59 c7 3c 68 ff 3b 3b a5 5c 9a 3c
       0.0045329756 0.02433466 0.002868617 0.018843004
0001e0 ae 16 32 bc 10 2b 61 bc 95 59 b9 bc d5 e1 28 3c
       -0.010869665 -0.013743177 -0.022625724 0.010307749
0001f0 19 4b 97 bb d7 40 ee bb de 1b 11 bc ff 32 a6 bc
       -0.0046171066 -0.007270913 -0.008856742 -0.020287989
000200 f7 34 85 3b 04 3c 67 3c 38 26 98 3c ef 1a ed bb
       0.004065152 0.01411343 0.018572912 -0.0072358768
000210 61 22 02 3c b0 48 fb bb 58 2a 51 3c bb 26 fc 3a
       0.007942767 -0.007668577 0.012766443 0.0019237617
000220 da 54 cc bb b1 be 70 bc 41 b1 f4 3b 3b cc 55 3b
       -0.006235701 -0.014693902 0.0074674194 0.0032622952
000230 27 93 53 bb 3b 09 b3 bc e6 99 a0 ba 45 f9 7f 3c
       -0.0032283755 -0.021854987 -0.0012252897 0.015623395
000240 32 32 8f 3a 3c 19 d4 3b 4a 20 bf bb 73 bc 27 3d
       0.0010924994 0.0064727347 -0.0058327066 0.040951204
000250 6a 55 12 3d 6d 2f 24 3d e4 be c9 3c f2 2f ce 3c
       0.03572599 0.04008429 0.024627157 0.025169346
000260 53 6e 85 3d f5 d2 37 3d 1c 89 1c 3d b6 7d 9f 3b
       0.06515183 0.04487892 0.038216695 0.004867281
000270 ef 7d 17 3d 69 db 4e bc b6 54 ac 3d aa 98 55 3d
       0.036985334 -0.012625554 0.08414595 0.052147545
000280 41 81 83 3c 4e 71 6d 3d 03 b7 d5 3c fa 78 6e 3d
       0.016052844 0.057969384 0.026088243 0.05822084
000290 6c ed 27 3d d0 56 7f 3c 5b 33 26 3c d7 d6 02 3d
       0.040997908 0.015584663 0.01014408 0.03194317
0002a0 b3 99 be 3c 29 e4 b5 3c 74 53 19 3c d0 ac b5 ba
       0.023266649 0.022203522 0.009358276 -0.0013860706
0002b0 f0 cc 3f 3d eb e2 8d 3c cc 4e 6d 3c 9a d7 07 3d
       0.046826303 0.017320117 0.014484119 0.033164598
0002c0 5b 3c 0a 3c 30 44 3e bc 11 d9 32 3d b1 de 86 3c
       0.008437241 -0.011612937 0.043664042 0.01646361
0002d0 ba 48 9f 3c 02 b7 73 3b 2f dc 27 3d a3 e8 6b 3c
       0.019443858 0.0037187939 0.040981468 0.014398727
0002e0 a9 bb 9e 3c ad df ae 3c 0d 67 e7 3a 19 69 2f 3d
       0.019376593 0.021346891 0.0017654613 0.04282484
0002f0 01 6a 86 3b b0 be 15 3d 8b c1 02 3d 3a cc 17 3c
       0.004101992 0.036558807 0.03192286 0.009265
000300 22 04 3f 3c a3 b8 8c 3c 98 80 2f 3c 4a 28 c7 3c
       0.0116587 0.017177885 0.0107118115 0.024311204
000310 be 52 48 3d ff 97 86 3d 70 67 2d 3d 08 fc 6c 3d
       0.048907034 0.0657196 0.042334974 0.057857543
000320 78 91 0d 3d 70 70 b0 3c 8c fe f0 3c 91 2d af 3c
       0.034562558 0.02153799 0.029418252 0.021384032
000330 03 e0 2e 3d bc 1d 8e 3c ce 94 36 3d 7f c9 5a 3c
       0.042694103 0.017348163 0.044575505 0.0133537045
000340 a1 40 19 bb 3c 88 99 3c 36 76 32 3d 59 13 1d 3d
       -0.002338447 0.01874172 0.043569766 0.03834853
000350 d4 3a 68 3c 0c 7f 39 3d e8 b9 5c 3d 47 a1 fc 3c
       0.014174182 0.045287177 0.05388823 0.030838622
000360 ce 45 85 3d 43 f8 45 3d 5a 46 5b bc c8 f1 1a 3c
       0.06507455 0.048332464 -0.013383472 0.009457059
000370 0f 6d 02 3d c9 3e 32 3d 22 bc b0 3c c3 dd 86 3c
       0.031842288 0.043516908 0.021574084 0.016463166
000380 53 eb 47 3d 38 f0 b5 3c 07 d6 44 3c 58 89 df 3c
       0.048808407 0.022209272 0.012013919 0.02728717
000390 3c 84 cc 3c 01 ec ae 3c 7b 3e 12 3d 4c b4 86 3c
       0.024965398 0.02135277 0.035704117 0.016443394
0003a0 cf 25 e4 3c 6f 81 eb 3c 07 9f 9b 3c 5f d6 06 3c
       0.02785006 0.028748242 0.018996729 0.008229821
0003b0 51 c4 8f bc be 04 09 3d ee 11 13 3d 2e ea 02 bb
       -0.017549666 0.033451788 0.03590577 -0.0019976008
0003c0 cb ed a9 3c e3 aa b1 3c 95 5c bc bb e5 f1 38 3d
       0.020743271 0.02168793 -0.0057483413 0.045152564
0003d0 73 0b 08 3c c5 8b 00 80 f9 88 00 80 07 8b 00 80
       0.008303511 -5.014e-41 -4.9137e-41 -4.9874e-41
0003e0 d9 8b 00 80 5b 8a 00 80 75 8b 00 80 f5 89 00 80
       -5.0168e-41 -4.9633e-41 -5.0028e-41 -4.949e-41
0003f0 a0 8a 00 80 06 8a 00 80 fe 88 00 80 d9 89 00 80
       -4.9729e-41 -4.9513e-41 -4.9144e-41 -4.945e-41

e_conv4.bias f4 [3]
000000 7d 40 23 3b 1c 44 8e 3c b8 c5 23 a6
       0.0024910264 0.017366461 -5.6819944e-16

e_conv5.weight f4 [3, 12, 3, 3]
000000 07 89 00 00 3f 92 00 00 e9 88 00 00 15 89 00 00
       4.9156e-41 5.2463e-41 4.9114e-41 4.9176e-41
000010 57 92 00 80 fd 89 00 00 bb 8b 00 00 35 8a 00 00
       -5.2497e-41 4.9501e-41 5.0126e-41 4.958e-41
000020 6c 8a 00 00 ad 7d 0e 3d ef a5 2f 3d 7f 72 10 3d
       4.9656e-41 0.034787823 0.042882856 0.035265442
000030 fb f2 1d 3d 86 5b 41 3d 60 61 1e 3d 30 80 0a 3d
       0.038561802 0.047206424 0.038667083 0.033813655
000040 19 52 2a 3d fb 87 09 3d 57 89 00 80 97 8a 00 80
       0.0415822 0.033576947 -4.9268e-41 -4.9717e-41
000050 05 89 00 80 2c 8a 00 00 0a 8d 00 80 4a 9e 00 80
       -4.9153e-41 4.9567e-41 -5.0595e-41 -5.6783e-41
000060 dc 8e 00 00 8d 89 00 80 fc 8b 00 00 57 bc d7 3c
       5.1248e-41 -4.9344e-41 5.0217e-41 0.026334925
000070 22 c8 ef 3c 31 47 dd 3c 2f 13 e3 3c c0 db fc 3c
       0.029270235 0.027011486 0.027719108 0.030866504
000080 40 e4 e7 3c 1f d7 d9 3c 98 b5 f3 3c c0 bd de 3c
       0.02830708 0.026591836 0.029749677 0.02719009
000090 fd 5c 81 3a 96 a2 19 3a 62 39 be 3a cc 5f 74 3a
       0.0009869632 0.0005860714 0.0014512951 0.0009322136
0000a0 90 07 d6 39 c1 ae ca 3a c0 53 dc 3a 0a 66 8e 3a
       0.00040822895 0.0015463458 0.0016809627 0.001086415
0000b0 a9 91 18 3b ec c5 7e 3c 6e f9 8a 3c 4b 27 7e 3c
       0.002328018 0.015550118 0.01696464 0.015512298
0000c0 7c c8 7b 3c b5 f5 89 3c 18 83 77 3c 52 47 66 3c
       0.015367623 0.016840795 0.015106939 0.01405509
0000d0 20 a4 7b 3c 53 9a 5e 3c 30 08 ce 3c e9 c3 cd 3c
       0.015358955 0.013586598 0.025150388 0.025117831
0000e0 6c aa cf 3c f4 df c9 3c c6 a1 ca 3c a6 38 cd 3c
       0.025349818 0.024642922 0.024735343 0.025051426
0000f0 f6 e8 c3 3c 24 85 c4 3c 44 57 c6 3c b0 89 ee 3c
       0.023914795 0.023989268 0.024211533 0.029118389
000100 a3 e3 e8 3c 62 ce e8 3c 4c 29 eb 3c 0e 1d e6 3c
       0.028428858 0.028418723 0.028706215 0.028090026
000110 22 68 e4 3c c8 3b df 3c e3 7b da 3c dc 80 d8 3c
       0.027881686 0.027250186 0.026670402 0.026428632
000120 1a 89 00 00 2e a1 00 80 ac 8a 00 00 78 8a 00 00
       4.9183e-41 -5.782e-41 4.9746e-41 4.9673e-41
000130 ea 89 00 00 d4 88 00 00 f9 8a 00 00 35 89 00 00
       4.9474e-41 4.9085e-41 4.9854e-41 4.922e-41
000140 11 8a 00 00 bc 2c d6 3c fc b2 c5 3c c0 fd cb 3c
       4.9529e-41 0.026144378 0.024133198 0.02490127
000150 58 4a cf 3c 36 79 be 3c 22 66 c4 3c 3f e4 cc 3c
       0.025304005 0.023251157 0.023974482 0.02501118
000160 d2 44 bc 3c 89 d4 c1 3c 11 ec cd 3c 80 e3 c0 3c
       0.022982035 0.023660915 0.02513698 0.02354598
000170 67 78 c7 3c e7 4c c6 3c aa 2d b9 3c 00 d2 bf 3c
       0.024349404 0.024206592 0.022604782 0.023415565
000180 b5 bd c3 3c 2a de b6 3c 3f 2f bd 3c 3e 8a 00 00
       0.02389417 0.022322733 0.023093818 4.9592e-41
000190 04 8a 00 00 0e 89 00 00 f9 88 00 00 58 89 00 00
       4.951e-41 4.9166e-41 4.9137e-41 4.927e-41
0001a0 33 8a 00 00 42 8a 00 00 3a 89 00 00 c9 88 00 00
       4.9577e-41 4.9598e-41 4.9228e-41 4.9069e-41
0001b0 b9 8f 00 00 e2 88 00 80 cc 89 00 80 d3 94 00 00
       5.1558e-41 -4.9104e-41 -4.9432e-41 5.3388e-41
0001c0 74 8b 00 00 73 89 00 00 df 89 00 80 32 8a 00 00
       5.0026e-41 4.9307e-41 -4.9459e-41 4.9575e-41
0001d0 21 8b 00 00 ba f8 05 3d 13 d3 1a 3d 45 5d 09 3d
       4.991e-41 0.032707907 0.037798952 0.033536214
0001e0 9f 77 0f 3d 67 60 25 3d 37 f5 11 3d ad 3a b3 3c
       0.03502619 0.04037514 0.035634246 0.021878565
0001f0 03 ac 17 3d df e6 05 3d 11 90 00 00 15 89 00 00
       0.037029278 0.03269088 5.1681e-41 4.9176e-41
000200 e1 88 00 00 4b 8d 00 80 d9 89 00 00 c8 89 00 00
       4.9103e-41 -5.0686e-41 4.945e-41 4.9427e-41
000210 70 8b 00 80 de 88 00 00 d6 89 00 80 67 39 ce 3c
       -5.0021e-41 4.9099e-41 -4.9446e-41 0.025173856
000220 49 c2 d5 3c 22 da c3 3c 8e b8 d1 3c a7 59 db 3c
       0.026093619 0.023907725 0.025600698 0.026776148
000230 9f ca d4 3c 1e 30 ce 3c f1 51 bb 3c a4 5d d3 3c
       0.025975524 0.025169428 0.022866221 0.025801487
000240 8c b8 d4 3b 6f 26 d4 3b 5a e8 cd 3b 1a b9 c7 3b
       0.0064917263 0.006474308 0.006283802 0.006095064
000250 2b b3 cd 3b ce 50 ce 3b 0b a2 d3 3b 59 0d c9 3b
       0.006277462 0.0062962538 0.006458526 0.0061356244
000260 f8 11 cd 3b ee 31 5f 3c 61 b1 67 3c aa 38 61 3c
       0.0062582456 0.013622744 0.0141414115 0.01374642
000270 de 91 5a 3c ed 18 66 3c f7 e3 5b 3c 66 54 57 3c
       0.0133404415 0.014044029 0.01342105 0.013142681
000280 c6 0c 0e 3c c3 30 34 3c 63 b8 c6 3c d6 73 b9 3c
       0.008670038 0.010997954 0.024257844 0.022638243
000290 e7 fb 82 3c 9e e7 51 3c 80 fb c0 3c d0 5b ee 3c
       0.015989257 0.0128115695 0.023557425 0.029096514
0002a0 68 1b d4 3c 0c cf be 3c 1f 79 c2 3c 23 35 cf 3c
       0.025891975 0.023292087 0.023739396 0.025293892
0002b0 55 a4 be 3c 92 fe d6 3c ad ba e1 3c a7 24 0d 3d
       0.023271719 0.026244435 0.027554834 0.034458783
0002c0 3b 29 f7 3c 26 49 dc 3c 28 05 d9 3c eb e4 de 3c
       0.030171027 0.026890349 0.026491717 0.027208766
0002d0 15 8b 00 00 c5 8a 00 00 47 89 00 00 27 8a 00 00
       4.9893e-41 4.9781e-41 4.9246e-41 4.956e-41
0002e0 b6 89 00 00 fa 8a 00 00 68 8a 00 00 29 89 00 00
       4.9401e-41 4.9855e-41 4.9651e-41 4.9204e-41
0002f0 f7 88 00 00 f3 69 e6 3c 13 ca d7 3c 56 a5 e1 3c
       4.9134e-41 0.028126692 0.026341474 0.027544659
000300 c8 1b db 3c c2 01 d7 3c e8 9c d7 3c 34 f2 d4 3c
       0.026746646 0.026245955 0.026319936 0.025994398
000310 cb fb cc 3c 7d 4d 0e 3c 92 9f b2 3c 06 16 0f 3d
       0.025022408 0.008685467 0.021804605 0.034933113
000320 e6 d5 db 3c de 38 85 3c 80 fd c9 3c 9b c9 10 3d
       0.026835393 0.016262468 0.024657011 0.035348516
000330 b8 ec d1 3c d6 27 c8 3c 79 b8 d0 3c 99 69 21 82
       0.025625572 0.024433058 0.025478588 -1.1858717e-37
000340 6b f6 20 82 47 23 25 82 f7 8e 1a 82 ab f9 19 82
       -1.1825662e-37 -1.213241e-37 -1.1355162e-37 -1.1312316e-37
000350 a1 fe 1d 82 9e 0e 17 82 8e 42 16 82 4d 32 1a 82
       -1.1607613e-37 -1.1097923e-37 -1.103936e-37 -1.1328569e-37
000360 b8 8a 00 00 10 8a 00 80 7a 8b 00 80 25 8b 00 80
       4.9763e-41 -4.9527e-41 -5.0035e-41 -4.9916e-41
000370 62 89 00 80 ff 8a 00 80 c7 92 00 80 83 90 00 80
       -4.9284e-41 -4.9862e-41 -5.2654e-41 -5.1841e-41
000380 44 8a 00 00 20 b1 3f 3d 8b 6a 26 3c 9a 1b fe 3c
       4.96e-41 0.04679978 0.010157238 0.03101902
000390 3a 0e 1c 3c d4 87 2e 3c f6 03 20 3d f4 87 a5 3c
       0.009524876 0.010652501 0.039066277 0.020206429
0003a0 41 70 52 3d 5e 7a b0 3c 2d 8a 00 00 15 8a 00 80
       0.051376585 0.021542724 4.9568e-41 -4.9534e-41
0003b0 8b 8e 00 80 35 8b 00 80 fd a0 00 00 b2 8a 00 80
       -5.1135e-41 -4.9938e-41 5.7752e-41 -4.9755e-41
0003c0 af 89 00 00 4c 89 00 80 bd 88 00 80 7a bb f1 3c
       4.9392e-41 -4.9253e-41 -4.9052e-41 0.029508341
0003d0 b6 23 44 3d a3 5d 2d 3d 52 01 12 3d 8c b3 9f 3c
       0.04788562 0.042325627 0.03564579 0.019494794
0003e0 db 1f ed 3c 90 d8 20 3d 8d 92 4e 3d 22 ae 40 3d
       0.028945854 0.03926903 0.05043273 0.047041066
0003f0 ba 13 ba bc 15 8d bb bc f4 a7 ac bc 8a e5 b8 bc
       -0.022714484 -0.022894422 -0.02107618 -0.02257039

e_conv5.bias f4 [3]
000000 5f f5 27 ba f8 0d 24 bb 9d 24 6f 3c
       -0.00064071076 -0.002503274 0.014596132
