ai_server/checkpoints/Epoch3.pth (torch, 10794 bytes, 10 tensors)

e_conv1.weight f4 [3, 3, 1, 1]
000000 49 8d 00 80 04 8c 00 80 35 8a 00 80 b8 6f 00 3c
       -5.0684e-41 -5.0228e-41 -4.958e-41 0.007839136
000010 64 af 20 3e 24 22 86 3e ba 88 00 00 c2 9b 00 80
       0.15691906 0.26197922 4.9048e-41 -5.5875e-41
000020 23 8e 00 80
       -5.0989e-41

e_conv1.bias f4 [3]
000000 98 f8 f0 ab 58 c8 d6 3e c7 88 00 00
       -1.7122024e-12 0.41949725 4.9066e-41

e_conv2.weight f4 [3, 3, 3, 3]
000000 6c 89 00 00 5a 90 00 80 98 95 00 80 d2 89 00 80
       4.9298e-41 -5.1784e-41 -5.3664e-41 -4.944e-41
000010 87 8a 00 80 0c 8a 00 00 ff 88 00 80 b4 89 00 00
       -4.9694e-41 4.9522e-41 -4.9145e-41 4.9399e-41
000020 44 8b 00 00 db 88 65 3d 38 3a a7 3d 80 d1 ac 3c
       4.9959e-41 0.05603872 0.08165401 0.021095991
000030 65 f2 a3 3c 98 61 98 3c d3 e5 31 3d 6c e1 09 3d
       0.020013044 0.018601224 0.043432068 0.033662245
000040 a1 e1 40 3d 61 43 f5 3c 79 89 00 80 b1 8a 00 00
       0.047090176 0.029939355 -4.9316e-41 4.9753e-41
000050 30 91 00 00 40 8a 00 00 ba 90 00 80 0d 8d 00 00
       5.2083e-41 4.9595e-41 -5.1918e-41 5.06e-41
000060 7b 89 00 80 92 8c 00 80 da 88 00 00 c3 92 00 00
       -4.9319e-41 -5.0427e-41 4.9093e-41 5.2648e-41
000070 b5 8d 00 00 5a 89 00 00 bf 96 00 80 b4 89 00 00
       5.0835e-41 4.9272e-41 -5.4078e-41 4.9399e-41
000080 f5 89 00 80 1c 8a 00 80 d5 89 00 80 ca 8a 00 80
       -4.949e-41 -4.9544e-41 -4.9445e-41 -4.9788e-41
000090 d9 1b 02 3d f9 9a 30 bc 91 ca db 3c cb dd 8b 3b
       0.03176484 -0.010779136 0.02682999 0.004268383
0000a0 95 4a da 3b 86 b4 bc 3a 04 8f 9a 3b 07 92 86 3c
       0.006661723 0.0014397062 0.004716756 0.016427053
0000b0 ac c2 e7 ba e4 8a 00 80 55 ae 00 80 1a 89 00 80
       -0.0017681918 -4.9825e-41 -6.2539e-41 -4.9183e-41
0000c0 37 8a 00 80 72 ab 00 80 b2 a4 00 80 2d 8f 00 80
       -4.9582e-41 -6.1503e-41 -5.9082e-41 -5.1362e-41
0000d0 69 90 00 80 eb 89 00 80 1e 89 00 80 94 8b 00 00
       -5.1805e-41 -4.9476e-41 -4.9188e-41 5.0071e-41
0000e0 8c 8b 00 00 8a 8f 00 80 d4 88 00 80 ef 88 00 00
       5.006e-41 -5.1492e-41 -4.9085e-41 4.9123e-41
0000f0 d3 88 00 80 aa 89 00 80 2a 89 00 80 e5 a4 e4 3b
       -4.9083e-41 -4.9385e-41 -4.9205e-41 0.006977665
000100 bf 68 08 3d 3a 66 c5 3c e0 48 54 3c 7f 85 16 3d
       0.03330302 0.024096597 0.012956828 0.036748406
000110 31 55 0e 3b 20 14 22 3d 90 f5 bb 3c 6a d0 29 3d
       0.0021718259 0.039569974 0.022944242 0.041458525
000120 4f 8a 00 80 50 8c 00 80 75 aa 00 80 0e 8b 00 00
       -4.9616e-41 -5.0335e-41 -6.1148e-41 4.9883e-41
000130 46 a6 00 80 1a 8e 00 00 7e 89 00 80 b5 89 00 00
       -5.9648e-41 5.0976e-41 -4.9323e-41 4.94e-41
000140 f1 89 00 80
       -4.9484e-41

e_conv2.bias f4 [3]
000000 5b bc 16 bd 05 c4 1c 3d dc db 7e 3d
       -0.036800724 0.038272876 0.062221393

e_conv3.weight f4 [3, 6, 5, 5]
000000 58 89 00 80 2c 8a 00 80 56 89 00 00 fd 8b 00 80
       -4.927e-41 -4.9567e-41 4.9267e-41 -5.0218e-41
000010 99 8b 00 80 a1 8a 00 00 83 8a 00 80 34 89 00 80
       -5.0078e-41 4.973e-41 -4.9689e-41 -4.9219e-41
000020 61 8a 00 80 15 93 00 80 f9 89 00 00 a3 89 00 80
       -4.9641e-41 -5.2763e-41 4.9495e-41 -4.9375e-41
000030 66 8b 00 00 d9 89 00 80 83 8a 00 00 cb 89 00 00
       5.0007e-41 -4.945e-41 4.9689e-41 4.9431e-41
000040 c8 89 00 00 49 a8 00 00 3a 89 00 80 32 89 00 00
       4.9427e-41 6.037e-41 -4.9228e-41 4.9216e-41
000050 b1 89 00 80 99 89 00 00 ce 89 00 80 10 8a 00 80
       -4.9394e-41 4.9361e-41 -4.9435e-41 -4.9527e-41
000060 d3 a9 00 80 b5 56 f2 3c 6e 8c 17 3c 49 e6 cc 3c
       -6.0921e-41 0.02958236 0.00924979 0.025012152
000070 09 ea 31 3d 35 66 07 3d 93 f7 40 3d 90 35 9b 3c
       0.043436084 0.033056457 0.047111105 0.018946439
000080 7d f0 02 3d ad e4 28 ba f0 50 17 3c c1 7c 35 3d
       0.03196763 -0.0006442767 0.009235606 0.044308428
000090 e0 dc 6f 3d 3f b2 f6 3c c1 a6 d4 3c 47 1e 3c 3c
       0.058560252 0.030114291 0.02595842 0.011481828
0000a0 df 85 13 3d 9c ca 59 3c 03 d2 66 3c 87 7b 39 3d
       0.03601634 0.013292935 0.014088157 0.04528382
0000b0 bb 0a 34 3c 56 82 6a 3c cc da 85 3c be 75 24 3d
       0.0109888865 0.014313301 0.016339682 0.04015135
0000c0 f8 17 e8 3c 29 66 20 3d 9a 8f 00 00 08 89 00 00
       0.028331742 0.039159928 5.1515e-41 4.9158e-41
0000d0 4a 8a 00 00 36 89 00 00 0f 89 00 00 f9 89 00 00
       4.9609e-41 4.9222e-41 4.9167e-41 4.9495e-41
0000e0 e4 88 00 80 1b 8a 00 00 53 89 00 80 c5 89 00 80
       -4.9107e-41 4.9543e-41 -4.9263e-41 -4.9422e-41
0000f0 2b 8a 00 00 cc 89 00 80 f7 8a 00 00 c7 ae 00 00
       4.9565e-41 -4.9432e-41 4.9851e-41 6.2698e-41
000100 c4 88 00 00 df 8e 00 00 8d 89 00 80 1f 8a 00 00
       4.9062e-41 5.1252e-41 -4.9344e-41 4.9549e-41
000110 a4 95 00 80 66 89 00 80 85 a7 00 00 e2 88 00 80
       -5.3681e-41 -4.9289e-41 6.0095e-41 -4.9104e-41
000120 f3 8d 00 00 55 89 00 80 30 89 00 80 9a 90 ff 3c
       5.0922e-41 -4.9265e-41 -4.9214e-41 0.031196881
000130 0d c7 d5 3c b8 e9 ad 3c 67 23 35 3d f7 1b 4f 3d
       0.026095891 0.02122961 0.044223215 0.05056378
000140 b5 26 a6 3c 6d f6 1e 3d 8b 7a 49 3d 0e 7a 05 3d
       0.020282129 0.03880923 0.04918913 0.032587104
000150 25 b6 d0 3c cd fe 8b 3a fa 61 67 3d 42 5c 0b 3d
       0.025477478 0.0010680795 0.056489922 0.03402353
000160 82 f0 71 3d 61 c7 cc 3c 86 02 da 3c 24 00 23 3d
       0.059067257 0.024997415 0.026612531 0.039795056
000170 53 31 b5 3c 03 78 ba 3c ec c9 c1 3c 8b bf 2a 3d
       0.022118246 0.022762304 0.023655854 0.041686576
000180 00 55 e7 3c c9 af 33 3d aa 83 26 3d 1e eb 51 3d
       0.028238773 0.043868814 0.04065291 0.051249616
000190 dc 1a 1f bb 92 1d 8e bb 6c 2e 64 bb 3f da 90 bc
       -0.0024277484 -0.004337021 -0.0034817709 -0.017682193
0001a0 95 a2 b7 bc a2 3d 77 bc f3 e9 13 bd ae b3 c4 bc
       -0.022416392 -0.015090378 -0.036111783 -0.02401146
0001b0 42 49 2f bc b9 2c c9 3c 33 66 c3 bc 97 ea 80 3c
       -0.010698618 0.024557458 -0.023852443 0.015736861
0001c0 50 46 a6 bb f5 50 89 bb 4f a0 d1 bc 79 4d 80 3c
       -0.0050743 -0.004190559 -0.025589136 0.015661942
0001d0 e2 62 99 3a 59 53 c2 3a b0 b9 eb 3b 93 ad 98 3b
       0.0011702443 0.0014825865 0.0071937665 0.0046593635
0001e0 2a 65 51 3c b0 82 57 3c f6 89 27 bc a7 c5 b7 bc
       0.012780467 0.013153717 -0.010225764 -0.022433115
0001f0 75 34 9c bb a1 bc c9 3c 95 7e 8d bb 55 14 45 3c
       -0.0047669956 0.024626078 -0.0043180683 0.012028773
000200 b2 be 73 ba 8a 50 a6 3c 0f df 3b 3c 13 c9 c3 3c
       -0.000929813 0.020302076 0.0114667555 0.02389959
000210 8e c0 a3 3c 2b c1 92 bc 7b 87 b7 3c 0b 2c 79 3c
       0.019989278 -0.017914375 0.02240347 0.015208255
000220 4e fe 2d 3c 6e 65 e6 3c 84 e6 81 3c b0 82 2c bc
       0.010619713 0.028124537 0.015856989 -0.010529205
000230 b2 89 b2 ba f4 e5 f9 ba d2 e8 ae bb c2 45 c2 bc
       -0.0013621359 -0.0019065724 -0.005337813 -0.023714904
000240 67 31 4f 3c 68 65 d5 bb 71 26 af bc b3 88 08 3c
       0.012646056 -0.0065123327 -0.021380635 0.008333373
000250 72 e7 35 ba e6 d2 d3 3c bd 8a 00 80 04 8a 00 00
       -0.000693909 0.0258574 -4.977e-41 4.951e-41
000260 b1 89 00 00 b9 88 00 80 ec 88 00 00 d3 88 00 80
       4.9394e-41 -4.9047e-41 4.9118e-41 -4.9083e-41
000270 2d 89 00 00 1f 90 00 80 91 89 00 80 ac 8f 00 00
       4.921e-41 -5.1701e-41 -4.935e-41 5.154e-41
000280 33 8b 00 00 e9 88 00 00 2a 8a 00 80 f2 8a 00 00
       4.9935e-41 4.9114e-41 -4.9564e-41 4.9844e-41
000290 5a 8a 00 00 40 8a 00 80 a0 8c 00 00 f2 89 00 80
       4.9631e-41 -4.9595e-41 5.0447e-41 -4.9485e-41
0002a0 28 89 00 80 9f 8a 00 00 0d ab 00 80 42 8a 00 00
       -4.9202e-41 4.9728e-41 -6.1361e-41 4.9598e-41
0002b0 81 8a 00 80 ba 95 00 80 f0 89 00 00 5b 7c 29 3c
       -4.9686e-41 -5.3712e-41 4.9483e-41 0.01034459
0002c0 7f 81 2e 3d b3 1c 66 3d 73 5e 6d 3d 05 72 dc 3c
       0.042603966 0.056179713 0.057951402 0.026909837
0002d0 7b c9 06 3d d2 bb 3c 3c 3b 00 17 3d 37 79 d4 3b
       0.03290699 0.011519389 0.036865454 0.0064841765
0002e0 f0 34 16 3d b6 8c 7c 3d 6c bf 46 3d 3e 03 9d 3d
       0.03667158 0.06165763 0.048522398 0.07666634
0002f0 47 41 a9 3d aa 29 86 3d bf fc ae 3c ad 62 69 3d
       0.08264404 0.065509155 0.021360753 0.05697887
000300 55 3a 00 3d a9 1b 9f 3d 85 0a 9d 3d bc 4c 12 3d
       0.03130563 0.07768948 0.07668022 0.03571771
000310 e8 d3 f4 3c a5 b8 5b 3c f7 85 c3 3c 66 02 72 3d
       0.029886201 0.013410722 0.02386759 0.05908432
000320 e8 93 00 80 20 8f 00 80 4d 8a 00 00 e1 8a 00 80
       -5.3059e-41 -5.1344e-41 4.9613e-41 -4.982e-41
000330 18 89 00 80 16 89 00 80 74 89 00 00 60 89 00 00
       -4.918e-41 -4.9177e-41 4.9309e-41 4.9281e-41
000340 37 8a 00 00 d5 88 00 80 c6 88 00 00 1e 8a 00 00
       4.9582e-41 -4.9086e-41 4.9065e-41 4.9547e-41
000350 48 8b 00 00 16 8d 00 80 1a a4 00 00 f8 8a 00 80
       4.9965e-41 -5.0612e-41 5.8869e-41 -4.9853e-41
000360 89 8c 00 80 55 89 00 80 9f 8e 00 00 07 89 00 80
       -5.0415e-41 -4.9265e-41 5.1163e-41 -4.9156e-41
000370 a8 92 00 80 b7 8c 00 00 07 8a 00 80 e0 89 00 00
       -5.261e-41 5.0479e-41 -4.9515e-41 4.946e-41
000380 0a 8f 00 00 c6 87 1d 3d 20 8a 05 3d eb 2e fe 3c
       5.1313e-41 0.03845956 0.03260243 0.031028232
000390 54 fc 16 3d 27 0e 17 3d 03 6f 1f 3d 02 a2 7a 3c
       0.036861733 0.03687873 0.03892423 0.015297415
0003a0 3e 38 0a 3d 29 9c 25 3d 90 c4 56 3d 38 bc bb 3c
       0.033745043 0.04043213 0.05243355 0.022916898
0003b0 69 6a 33 3d cf 6c 71 3d d1 60 22 3d 73 be 03 3d
       0.043802653 0.05894166 0.039643113 0.03216405
0003c0 49 bb 3b 3d d8 33 87 3d 34 4f 99 3c 7a fd 82 3d
       0.045832906 0.06601685 0.018714525 0.06396003
0003d0 22 75 3d 3d 30 6d 07 3d e6 de 5c 3d d4 da 27 3d
       0.046254285 0.033063114 0.05392351 0.040980175
0003e0 5e 9e dd 3b 57 25 4d 3d 92 17 53 3c 4c a3 3b 3c
       0.0067632636 0.05008444 0.012884038 0.011452507
0003f0 d2 c1 b6 3b 28 e4 3e 3c 5e 1c 1d 3c 89 52 2f 3c
       0.0055773044 0.011651076 0.009589283 0.01070083

e_conv3.bias f4 [3]
000000 fe 57 8f 3c 4a 61 04 bc d7 89 00 00
       0.017498013 -0.008079836 4.9448e-41

e_conv4.weight f4 [3, 6, 7, 7]
000000 a8 74 a2 3c 3c d1 93 3b 8b 87 3b 3c 0a 26 03 3d
       0.019831017 0.0045110267 0.01144589 0.0320187
000010 b3 d9 5c 3d f8 40 d1 3b e6 fd d9 3c f7 67 e5 3c
       0.05391855 0.0063859187 0.026610326 0.028003676
000020 ef 2b b9 3c c5 55 41 3b 92 f3 ed 3c 3b 5c 63 3d
       0.022603957 0.0029500586 0.029046807 0.05550788
000030 b4 7f 88 3c e4 03 21 3d 03 03 b3 3c 8e 87 dd 3c
       0.016662456 0.03931035 0.021852022 0.027042177
000040 18 b6 b3 3c 97 9d 00 3d d6 7d cb 3c 6c c2 18 3d
       0.021937415 0.03140029 0.024840277 0.03729479
000050 3c 2c 56 3d c2 fa e4 3c 40 b7 27 3c fc ba ff 3c
       0.05228828 0.027951602 0.010236561 0.03121709
000060 cd 1b 89 3c 20 5d 83 3c e1 2a ae 3c b6 3b 93 3c
       0.01673689 0.016035616 0.02126068 0.017972808
000070 c1 f6 35 3d 9e 1b 27 3d 5c 10 2c 3c 20 26 df 3c
       0.044424776 0.040797822 0.010501947 0.02723986
000080 00 07 02 bc 63 7f 0a 3d f8 37 c2 3c 5f 1d d4 3c
       -0.007936239 0.03381289 0.023708329 0.025892911
000090 31 31 12 3d c6 11 2b 3d df 44 dd 3c 39 6f 9f 3c
       0.035691444 0.041764997 0.02701038 0.019462215
0000a0 80 4d d8 3b 0e bf f5 3c 3f a0 28 3c 58 ed 91 3c
       0.0066010356 0.029998329 0.010292112 0.01781337
0000b0 18 56 8d 3c af be 14 3d a9 35 8e 3b 68 3a 29 3d
       0.017252967 0.036314663 0.004339893 0.041315466
0000c0 d6 86 21 3d 70 7c 43 3c eb e4 b2 bb 41 52 77 3c
       0.03943523 0.011931524 -0.005459418 0.015095294
0000d0 f3 3e ce bb e0 e1 52 bb 25 c6 e2 bc 1e 33 07 3c
       -0.006294125 -0.003217809 -0.027682373 0.008251933
0000e0 8a e5 74 bb d9 e8 12 bc ff bc 97 3a 65 51 44 3c
       -0.0037368261 -0.008966648 0.0011576711 0.011982297
0000f0 9c ba 74 3c 5e bc 54 3c 61 38 0e 3c 02 e0 71 ba
       0.014937069 0.012984363 0.008680434 -0.00092268
000100 cb 04 eb ba 8a a4 7d bb b8 2d 76 3b 21 a4 19 3b
       -0.0017930506 -0.003870281 0.0037563872 0.0023443776
000110 20 17 5a 3c bc 53 0b bc 6c 01 b4 3b 10 51 ed bb
       0.0133111775 -0.008503851 0.0054933336 -0.0072423294
000120 80 56 97 3c 22 69 75 bb aa 51 10 bc c6 bc bf bb
       0.018473864 -0.0037446697 -0.008808533 -0.005851361
000130 e1 0f 13 bc 8d a2 83 bb 39 46 8f bb 8c db 14 bc
       -0.008975954 -0.0040171803 -0.004372385 -0.009085547
000140 16 27 96 3c 82 d3 ea 3b 4d b5 dd bc 02 6a c5 ba
       0.018329185 0.007166327 -0.02706399 -0.00150615
000150 36 13 7c 3c 56 63 a3 3b b4 da 2d 3c db ea e2 bb
       0.01538544 0.004986207 0.010611225 -0.0069249696
000160 7c 27 31 3c 20 73 d4 3b ec b2 dc 3a 87 e3 05 3c
       0.010812636 0.0064834505 0.0016837991 0.0081719225
000170 0a 44 91 bb b2 20 bd bb f3 93 8e bc ca 67 ce 3c
       -0.0044331597 -0.00577172 -0.017404532 0.025195975
000180 2e 9d 28 3a f7 76 d9 bb 3b 94 e7 bb 23 6d 23 3d
       0.0006432113 -0.006636496 -0.007067231 0.039899003
000190 c2 dd 2a 3b 9d fc 04 3c 12 0d d1 38 26 d3 7c 3c
       0.002607212 0.008116868 9.968331e-05 0.015431201
0001a0 8e 43 6e 3c 40 73 d4 3c 58 f9 a1 bc 3c 2f 51 3b
       0.0145424735 0.025933862 -0.019772217 0.0031919023
0001b0 65 84 9b 3b ca fa 1e 3b 99 d6 2d 3c 41 87 83 3c
       0.0047460073 0.0024258369 0.010610246 0.016055705
0001c0 a1 80 92 3c 16 45 c5 b9 25 27 d0 bc 4b 16 da 3c
       0.0178836 -0.0003762624 -0.02540929 0.026621958
0001d0 32 b5 10 3c ce 9f 14 3d e2 30 cf 3b fd 60 e7 3c
       0.008832263 0.036285214 0.006322966 0.02824449
0001e0 f9 82 42 bc 98 b0 85 bc ba b4 eb bc 81 f1 88 3c
       -0.011872047 -0.016319558 -0.0287727 0.01671672
0001f0 97 1f 56 bb 6e 1d f3 bb 50 c0 17 bc 33 9f c7 bc
       -0.0032672638 -0.00741928 -0.0092621595 -0.024367904
000200 9f 0b 0b 3c 71 40 b4 3c 7b 87 e9 3c 2f b3 d1 bb
       0.008486657 0.022003384 0.028506985 -0.006399534
000210 0d 9c 62 3c 09 e5 ec bb 79 a4 ae 3c 42 79 c7 3b
       0.013831151 -0.0072294516 0.021318661 0.006087453
000220 5c f7 ac bb a0 46 87 bc 49 c2 67 3c 7d aa ff 3b
       -0.005278511 -0.016513169 0.014145442 0.007802306
000230 20 c7 95 ba ba 39 d5 bc 57 2a f5 3a ff ae ca 3c
       -0.0011427142 -0.026028503 0.0018704635 0.024741648
000240 d4 b0 a7 3b 1a 50 50 3c 39 d2 9a bb 95 81 1b 3d
       0.005117515 0.01271441 -0.0047247675 0.037965376
000250 e5 6a 10 3d 2b f1 27 3d c5 a2 c6 3c f8 7a c9 3c
       0.035258193 0.04100148 0.024247536 0.024594769
000260 92 f8 8a 3d b3 6d 33 3d 1f fc 11 3d be ac 06 3b
       0.06785692 0.04380579 0.035640832 0.002054974
000270 71 90 1c 3d d6 2c 83 bc fd 28 b8 3d 70 41 5e 3d
       0.038223688 -0.01601259 0.08992193 0.054261625
000280 4d 49 53 3c 40 16 6c 3d c1 d5 d1 3c b8 f0 7c 3d
       0.012895894 0.057638407 0.025614621 0.061753005
000290 1a 31 30 3d bd 27 74 3c d7 32 0a 3c 6b 1d fb 3c
       0.043015577 0.0149020525 0.008434973 0.030653676
0002a0 66 6c a2 3c ec a4 b0 3c fe 18 08 3c 50 10 5c bb
       0.019827079 0.021563016 0.00830674 -0.003357906
0002b0 7a f9 49 3d d1 0a 87 3c bf 7d 40 3c 81 dd fc 3c
       0.049310185 0.01648465 0.01174873 0.03086734
0002c0 8b 4f d8 3b 54 f6 6e bc ad 2c 3d 3d 52 07 84 3c
       0.006601279 -0.014585096 0.046185184 0.016116772
0002d0 e3 58 9b 3c 49 c0 07 39 5b 42 22 3d 8e 95 59 3c
       0.018963283 0.00012946235 0.039614063 0.0132802855
0002e0 78 2d a0 3c 56 fd b2 3c a8 22 23 39 e6 6f 37 3d
       0.019552931 0.021849316 0.00015557802 0.04478445
0002f0 98 c2 3f 3a ba 09 0e 3d ce a3 04 3d cc 71 08 3c
       0.00073150685 0.034677245 0.03238278 0.008327913
000300 5f bf 35 3c c2 cc 8a 3c 1f 58 1a 3c 08 96 ba 3c
       0.01109299 0.01694334 0.009420424 0.022776619
000310 31 1c 39 3d 31 51 86 3d bb fa 29 3d 27 b6 6e 3d
       0.0451929 0.06558455 0.04149888 0.058279183
000320 78 29 08 3d cf a9 98 3c 80 e4 cb 3c 38 2a 86 3c
       0.033242673 0.018635659 0.02488923 0.016377553
000330 b1 0b 2a 3d 03 d6 7a 3c 02 8f 36 3d 3a 4a 36 3c
       0.041515056 0.015309813 0.044569977 0.011126095
000340 6a 7a cd bb a7 bd 66 3c 9d 7c 24 3d d9 66 17 3d
       -0.0062706964 0.014083303 0.040157903 0.036963318
000350 9c ed 43 3c 3a d0 39 3d 34 ca 5e 3d b4 78 ef 3c
       0.011958506 0.045364596 0.054392055 0.02923236
000360 07 64 82 3d f3 22 3a 3d f3 64 93 bc 5f e6 e6 3b
       0.06366735 0.045443486 -0.017992472 0.0070465053
000370 bd 33 ff 3c 5d 25 32 3d 3d 5f a0 3c 31 49 47 3c
       0.0311526 0.043492664 0.019576663 0.012163446
000380 c6 74 3d 3d 9c 7c a5 3c 13 38 24 3c 85 6f d9 3c
       0.046253942 0.02020102 0.010023135 0.026542434
000390 9f 79 c4 3c d9 c6 a0 3c 87 17 07 3d 47 1e 46 3c
       0.023983775 0.019626068 0.03298142 0.01209218
0003a0 02 34 d9 3c 3c 92 e6 3c ca 5f 93 3c 84 88 d2 3b
       0.026514057 0.028145902 0.017990012 0.0064249653
0003b0 39 80 b0 bc f0 e5 fc 3c 9a 2e 06 3d f7 fd af bb
       -0.021545516 0.030871361 0.032759286 -0.005370851
0003c0 1c dd 9f 3c f1 d2 a9 3c 33 1a 0d bc 15 b3 38 3d
       0.019514613 0.020730468 -0.008612203 0.04509266
0003d0 31 9f 81 3b c5 8b 00 80 f9 88 00 80 07 8b 00 80
       0.0039557447 -5.014e-41 -4.9137e-41 -4.9874e-41
0003e0 d9 8b 00 80 5b 8a 00 80 75 8b 00 80 f5 89 00 80
       -5.0168e-41 -4.9633e-41 -5.0028e-41 -4.949e-41
0003f0 a0 8a 00 80 06 8a 00 80 fe 88 00 80 d9 89 00 80
       -4.9729e-41 -4.9513e-41 -4.9144e-41 -4.945e-41

e_conv4.bias f4 [3]
000000 a5 05 7b 3c 35 c9 eb 3c 95 b2 9a 9d
       0.01532117 0.028782466 -4.094811e-21

e_conv5.weight f4 [3, 12, 3, 3]
000000 07 89 00 00 3f 92 00 00 e9 88 00 00 15 89 00 00
       4.9156e-41 5.2463e-41 4.9114e-41 4.9176e-41
000010 57 92 00 80 fd 89 00 00 bb 8b 00 00 35 8a 00 00
       -5.2497e-41 4.9501e-41 5.0126e-41 4.958e-41
000020 6c 8a 00 00 6c 77 ef 3c a8 da 07 3d af ec f1 3c
       4.9656e-41 0.02923175 0.03316751 0.029531805
000030 b7 b0 fd 3c f1 df 0f 3d 04 c0 fe 3c 44 62 ea 3c
       0.030968053 0.035125677 0.03109742 0.02861131
000040 e4 80 04 3d 10 1b ea 3c 57 89 00 80 97 8a 00 80
       0.032349482 0.028577358 -4.9268e-41 -4.9717e-41
000050 05 89 00 80 2c 8a 00 00 0a 8d 00 80 4a 9e 00 80
       -4.9153e-41 4.9567e-41 -5.0595e-41 -5.6783e-41
000060 dc 8e 00 00 8d 89 00 80 fc 8b 00 00 fe 2c db 3c
       5.1248e-41 -4.9344e-41 5.0217e-41 0.026754852
000070 c7 db e7 3c 75 9f de 3c 89 41 e0 3c b0 d5 ed 3c
       0.02830304 0.027175644 0.027375 0.029032558
000080 5e 6f e3 3c fc fa da 3c 11 9b e8 3c 52 41 de 3c
       0.027763065 0.026731007 0.028394254 0.027130757
000090 c3 33 1f 3c c3 30 27 3c ab b9 27 3c f6 42 25 3c
       0.009716931 0.010204497 0.010237138 0.0100867655
0000a0 36 75 2c 3c de 37 2d 3c 6c 9e 23 3c 88 fd 28 3c
       0.010525992 0.010572402 0.009986501 0.010314353
0000b0 63 90 2a 3c aa 0c 5b 3c 60 44 67 3c f1 4c 5b 3c
       0.010410401 0.013369719 0.014115423 0.0133850435
0000c0 eb 0b 59 3c 99 ba 65 3c a2 2c 57 3c 51 08 4d 3c
       0.01324747 0.014021539 0.0131332 0.01251419
0000d0 de 48 58 3c a8 83 49 3c 90 05 ba 3c 70 54 ba 3c
       0.013200967 0.012299456 0.02270773 0.022745341
0000e0 c3 2b bb 3c fe 6b b7 3c 49 45 b8 3c b7 a1 b9 3c
       0.022848016 0.022390362 0.022493975 0.02266012
0000f0 10 c4 b3 3c cc 8a b4 3c 37 64 b5 3c b5 9f cc 3c
       0.021944076 0.02203884 0.022142513 0.024978498
000100 27 38 ca 3c a0 2e ca 3c 83 93 ca 3c c1 ac c8 3c
       0.024684979 0.024680436 0.024728542 0.024496438
000110 77 a6 c7 3c 47 30 c4 3c cf 5f c2 3c 60 6b c1 3c
       0.024371369 0.023948802 0.023727326 0.02361077
000120 1a 89 00 00 2e a1 00 80 ac 8a 00 00 78 8a 00 00
       4.9183e-41 -5.782e-41 4.9746e-41 4.9673e-41
000130 ea 89 00 00 d4 88 00 00 f9 8a 00 00 35 89 00 00
       4.9474e-41 4.9085e-41 4.9854e-41 4.922e-41
000140 11 8a 00 00 21 dd b8 3c 88 3b b2 3c 86 10 b5 3c
       4.9529e-41 0.02256638 0.021756902 0.022102606
000150 7a 97 b5 3c cb ac ae 3c e2 48 b1 3c 81 e7 b3 3c
       0.022166956 0.021322628 0.021641199 0.021960976
000160 29 2d ad 3c 7c 98 af 3c fd 5e b4 3c b6 4e af 3c
       0.021139698 0.021435015 0.02201795 0.021399837
000170 17 22 b2 3c 74 7e b0 3c fe 50 ab 3c 24 44 ae 3c
       0.02174477 0.021544673 0.020912644 0.021272726
000180 8a a9 ae 3c 91 ad a9 3c 57 5d ac 3c a2 a8 9b 33
       0.021321077 0.020712646 0.021040602 7.248424e-08
000190 2f 63 9d 33 a1 0d 9d 33 53 f3 97 33 f7 88 9b 33
       7.3289236e-08 7.313361e-08 7.075746e-08 7.242664e-08
0001a0 05 cd 9c 33 01 39 97 33 55 96 96 33 0a 3b 98 33
       7.301609e-08 7.0418544e-08 7.0122645e-08 7.088791e-08
0001b0 b9 8f 00 00 e2 88 00 80 cc 89 00 80 d3 94 00 00
       5.1558e-41 -4.9104e-41 -4.9432e-41 5.3388e-41
0001c0 74 8b 00 00 73 89 00 00 df 89 00 80 32 8a 00 00
       5.0026e-41 4.9307e-41 -4.9459e-41 4.9575e-41
0001d0 21 8b 00 00 99 a1 ec 3c c4 86 00 3d 5f 65 f1 3c
       4.991e-41 0.02888565 0.031378523 0.029467283
0001e0 0c 6f f5 3c 14 85 04 3d fb ab f8 3c 71 7a 8f 3c
       0.029960178 0.032353476 0.030355444 0.01751444
0001f0 d4 6d fb 3c 5f 0a ec 3c 11 90 00 00 15 89 00 00
       0.030692019 0.02881354 5.1681e-41 4.9176e-41
000200 e1 88 00 00 4b 8d 00 80 d9 89 00 00 c8 89 00 00
       4.9103e-41 -5.0686e-41 4.945e-41 4.9427e-41
000210 70 8b 00 80 de 88 00 00 d6 89 00 80 cb 95 d6 3c
       -5.0021e-41 4.9099e-41 -4.9446e-41 0.026194474
000220 de 0c d9 3c 1e bb c7 3c 01 5b d6 3c cb 58 da 3c
       0.026495393 0.024381217 0.02616644 0.026653668
000230 e4 f0 d7 3c 55 96 d3 3c 9f d0 b3 3c b4 02 d7 3c
       0.026359983 0.02582852 0.021950064 0.026246406
000240 cb 9a 0a 3c 5c 96 10 3c b7 c0 14 3c bb 46 71 3b
       0.008459757 0.008824911 0.00907915 0.003681584
000250 6e 8c 11 3c d5 ba 15 3c 3b c0 11 3c 48 1c 19 3c
       0.008883579 0.0091387825 0.008895929 0.009345122
000260 be 5e 15 3c 32 8c 44 3c 61 a3 48 3c 40 6a 46 3c
       0.009116827 0.011996316 0.012245984 0.012110293
000270 5b e7 40 3c 63 89 47 3c 1b b3 42 3c 77 32 42 3c
       0.011773909 0.012178752 0.011883522 0.011852852
000280 82 01 c3 3b b1 6e 18 3c 6b 5c b5 3c 92 4f aa 3c
       0.0059511075 0.009303735 0.022138795 0.020789895
000290 8e 5f 5c 3c 65 ad 27 3c 5d fc b3 3c 8f a8 e1 3c
       0.013450516 0.010234212 0.021970922 0.027546195
0002a0 7c 98 c5 3c 83 75 b1 3c c8 01 b3 3c 5c 7e b2 3c
       0.024120562 0.02166248 0.021851435 0.021788768
0002b0 26 03 a5 3c ab 9f bb 3c 83 7a c7 3c 83 01 03 3d
       0.020143103 0.022903284 0.02435041 0.031983864
0002c0 f9 00 df 3c 66 ac c3 3c f2 84 c3 3c ed 7d c7 3c
       0.027222143 0.023885917 0.023867104 0.024352038
0002d0 15 8b 00 00 c5 8a 00 00 47 89 00 00 27 8a 00 00
       4.9893e-41 4.9781e-41 4.9246e-41 4.956e-41
0002e0 b6 89 00 00 fa 8a 00 00 68 8a 00 00 29 89 00 00
       4.9401e-41 4.9855e-41 4.9651e-41 4.9204e-41
0002f0 f7 88 00 00 ad 53 c4 3c ac 9c bf 3c d2 09 c6 3c
       4.9134e-41 0.023965681 0.023390137 0.024174605
000300 62 37 bd 3c d2 3d c3 3c 72 4a c0 3c ae 3c b7 3c
       0.023097698 0.02383319 0.023472998 0.022367802
000310 36 46 b9 3c 24 89 b6 3b 03 7c 94 3c c3 23 05 3d
       0.022616487 0.0055705477 0.01812554 0.03250481
000320 6b a9 c2 3c bd c7 52 3c 2f bf b7 3c 42 5e 06 3d
       0.023762425 0.012865004 0.02243003 0.032804735
000330 21 54 b6 3c 8b bc b4 3c df 71 b9 3c a5 67 1b 35
       0.022256913 0.02206256 0.022637306 5.789282e-07
000340 7e e3 1a 35 f0 98 25 35 15 dd 1c 35 90 f7 1a 35
       5.7700515e-07 6.1689843e-07 5.8436245e-07 5.772972e-07
000350 d9 88 1b 35 46 44 20 35 d6 59 19 35 98 ea 1b 35
       5.794114e-07 5.9703996e-07 5.712767e-07 5.808338e-07
000360 b8 8a 00 00 10 8a 00 80 7a 8b 00 80 25 8b 00 80
       4.9763e-41 -4.9527e-41 -5.0035e-41 -4.9916e-41
000370 62 89 00 80 ff 8a 00 80 c7 92 00 80 83 90 00 80
       -4.9284e-41 -4.9862e-41 -5.2654e-41 -5.1841e-41
000380 44 8a 00 00 c7 9d 31 3d 53 a6 9d 3a a6 8b d7 3c
       4.96e-41 0.04336336 0.0012027718 0.026311707
000390 b8 10 23 3b 01 41 a2 b8 e7 23 09 3d 36 90 7d 3c
       0.0024881791 -7.73687e-05 0.033481505 0.015476277
0003a0 9b 0a 39 3d a3 08 89 3c 2d 8a 00 00 15 8a 00 80
       0.04517613 0.016727751 4.9568e-41 -4.9534e-41
0003b0 8b 8e 00 80 35 8b 00 80 fd a0 00 00 b2 8a 00 80
       -5.1135e-41 -4.9938e-41 5.7752e-41 -4.9755e-41
0003c0 af 89 00 00 4c 89 00 80 bd 88 00 80 cb 60 b5 3c
       4.9392e-41 -4.9253e-41 -4.9052e-41 0.022140881
0003d0 48 ab 30 3d b5 35 19 3d 8b d3 ea 3c 0e 16 f9 3b
       0.043132097 0.037404735 0.028665325 0.007601506
0003e0 4b bf a5 3c 92 3f 09 3d 5f 9b 3a 3d 9b 50 2e 3d
       0.020232817 0.03350789 0.04555833 0.04255734
0003f0 b5 75 60 bb 55 a5 2f bb 43 e8 38 3c 76 4a 8b b9
       -0.0034249846 -0.0026801426 0.011285844 -0.00026567624

e_conv5.bias f4 [3]
000000 6e 3b c3 bb b7 69 fd bb 0a 71 36 3d
       -0.0059580123 -0.0077335495 0.044541396
