ai_server/checkpoints/Epoch1.pth (torch, 10794 bytes, 10 tensors)

e_conv1.weight f4 [3, 3, 1, 1]
-5.0684e-41 -5.0228e-41 -4.958e-41 0.07101171 0.14504196 0.2308977 4.9048e-41 -5.5875e-41
-5.0989e-41
00000000: 498d 0080 048c 0080 358a 0080 966e 913d
00000010: e185 143e 7270 6c3e ba88 0000 c29b 0080
00000020: 238e 0080

e_conv1.bias f4 [3]
-0.07884534 0.42809018 -4.556013e-05
00000000: aa79 a1bd a32e db3e d117 3fb8

e_conv2.weight f4 [3, 3, 3, 3]
4.9298e-41 -5.1784e-41 -5.3664e-41 -4.944e-41 -4.9694e-41 4.9522e-41 -4.9145e-41 4.9399e-41
4.9959e-41 0.054746754 0.080771975 0.01967344 0.018685734 0.017547086 0.042278666 0.032431412
0.046211474 0.028756319 -4.9316e-41 4.9753e-41 5.2083e-41 4.9595e-41 -5.1918e-41 5.06e-41
-4.9319e-41 -5.0427e-41 4.9093e-41 5.2648e-41 5.0835e-41 4.9272e-41 -5.4078e-41 4.9399e-41
-4.949e-41 -4.9544e-41 -4.9445e-41 -4.9788e-41 0.03897483 -0.0052892203 0.034018338 0.010017901
0.013073545 0.0073013096 0.010436835 0.023274887 0.003854701 -4.9825e-41 -6.2539e-41 -4.9183e-41
-4.9582e-41 -6.1503e-41 -5.9082e-41 -5.1362e-41 -5.1805e-41 -4.9476e-41 -4.9188e-41 5.0071e-41
5.006e-41 -5.1492e-41 -4.9085e-41 4.9123e-41 -4.9083e-41 -4.9385e-41 -4.9205e-41 0.0069023552
0.034238897 0.024685934 0.013140241 0.037911788 0.00258525 0.040235844 0.023929277 0.04257103
-4.9616e-41 -5.0335e-41 -6.1148e-41 4.9883e-41 -5.9648e-41 5.0976e-41 -4.9323e-41 4.94e-41
-4.9484e-41
00000000: 6c89 0000 5a90 0080 9895 0080 d289 0080
00000010: 878a 0080 0c8a 0000 ff88 0080 b489 0000
00000020: 448b 0000 223e 603d c76b a53d 322a a13c
00000030: d312 993c e8be 8f3c 652c 2d3d cdd6 043d
00000040: 3e48 3d3d 5f92 eb3c 7989 0080 b18a 0000
00000050: 3091 0000 408a 0000 ba90 0080 0d8d 0000
00000060: 7b89 0080 928c 0080 da88 0000 c392 0000
00000070: b58d 0000 5a89 0000 bf96 0080 b489 0000
00000080: f589 0080 1c8a 0080 d589 0080 ca8a 0080
00000090: 12a4 1f3d 3251 adbb d056 0b3d 1f22 243c
000000a0: 6c32 563c d33f ef3b 42ff 2a3c faaa be3c
000000b0: 279f 7c3b e48a 0080 55ae 0080 1a89 0080
000000c0: 378a 0080 72ab 0080 b2a4 0080 2d8f 0080
000000d0: 6990 0080 eb89 0080 1e89 0080 948b 0000
000000e0: 8c8b 0000 8a8f 0080 d488 0080 ef88 0000
000000f0: d388 0080 aa89 0080 2a89 0080 272d e23b
00000100: 163e 0c3d 283a ca3c 2a4a 573c 6449 1b3d
00000110: 4c6d 293b 57ce 243d 5507 c43c f65e 2e3d
00000120: 4f8a 0080 508c 0080 75aa 0080 0e8b 0000
00000130: 46a6 0080 1a8e 0000 7e89 0080 b589 0000
00000140: f189 0080

e_conv2.bias f4 [3]
-0.029776076 0.049310267 0.07121419
00000000: f5ec f3bc 90f9 493d bfd8 913d

e_conv3.weight f4 [3, 6, 5, 5]
-4.927e-41 -4.9567e-41 4.9267e-41 -5.0218e-41 -5.0078e-41 4.973e-41 -4.9689e-41 -4.9219e-41
-4.9641e-41 -5.2763e-41 4.9495e-41 -4.9375e-41 5.0007e-41 -4.945e-41 4.9689e-41 4.9431e-41
4.9427e-41 6.037e-41 -4.9228e-41 4.9216e-41 -4.9394e-41 4.9361e-41 -4.9435e-41 -4.9527e-41
-6.0921e-41 0.027654897 0.0076902434 0.023885105 0.042538226 0.031595696 0.045625772 0.017664725
0.031065103 -0.0020814312 0.0075945864 0.042955536 0.05805895 0.029345095 0.025126688 0.010078743
0.034607418 0.012168867 0.013167689 0.044848274 0.009657589 0.01260686 0.015328627 0.039714094
0.027677689 0.038296428 5.1515e-41 4.9158e-41 4.9609e-41 4.9222e-41 4.9167e-41 4.9495e-41
-4.9107e-41 4.9543e-41 -4.9263e-41 -4.9422e-41 4.9565e-41 -4.9432e-41 4.9851e-41 6.2698e-41
4.9062e-41 5.1252e-41 -4.9344e-41 4.9549e-41 -5.3681e-41 -4.9289e-41 6.0095e-41 -4.9104e-41
5.0922e-41 -4.9265e-41 -4.9214e-41 0.029194282 0.0248626 0.020101624 0.044230346 0.05031222
0.018008735 0.03856057 0.049866837 0.032277647 0.024209896 -0.0020490293 0.057377055 0.03405644
0.06038109 0.023915403 0.025001356 0.039897747 0.02162689 0.022233214 0.022628192 0.04089417
0.027720302 0.04456096 0.041088477 0.05170281 -0.001238207 -0.0025005434 -0.0012801919 -0.016796464
-0.022335012 -0.0147726545 -0.036810957 -0.023375684 -0.008990558 0.028931186 -0.024160175 0.019652128
-0.002672262 -0.0017873248 -0.02541338 0.01882359 0.0038722095 0.004503644 0.010633018 0.0075057657
0.01567812 0.016877797 -0.008232905 -0.021577086 -0.0027576946 0.026490543 -0.003093832 0.014296537
0.0006036014 0.0224193 0.01290916 0.026691722 0.022842523 -0.016991977 0.024850985 0.016978905
0.01290758 0.031513833 0.018566316 -0.009517738 -0.00034897277 -0.00017998811 -0.0035209635 -0.02287376
0.014827657 -0.005792311 -0.020639993 0.010770603 0.0012130417 0.028623948 -4.977e-41 4.951e-41
4.9394e-41 -4.9047e-41 4.9118e-41 -4.9083e-41 4.921e-41 -5.1701e-41 -4.935e-41 5.154e-41
4.9935e-41 4.9114e-41 -4.9564e-41 4.9844e-41 4.9631e-41 -4.9595e-41 5.0447e-41 -4.9485e-41
-4.9202e-41 4.9728e-41 -6.1361e-41 4.9598e-41 -4.9686e-41 -5.3712e-41 4.9483e-41 0.008219988
0.041560836 0.055460118 0.057111036 0.025300333 0.031274945 0.010115596 0.03594798 0.00498688
0.035383325 0.060534373 0.047713444 0.07638783 0.08235214 0.06475105 0.019697554 0.056364544
0.030418355 0.07739729 0.076158255 0.03436354 0.028977776 0.012375888 0.022871392 0.058371868
-5.3059e-41 -5.1344e-41 4.9613e-41 -4.982e-41 -4.918e-41 -4.9177e-41 4.9309e-41 4.9281e-41
4.9582e-41 -4.9086e-41 4.9065e-41 4.9547e-41 4.9965e-41 -5.0612e-41 5.8869e-41 -4.9853e-41
-5.0415e-41 -4.9265e-41 5.1163e-41 -4.9156e-41 -5.261e-41 5.0479e-41 -4.9515e-41 4.946e-41
5.1313e-41 0.036814004 0.03160435 0.030216584 0.03621084 0.0356747 0.0375998 0.013674977
0.03333936 0.040250834 0.052354388 0.020916136 0.043790877 0.059966527 0.039556976 0.03119933
0.045106936 0.06723077 0.017716214 0.065208666 0.046103586 0.03169502 0.054528683 0.04116091
0.0050525554 0.050138205 0.015537896 0.014738786 0.008609178 0.01509191 0.012461664 0.013394695
00000000: 5889 0080 2c8a 0080 5689 0000 fd8b 0080
00000010: 998b 0080 a18a 0000 838a 0080 3489 0080
00000020: 618a 0080 1593 0080 f989 0000 a389 0080
00000030: 668b 0000 d989 0080 838a 0000 cb89 0000
00000040: c889 0000 49a8 0000 3a89 0080 3289 0000
00000050: b189 0080 9989 0000 ce89 0080 108a 0080
00000060: d3a9 0080 868c e23c 70fe fb3b b2aa c33c
00000070: 903c 2e3d 7d6a 013d 17e2 3a3d 9db5 903c
00000080: 3e7c fe3c 9f68 08bb 02dc f83b 25f2 2f3d
00000090: 39cf 6d3d 2065 f03c 7cd6 cd3c 5021 253c
000000a0: 82c0 0d3d ed5f 473c 4abd 573c d3b2 373d
000000b0: dd3a 1e3c 018d 4e3c ec24 7b3c 3fab 223d
000000c0: 52bc e23c b7dc 1c3d 9a8f 0000 0889 0000
000000d0: 4a8a 0000 3689 0000 0f89 0000 f989 0000
000000e0: e488 0080 1b8a 0000 5389 0080 c589 0080
000000f0: 2b8a 0000 cc89 0080 f78a 0000 c7ae 0000
00000100: c488 0000 df8e 0000 8d89 0080 1f8a 0000
00000110: a495 0080 6689 0080 85a7 0000 e288 0080
00000120: f38d 0000 5589 0080 3089 0080 d928 ef3c
00000130: a7ac cb3c 29ac a43c e12a 353d 3014 4e3d
00000140: 0e87 933c b0f1 1d3d 2b41 4c3d 9135 043d
00000150: d553 c63c 0249 06bb 3404 6b3d c47e 0b3d
00000160: 2952 773d 3cea c33c a5cf cc3c d26b 233d
00000170: e02a b13c 6e22 b63c c25e b93c a580 273d
00000180: b015 e33c 8e85 363d 644c 283d 53c6 533d
00000190: 554b a2ba 28e0 23bb 1dcc a7ba bd98 89bc
000001a0: eaf7 b6bc 0109 72bc 16c7 16bd 5d7e bfbc
000001b0: 224d 13bc 1801 ed3c 8feb c5bc 80fd a03c
000001c0: 1e21 2fbb ab44 eaba b82f d0bc ee33 9a3c
000001d0: e5c4 7d3b 4e93 933b 1c36 2e3c edf2 f53b
000001e0: 676f 803c 4e43 8a3c 4ee3 06bc 6ec2 b0bc
000001f0: 70ba 34bb b202 d93c e3c1 4abb 063c 6a3c
00000200: 013b 1e3a aea8 b73c f180 533c 99a8 da3c
00000210: 3e20 bb3c c232 8bbc 4b94 cb3c 5817 8b3c
00000220: 507a 533c a614 013d 6318 983c 49f0 1bbc
00000230: 55f6 b6b9 31bb 3cb9 f7bf 66bb c061 bbbc
00000240: b3ef 723c 6dcd bdbb 3415 a9bc 2f77 303c
00000250: edfe 9e3a c57c ea3c bd8a 0080 048a 0000
00000260: b189 0000 b988 0080 ec88 0000 d388 0080
00000270: 2d89 0000 1f90 0080 9189 0080 ac8f 0000
00000280: 338b 0000 e988 0000 2a8a 0080 f28a 0000
00000290: 5a8a 0000 408a 0080 a08c 0000 f289 0080
000002a0: 2889 0080 9f8a 0000 0dab 0080 428a 0000
000002b0: 818a 0080 ba95 0080 f089 0000 21ad 063c
000002c0: b23b 2a3d 262a 633d 43ed 693d a542 cf3c
000002d0: 281a 003d e2bb 253c 303e 133d fb68 a33b
000002e0: 1bee 103d e4f2 773d 2c6f 433d 3971 9c3d
000002f0: 3da8 a83d 339c 843d c45c a13c 82de 663d
00000300: ea2f f93c 7882 9e3d dcf8 9b3d c9c0 0c3d
00000310: cd62 ed3c 3dc4 4a3c c95c bb3c 5717 6f3d
00000320: e893 0080 208f 0080 4d8a 0000 e18a 0080
00000330: 1889 0080 1689 0080 7489 0000 6089 0000
00000340: 378a 0000 d588 0080 c688 0000 1e8a 0000
00000350: 488b 0000 168d 0080 1aa4 0000 f88a 0080
00000360: 898c 0080 5589 0080 9f8e 0000 0789 0080
00000370: a892 0080 b78c 0000 078a 0080 e089 0000
00000380: 0a8f 0000 48ca 163d 9073 013d c588 f73c
00000390: d151 143d a21f 123d 3f02 1a3d 030d 603c
000003a0: da8e 083d 0fde 243d 8e71 563d 5158 ab3c
000003b0: 105e 333d 769f 753d 7f06 223d bd95 ff3c
000003c0: 0dc2 383d 49b0 893d 9821 913c 1f8c 853d
000003d0: 1dd7 3c3d a3d2 013d 7859 5f3d 5898 283d
000003e0: e88f a53b b85d 4d3d a992 7e3c f37a 713c
000003f0: 820d 0d3c 0f44 773c 022c 4c3c 6c75 5b3c

e_conv3.bias f4 [3]
0.024251562 -0.0012743258 -1.2147563e-06
00000000: 36ab c63c 4707 a7ba b50a a3b5

e_conv4.weight f4 [3, 6, 7, 7]
0.019499846 0.0022680257 0.010282898 0.034284983 0.060179852 0.0043833316 0.027608594 0.029484179
0.023875095 0.00055409863 0.031025138 0.062333953 0.016817074 0.042939458 0.022209127 0.02896825
0.022661986 0.033532176 0.026063561 0.04099283 0.05819824 0.02929787 0.009042591 0.033348396
0.01602373 0.015496923 0.02201265 0.017801322 0.04888811 0.045193993 0.009173201 0.028585887
-0.012499024 0.036995787 0.024781698 0.027486904 0.03961006 0.046434373 0.02882338 0.020204715
0.0053897444 0.03255147 0.009392472 0.018855067 0.017933086 0.04013158 0.002723687 0.046447694
0.043840375 0.01733357 -0.004518643 0.022112384 -0.005598048 -0.0016096631 -0.033269733 0.012799003
-0.0025642216 -0.008735701 0.004399168 0.018260295 0.022104602 0.019533211 0.013679799 0.0011289878
0.0005472762 -0.0021172634 0.00758954 0.005822009 0.01998006 -0.008437188 0.009377268 -0.006569106
0.026637089 -0.0022184274 -0.008677325 -0.004826486 -0.00906717 -0.002849737 -0.0028289275 -0.008915417
0.026346486 0.012015891 -0.032163396 0.0006473494 0.022370415 0.009433825 0.01673189 -0.0060513075
0.016937243 0.011345531 0.0049296026 0.013197156 -0.0025751686 -0.004253771 -0.019394772 0.035676274
0.003935864 -0.005704491 -0.007001728 0.047759246 0.0045825443 0.010888276 0.0016849942 0.019410761
0.017948577 0.03134023 -0.021129744 0.0053417454 0.00704701 0.004462926 0.013976449 0.019879026
0.02203026 0.0012526863 -0.027864171 0.032225985 0.011783108 0.043654762 0.008645787 0.034072354
-0.012027628 -0.017359663 -0.03188006 0.020927077 -0.0020425161 -0.0071657887 -0.009116119 -0.026284693
0.011558173 0.027111098 0.03480468 -0.005443347 0.017629368 -0.006570222 0.026783902 0.0090343915
-0.0041845147 -0.01704071 0.018523782 0.0108332 0.0004723753 -0.027979665 0.0041925157 0.030586954
0.007988753 0.01683047 -0.003699132 0.036591172 0.03521859 0.041745797 0.024275908 0.024515724
0.06961459 0.043438643 0.034525342 0.00072220765 0.03918132 -0.017649697 0.093458496 0.055712584
0.011374901 0.05782985 0.025645748 0.06405222 0.044477127 0.014838386 0.0077691427 0.030222263
0.018301854 0.021542376 0.008063957 -0.004102198 0.05107902 0.016352769 0.010535964 0.030013489
0.0059361216 -0.015879363 0.048011187 0.016320173 0.019060988 -0.0015411269 0.039292496 0.013029486
0.02004659 0.022546317 -0.00034416 0.046267986 -0.00080957555 0.03406004 0.033018056 0.008188015
0.011181589 0.017214477 0.009063317 0.022266587 0.0433387 0.06562298 0.04120815 0.05866203
0.032694012 0.017206294 0.022543121 0.013901799 0.04106487 0.014449865 0.04478964 0.010160912
-0.008184454 0.011719432 0.038570188 0.03646179 0.011064931 0.04568726 0.054914676 0.028589955
0.06305402 0.04417293 -0.020135334 0.006099523 0.031122275 0.04378543 0.018772177 0.010073485
0.04518608 0.01945007 0.009326854 0.026513636 0.023803815 0.018989386 0.031740203 0.01009093
0.026123228 0.028184399 0.017831253 0.005820447 -0.023364572 0.029709728 0.03137979 -0.0068383496
0.019214442 0.020586366 -0.009781744 0.045325372 0.0018606872 -2.4261072e-11 -2.3743799e-11 -2.3698425e-11
-2.3894048e-11 -2.4267463e-11 -2.8812099e-11 -2.9665388e-11 -2.3821887e-11 -2.3344198e-11 -2.3225219e-11 -2.3430886e-11
00000000: 24be 9f3c 28a3 143b 9a79 283c 696e 0c3d
00000010: 267f 763d 0da2 8f3b 6b2b e23c ce88 f13c
00000020: b495 c33c ee40 113a 6e28 fe3c e351 7f3d
00000030: f6c3 893c 49e1 2f3d eaef b53c d34e ed3c
00000040: a1a5 b93c 0959 093d 4083 d53c 19e8 273d
00000050: 4761 6e3d 1602 f03c 6027 143c 5498 083d
00000060: 3344 833c cee6 7d3c df53 b43c 14d4 913c
00000070: e63e 483d 561d 393d 324b 163c f32c ea3c
00000080: b5c8 4cbc e588 173d fd02 cb3c 372c e13c
00000090: 293e 223d f831 3e3d 021f ec3c 5c84 a53c
000000a0: 749c b03b b154 053d e2e2 193c f175 9a3c
000000b0: 68e8 923c 0361 243d e37f 323b f03f 3e3d
000000c0: f791 333d 22ff 8d3c 2011 94bb 0825 b53c
000000d0: d56f b7bb 55fb d2ba d845 08bd e9b2 513c
000000e0: 800c 28bb 3020 0fbc e526 903b 9d96 953c
000000f0: b614 b53c 1d04 a03c 3c21 603c 8bfa 933a
00000100: 1677 0f3a c9c1 0abb adb1 f83b 8dc6 be3b
00000110: 39ad a33c 223c 0abc 1da3 193c a841 d7bb
00000120: 0636 da3c 0963 11bb 572b 0ebc 8027 9ebb
00000130: 788e 14bc a7c2 3abb 8765 39bb f811 12bc
00000140: 96d4 d73c 4dde 443c c4bd 03bd e2b2 293a
00000150: 2942 b73c 5490 1a3c 5111 893c 0c4a c6bb
00000160: f9bf 8a3c 9be2 393c 8188 a13b e238 583c
00000170: 29c4 28bb 3863 8bbb c9e1 9ebc 4921 123d
00000180: 6cf8 803b bdec babb c06e e5bb 339f 433d
00000190: 2b29 963b bd64 323c 06db dc3a 5103 9f3c
000001a0: e508 933c 9d5e 003d 4918 adbc cf09 af3b
000001b0: 9bea e63b bd3d 923b 7afd 643c 57d9 a23c
000001c0: ce78 b43c 2d31 a43a 6743 e4bc 65ff 033d
000001d0: f00d 413c 56cf 323d 0fa7 0d3c 748f 0b3d
000001e0: 870f 45bc da35 8ebc aa94 02bd 436f ab3c
000001f0: bcdb 05bb fece eabb c65b 15bc ff52 d7bc
00000200: 7e5e 3d3c 1818 de3c 5a8f 0e3d 1b5e b2bb
00000210: 776b 903c 044b d7bb ea69 db3c fc04 143c
00000220: 411e 89bb f698 8bbc 30bf 973c bc7d 313c
00000230: 24a9 f739 9c35 e5bc 5f61 893b 7e91 fa3c
00000240: 42e3 023c 0ee0 893c 236d 72bb a0e0 153d
00000250: 5e41 103d a4fd 2a3d 45de c63c 33d5 c83c
00000260: 1892 8e3d b8ec 313d 726a 0d3d 8952 3d3a
00000270: 987c 203d 1996 90bc 2b67 bf3d e132 643d
00000280: cb5d 3a3c fede 6c3d 0817 d23c cf2d 833d
00000290: a62d 363d b41c 733c 4b94 fe3b ae94 f73c
000002a0: c5ed 953c a379 b03c b01e 043c bb6b 86bb
000002b0: 3c38 513d 3ef6 853c 099f 2c3c d9de f53c
000002c0: cc83 c23b 7015 82bc 61a7 443d e2b1 853c
000002d0: ca25 9c3c a3ff c9ba 2bf1 203d a079 553c
000002e0: bf38 a43c 0eb3 b83c 6070 b4b9 8083 3d3d
000002f0: b239 54ba 8a82 0b3d f13d 073d 0627 063c
00000300: fc32 373c 6005 8d3c 4f7e 143c 6b68 b63c
00000310: ec83 313d 5765 863d e1c9 283d 9947 703d
00000320: 28ea 053d 37f4 8c3c 5aac b83c 5fc4 633c
00000330: a333 283d 20bf 6c3c 5775 373d f479 263c
00000340: 1718 06bc dc02 403c c6fb 1d3d f558 153d
00000350: af49 353c 9022 3b3d 36ee 603d 7b35 ea3c
00000360: 7722 813d adee 343d dbf2 a4bc 82de c73b
00000370: 24f4 fe3c 5a58 333d 1cc8 993c 420b 253c
00000380: 0a15 393d c155 9f3c a9cf 183c 2033 d93c
00000390: 3800 c33c a18f 9b3c 0402 023d 6e54 253c
000003a0: 6100 d63c f8e2 e63c d912 923c 73b9 be3b
000003b0: 0f67 bfbc d161 f33c 1888 003d 3c14 e0bb
000003c0: 9b67 9d3c bda4 a83c 9c43 20bc 19a7 393d
000003d0: 4de2 f33a 1467 d5ad 48da d0ad 1c74 d0ad
000003e0: 9d2c d2ad 7875 d5ad 146f fdad 4278 02ae
000003f0: 1f8a d1ad 7656 cdad 8b4a ccad aa19 cead

e_conv4.bias f4 [3]
0.023205167 0.035789635 -0.00044055004
00000000: c318 be3c 2798 123d a0f9 e6b9

e_conv5.weight f4 [3, 12, 3, 3]
4.9156e-41 5.2463e-41 4.9114e-41 4.9176e-41 -5.2497e-41 4.9501e-41 5.0126e-41 4.958e-41
4.9656e-41 0.026299508 0.027804175 0.02645298 0.026914857 0.028444441 0.027011478 0.025972662
0.027359927 0.026008507 -4.9268e-41 -4.9717e-41 -4.9153e-41 4.9567e-41 -5.0595e-41 -5.6783e-41
5.1248e-41 -4.9344e-41 5.0217e-41 0.02665306 0.027248984 0.02686081 0.026829543 0.027463919
0.027032223 0.026550025 0.027184999 0.02675746 0.010328077 0.0105298 0.010537432 0.010440475
0.010620309 0.010630955 0.010348594 0.0104897125 0.010520464 0.012218084 0.012492369 0.012269034
0.012140566 0.012423777 0.012125275 0.011843119 0.012096622 0.011795544 0.021674098 0.021704046
0.021759428 0.021496361 0.021556074 0.021660263 0.021285605 0.02134465 0.02140222 0.02301685
0.022919882 0.022946073 0.022883378 0.022839308 0.022786802 0.022540057 0.022491086 0.02246553
-2.9923712e-09 -3.0920593e-09 -3.0524008e-09 -3.02786e-09 -3.0581264e-09 -3.0534302e-09 -3.0158513e-09 -3.0324028e-09
-3.0763136e-09 0.02118186 0.020930069 0.021072479 0.021021504 0.020738317 0.020863233 0.020889558
0.02062968 0.020742595 0.020850047 0.020672122 0.020792682 0.020644361 0.020449711 0.020587072
0.020514831 0.02033974 0.02044615 0.0018740562 0.0018990118 0.0018865778 0.0018400464 0.0018874485
0.001894179 0.0018354492 0.0018314056 0.001842979 5.1558e-41 -4.9104e-41 -4.9432e-41 5.3388e-41
5.0026e-41 4.9307e-41 -4.9459e-41 4.9575e-41 4.991e-41 0.02710908 0.02819829 0.027558139
0.027548544 0.028345414 0.027827878 0.015549994 0.027637757 0.027081698 5.1681e-41 4.9176e-41
4.9103e-41 -5.0686e-41 4.945e-41 4.9427e-41 -5.0021e-41 4.9099e-41 -4.9446e-41 0.026895883
0.026848217 0.024786318 0.02665793 0.026752288 0.026748564 0.026407508 0.021651017 0.02669687
0.008363474 0.008769735 0.008915062 0.0026616966 0.008736296 0.008851396 0.008687008 0.009280258
0.008789398 0.0108372625 0.010934796 0.010956593 0.010669749 0.010903685 0.010807184 0.010933637
0.0043101246 0.008201859 0.021309236 0.02011347 0.012424305 0.009211737 0.021461891 0.027051188
0.023544349 0.021171965 0.021225868 0.02024268 0.018803585 0.02143892 0.02298807 0.03099274
0.025983332 0.022663172 0.022847515 0.023197973 -8.919784e-09 -8.8326475e-09 -9.694051e-09 -8.832564e-09
-8.806071e-09 -8.9387715e-09 -8.747643e-09 -9.8637924e-09 -9.039922e-09 0.02218507 0.022188488 0.02276448
0.021600284 0.022927465 0.022351392 0.02090567 0.021738777 0.0043469104 0.0165752 0.03154789
0.022490961 0.011482314 0.02160334 0.031813744 0.020902015 0.021183807 0.021522533 0.0014325368
0.0014281187 0.0015217661 0.0014511071 0.0014338809 0.0014342561 0.0014846335 0.0014207913 0.0014396934
4.9763e-41 -4.9527e-41 -5.0035e-41 -4.9916e-41 -4.9284e-41 -4.9862e-41 -5.2654e-41 -5.1841e-41
4.96e-41 0.04125816 -0.00352721 0.023643829 -0.0013368377 -0.005618287 0.030437553 0.012815946
0.041894738 0.014082517 4.9568e-41 -4.9534e-41 -5.1135e-41 -4.9938e-41 5.7752e-41 -4.9755e-41
4.9392e-41 -4.9253e-41 -4.9052e-41 0.018138714 0.040690225 0.034808543 0.024982277 0.0014349568
0.015705641 0.030472748 0.043156 0.04029293 0.0012928813 0.0020952236 0.018123655 0.004747113
00000000: 0789 0000 3f92 0000 e988 0000 1589 0000
00000010: 5792 0080 fd89 0000 bb8b 0000 358a 0000
00000020: 6c8a 0000 1172 d73c 95c5 e33c ebb3 d83c
00000030: 8c7c dc3c 5104 e93c 2d47 dd3c 9fc4 d43c
00000040: ed21 e03c cb0f d53c 5789 0080 978a 0080
00000050: 0589 0080 2c8a 0000 0a8d 0080 4a9e 0080
00000060: dc8e 0000 8d89 0080 fc8b 0000 8557 da3c
00000070: 4339 df3c 340b dc3c a1c9 db3c 03fc e03c
00000080: ae72 dd3c 707f d93c 13b3 de3c 7632 db3c
00000090: 1837 293c 2f85 2c3c 31a5 2c3c 870e 2b3c
000000a0: ce00 2e3c 752d 2e3c 268d 293c 0bdd 2b3c
000000b0: 065e 2c3c 5c2e 483c cbac 4c3c 0f04 493c
000000c0: 39e9 463c 198d 4b3c 17a9 463c a409 423c
000000d0: e930 463c 1942 413c e18d b13c afcc b13c
000000e0: d440 b23c 2319 b03c 5d96 b03c dd70 b13c
000000f0: 265f ae3c fada ae3c b553 af3c d58d bc3c
00000100: 7ac2 bb3c 67f9 bb3c ec75 bb3c 8019 bb3c
00000110: 63ab ba3c eda5 b83c 3a3f b83c a209 b83c
00000120: 5aa2 4db1 157c 54b1 67c2 51b1 ad12 50b1
00000130: 2127 52b1 83d4 51b1 6b3f 4fb1 9862 50b1
00000140: 1567 53b1 9485 ad3c 8975 ab3c 31a0 ac3c
00000150: 4a35 ac3c 67e3 a93c 5fe9 aa3c 9420 ab3c
00000160: 93ff a83c 60ec a93c b8cd aa3c 9558 a93c
00000170: 6a55 aa3c 5d1e a93c 2786 a73c 38a6 a83c
00000180: b80e a83c 879f a63c af7e a73c e4a2 f53a
00000190: 43e8 f83a 0c47 f73a b62d f13a 4364 f73a
000001a0: 1a46 f83a 7593 f03a c60b f03a 1d90 f13a
000001b0: b98f 0000 e288 0080 cc89 0080 d394 0000
000001c0: 748b 0000 7389 0000 df89 0080 328a 0000
000001d0: 218b 0000 dd13 de3c 1a00 e73c 9bc1 e13c
000001e0: 7cad e13c a434 e83c 4af7 e33c 67c5 7e3c
000001f0: 9468 e23c 70da dd3c 1190 0000 1589 0000
00000200: e188 0000 4b8d 0080 d989 0000 c889 0000
00000210: 708b 0080 de88 0000 d689 0080 c154 dc3c
00000220: cbf0 db3c ad0c cb3c bb61 da3c 9d27 db3c
00000230: ce1f db3c 8f54 d83c 795d b13c 65b3 da3c
00000240: f406 093c efae 0f3c 7b10 123c dc6f 2e3b
00000250: ae22 0f3c 7205 113c f453 0e3c 390c 183c
00000260: 6801 103c c68e 313c dc27 333c 4883 333c
00000270: 2cd0 2e3c 5fa5 323c 9d10 313c ff22 333c
00000280: f23b 8d3b 1761 063c b590 ae3c 01c5 a43c
00000290: 508f 4b3c d3ec 163c d9d0 af3c 749a dd3c
000002a0: 14e0 c03c d470 ad3c dfe1 ad3c fad3 a53c
000002b0: fa09 9a3c ada0 af3c 7a51 bc3c 7de4 fd3c
000002c0: ffda d43c 1ea8 b93c b62a bb3c ad09 be3c
000002d0: a03d 19b2 65be 17b2 e38a 26b2 07be 17b2
000002e0: 8349 17b2 2291 19b2 8a48 16b2 6b75 29b2
000002f0: ff4d 1bb2 77bd b53c a2c4 b53c 937c ba3c
00000300: 14f3 b03c 61d2 bb3c 441a b73c 5e42 ab3c
00000310: 8515 b23c 8770 8e3b b7c8 873c 5c38 013d
00000320: f73e b83c 5120 3c3c 7df9 b03c 214f 023d
00000330: b43a ab3c aa89 ad3c 0650 b03c f5c3 bb3a
00000340: b62f bb3a ff75 c73a 1333 be3a 0ff1 bb3a
00000350: a6fd bb3a 0998 c23a d839 ba3a 18b4 bc3a
00000360: b88a 0000 108a 0080 7a8b 0080 258b 0080
00000370: 6289 0080 ff8a 0080 c792 0080 8390 0080
00000380: 448a 0000 51fe 283d c428 67bb b4b0 c13c
00000390: d438 afba 9b19 b8bb 2d58 f93c f9f9 513c
000003a0: d199 2b3d 5bba 663c 2d8a 0000 158a 0080
000003b0: 8b8e 0080 358b 0080 fda0 0000 b28a 0080
000003c0: af89 0000 4c89 0080 bd88 0080 a497 943c
000003d0: cbaa 263d 6793 0e3d a2a7 cc3c 2915 bc3a
000003e0: 1ea9 803c fca1 f93c 59c4 303d 330a 253d
000003f0: e675 a93a 0550 093b 0f78 943c ac8d 9b3b

e_conv5.bias f4 [3]
-0.0070980503 -0.010525957 0.06141557
00000000: c396 e8bb 1075 2cbc e58e 7b3d
