ai_server/pt/dehazer.pth (torch, 23775 bytes, 20 tensors)

k1_conv1.weight f4 [3, 3, 1, 1]
0.27148074 -0.0117794275 -0.05632907 0.12327615 -0.4510297 0.5074757 0.41598594 -0.23972654
0.39991963
00000000: 86ff 8a3e 80fe 40bc 50b9 66bd 3578 fc3d
00000010: 5ded e6be ede9 013f 1cfc d43e e07a 75be
00000020: 44c2 cc3e

k1_conv1.bias f4 [3]
-0.5441315 0.024189105 -0.14873756
00000000: 344c 0bbf 3b28 c63c a94e 18be

k1_conv2.weight f4 [3, 3, 3, 3]
-0.03180425 0.11197914 -0.14427105 -0.026747316 0.08565657 -0.13699257 0.13369353 0.12762947
0.1917298 0.084653206 -0.19219175 0.15138412 -0.03763763 0.024018519 0.040268194 0.10319764
-0.19649348 -0.18426299 0.020348758 -0.04849123 -0.08464006 0.09306035 -0.14686596 -0.18383431
0.04762599 -0.02427033 -0.11544043 0.1408654 -0.059191152 -0.13223302 0.10603754 0.18895675
-0.1377049 -0.11664429 0.083991185 -0.026549488 -0.08266457 0.18656486 0.19596738 0.008823727
0.21844439 0.013504013 -0.045724552 0.07994356 0.019330079 -0.16988057 -0.1614396 0.11311087
0.06588462 -0.079969235 -0.075025916 0.098013155 -0.1774732 -0.16783819 0.08211286 0.12970479
-0.028171748 0.1508496 0.1300496 -0.13710095 -0.17513843 -0.10403738 0.0402219 0.07526391
-0.056725767 0.08976494 0.0060120975 -0.13625789 -0.09970736 0.09346736 0.1544666 -0.0757935
0.107934706 -0.012631709 0.003161592 0.1854319 -0.08515456 -0.15069215 0.1773028 0.031069642
-0.1432615
00000000: 2c45 02bd 5255 e53d cabb 13be 301d dbbc
00000010: b66c af3d c847 0cbe f5e6 083e 4db1 023e
00000020: d154 443e a95e ad3d eacd 44be 7004 1b3e
00000030: ea29 1abd 7cc2 c43c 43f0 243d 4959 d33d
00000040: 9635 49be 70af 3cbe 70b2 a63c bd9e 46bd
00000050: c557 adbd 6d96 be3d 0864 16be 103f 3cbe
00000060: 7813 433d 92d2 c6bc 086c ecbd 053f 103e
00000070: 6c72 72bd 1868 07be 362a d93d e17d 413e
00000080: 8302 0dbe 34e3 eebd 9203 ac3d 507e d9bc
00000090: 0b4c a9bd dc0a 3f3e acab 483e 6591 103c
000000a0: e3af 5f3e f03f 5d3c ab49 3bbd 73b9 a33d
000000b0: 1d5a 9e3c 2cf5 2dbe 6c50 25be aca6 e73d
000000c0: 84ee 863d e9c6 a3bd 30a7 99bd 1fbb c83d
000000d0: 89bb 35be c6dd 2bbe ca2a a83d 55d1 043e
000000e0: 70c8 e6bc 5178 1a3e b92b 053e 3164 0cbe
000000f0: 7d57 33be 8d11 d5bd b8bf 243d f723 9a3d
00000100: 4759 68bd aed6 b73d 2101 c53b 3087 0bbe
00000110: 5f33 ccbd d16b bf3d 7e2c 1e3e 9f39 9bbd
00000120: df0c dd3d 3af5 4ebc b632 4f3b dce1 3d3e
00000130: 8465 aebd 0b4f 1abe dd8e 353e c385 fe3c
00000140: 25b3 12be

k1_conv2.bias f4 [3]
-0.06986705 0.049627945 0.21538338
00000000: 7516 8fbd ac46 4b3d 768d 5c3e

k1_conv3.weight f4 [3, 6, 5, 5]
0.019401446 0.024371505 0.06983547 0.00018108636 0.04023549 -0.07555112 -0.04265068 -0.07288506
-0.061623625 -0.049666572 -0.05678448 -0.038517315 -0.02957533 0.062023714 0.064965695 0.033059314
-0.03610935 0.0021388158 -0.044170793 0.080611184 0.044296294 0.01562664 -0.02080074 0.03445655
0.051131576 0.0709455 -0.052012246 -0.028166564 -0.040197015 0.06828509 0.065399945 -0.029639851
0.06864877 0.007212527 0.11011654 -0.024796128 0.057838414 0.06284231 -0.019633122 0.04610744
0.04732042 0.02187745 0.08815197 0.09198085 -0.015291165 0.086366184 0.079514295 0.072713174
-0.03058542 -0.009824114 -0.07456905 0.06942637 -0.082795635 -0.028841775 -0.057754934 -0.008268543
-0.04036614 -0.078965105 0.06358858 -0.041521046 0.054531038 -0.049741533 0.012866052 -0.035289943
-0.024576753 -0.012678058 0.049674243 0.006868509 -0.033765163 0.065877646 -0.053526513 0.024981756
-0.06180924 0.054168295 -0.05291137 -0.056182887 -0.02423578 0.062753044 0.02067038 -0.08122894
0.015430154 0.012511671 -0.025526028 0.061204676 0.04158947 -0.042160008 -0.0016767861 0.027971022
0.005280748 -0.065314144 -0.015262693 0.03244219 -0.021870509 -0.023832172 -0.040862013 0.04175798
0.05900995 -0.00464709 0.05850392 0.05371999 -0.01988997 0.07945454 -0.009245295 0.07385938
0.09082531 0.07522641 0.08631824 0.0028600441 0.12970392 0.07442778 -0.029241363 0.060555264
0.058804713 0.09875111 0.025970697 0.10867243 0.011922561 0.100243144 0.041579418 0.13639924
0.09240534 0.05295322 0.041556723 0.04802881 0.097800165 -0.0011682773 0.09153211 0.08258239
0.12087294 0.050676566 0.01478084 0.06982747 0.051780622 0.06360014 0.091495655 -0.027373109
0.08299573 0.1195 0.100414686 0.106093645 0.002743091 -0.030046865 0.039166328 0.03867331
0.05175949 -0.01721717 0.0275381 0.12331188 0.107246995 -0.014035138 -0.062105954 -0.009080768
0.02288144 0.032782562 -0.05077509 -0.043357287 -0.02004974 0.059119955 0.03035377 0.0008115098
0.017293066 -0.017475411 0.02610115 -0.0017019883 -0.0706804 -0.056664865 0.023590893 -0.018512197
-0.03298673 -0.051254254 -0.02983373 -0.06603804 -0.071021356 -0.08004343 -0.012774065 -0.029887373
-0.02955382 0.07838665 -0.004054494 0.016469324 0.057181194 0.08923741 0.09713655 0.0477057
0.04248635 -0.03872794 0.026120396 0.06046412 0.0051947455 0.08409518 0.09371335 -0.026581116
0.059718683 -0.00012314148 0.07712242 -0.0353039 0.028682768 0.037503347 -0.032817256 -0.05585858
-0.08235192 -0.047590192 0.010209839 0.048697274 -0.0003000763 0.0033380485 -0.038315482 -0.008745116
-0.021579323 0.0787761 -0.026379539 -0.018140903 0.062309448 -0.0021916667 -0.021886624 0.021792548
0.09346675 0.05939879 0.0408607 -0.053104874 -0.06863808 -0.05125808 -0.08259835 0.013462614
-0.019885184 -0.026510159 0.07669065 -0.04830134 -0.06887565 0.039056964 -0.01819951 0.040684137
-0.071162835 0.023508085 -0.04983473 0.07451779 0.076987006 -0.058626004 0.03139718 0.081735425
0.003823635 0.045427144 -0.0818244 0.034883454 0.016893577 -0.040050045 -0.018196417 -0.036559172
0.08458494 0.077839985 0.015829368 -0.017967127 7.8351795e-06 0.039597142 -0.017217532 -0.02266822
00000000: c8ef 9e3c c0a6 c73c e605 8f3d 00e2 3d39
00000010: f8cd 243d 8cba 9abd 7bb2 2ebd c344 95bd
00000020: 0e69 7cbd 2d6f 4bbd d896 68bd 55c4 1dbd
00000030: f647 f2bc 940c 7e3d bc0c 853d 3469 073d
00000040: 66e7 13bd 602b 0c3b 6fec 34bd 7a17 a53d
00000050: 0870 353d 7003 803c 5066 aabc 5022 0d3d
00000060: 586f 513d e04b 913d cb0a 55bd 91bd e6bc
00000070: a0a5 24bd 0ed9 8b3d 68f0 853d 46cf f2bc
00000080: ba97 8c3d 1057 ec3b c884 e13d 4021 cbbc
00000090: f9e7 6c3d 78b3 803d a4d5 a0bc 28db 3c3d
000000a0: 0fd3 413d 5738 b33c 0589 b43d 7560 bc3d
000000b0: cb87 7abc c1e0 b03d 64d8 a23d a5ea 943d
000000c0: 468e fabc 52f5 20bc a8b7 98bd 6a2f 8e3d
000000d0: c290 a9bd 9645 ecbc 7090 6cbd c878 07bc
000000e0: f756 25bd 75b8 a1bd bb3a 823d f911 2abd
000000f0: f05b 5f3d c7bd 4bbd 22cc 523c 308c 10bd
00000100: 3055 c9bc a1b7 4fbc 3877 4b3d 3b11 e13b
00000110: 574d 0abd dcea 863d 9e3e 5bbd 8aa6 cc3c
00000120: b02b 7dbd 93df 5d3d 98b9 58bd 0720 66bd
00000130: 1d8a c6bc ab84 803d ee54 a93c 5c5b a6bd
00000140: c2ce 7c3c c0fd 4c3c f61b d1bc c1b1 7a3d
00000150: b859 2a3d f9af 2cbd 9bc7 dbba 7c23 e53c
00000160: 200a ad3b 6cc3 85bd 6010 7abc 1ae2 043d
00000170: c829 b3bc b03b c3bc ed5e 27bd 6a0a 2b3d
00000180: 6bb4 713d 9e46 98bb cea1 6f3d 7e09 5c3d
00000190: 4af0 a2bc 10b9 a23d 9479 17bc 9643 973d
000001a0: 9f02 ba3d 4e10 9a3d 9ec7 b03d 946f 3b3b
000001b0: 1bd1 043e 986d 983d 958b efbc cc08 783d
000001c0: 36dd 703d 063e ca3d 80c0 d43c a78f de3d
000001d0: d856 433c 474c cd3d 2e4f 2a3d 3eac 0b3e
000001e0: 033f bd3d 7ae5 583d 6237 2a3d dcb9 443d
000001f0: 744b c83d e220 99ba 3075 bb3d f520 a93d
00000200: 3b8c f73d 3b92 4f3d 562b 723c b401 8f3d
00000210: eb17 543d ca40 823d 1362 bb3d 923d e0bc
00000220: aaf9 a93d 6abc f43d 37a6 cd3d a047 d93d
00000230: 6ec5 333b d824 f6bc df6c 203d e867 1e3d
00000240: c201 543d 060b 8dbc 9597 e13c f08a fc3d
00000250: 50a4 db3d a3f3 65bc d062 7ebd 80c7 14bc
00000260: dc71 bb3c 0247 063d 8af9 4fbd 6997 31bd
00000270: 5a3f a4bc c427 723d 78a8 f83c 80bb 543a
00000280: 30aa 8d3c 9828 8fbc 14d2 d53c 4015 dfba
00000290: e3c0 90bd 6b19 68bd b041 c13c e4a6 97bc
000002a0: 181d 07bd fbef 51bd de65 f4bc f43e 87bd
000002b0: a573 91bd cfed a3bd 504a 51bc 5dd6 f4bc
000002c0: da1a f2bc 2e89 a03d 90db 84bb adea 863c
000002d0: d436 6a3d 1ac2 b63d 87ef c63d 0d67 433d
000002e0: 2b06 2e3d 30a1 1ebd 71fa d53c 3aa9 773d
000002f0: af38 aa3b 183a ac3d c9ec bf3d a4c0 d9bc
00000300: 949b 743d 8a1f 01b9 5cf2 9d3d d29a 10bd
00000310: 20f8 ea3c 1c9d 193d 636b 06bd f7cb 64bd
00000320: 20a8 a8bd efed 42bd 2b47 273c cb76 473d
00000330: 8f53 9db9 29c3 5a3b b2f0 1cbd ad47 0fbc
00000340: 1fc7 b0bc 5d55 a13d e719 d8bc 3b9c 94bc
00000350: 3138 7f3d 11a2 0fbb 944b b3bc 4986 b23c
00000360: 7f6b bf3d 254c 733d 8d5d 273d 7f84 59bd
00000370: 1f92 8cbd fef3 51bd 5329 a9bd 4c92 5c3c
00000380: 41e6 a2bc d52b d9bc fd0f 9d3d a0d7 45bd
00000390: ad0e 8dbd 32fa 1f3d 2417 95bc 69a4 263d
000003a0: d2bd 91bd 0794 c03c 801f 4cbd c89c 983d
000003b0: 5dab 9d3d d221 70bd 549a 003d e764 a73d
000003c0: f395 7a3b d011 3a3d 8d93 a7bd f4e1 0e3d
000003d0: 6664 8a3c 840b 24bd a710 95bc 12bf 15bd
000003e0: de3a ad3d 926a 9f3d 97ac 813c cc2f 93bc
000003f0: d773 0337 9d30 223d c80b 8dbc b4b2 b9bc

k1_conv3.bias f4 [3]
-0.002224524 0.01822804 0.05685399
00000000: 52c9 11bb f852 953c bbdf 683d

k2_conv1.weight f4 [3, 3, 3, 3]
0.19571331 -0.08228328 0.093995444 0.08863475 0.13431934 0.07407906 0.0141686145 0.16279066
-0.048826106 -0.080691025 0.19699188 -0.10145352 -0.03232186 0.18274635 0.045283068 0.2044332
-0.1265779 -0.14456822 -0.07568244 -0.06528315 0.08231694 0.07294673 -0.030123128 0.02759766
0.11197274 0.047653977 0.014928903 -0.117673315 0.13975558 0.15432554 -0.13229623 -0.05701412
-0.0972762 0.2037596 0.110127985 0.21202017 -0.018577404 -0.025172092 0.05618418 0.02276291
0.12925652 -0.14093213 0.013380112 -0.11781173 0.13132434 -0.0054724594 -0.20599058 -0.08700982
-0.033080857 -0.11006825 0.11745306 0.09555388 -0.034471296 -0.14202963 -0.14508267 -0.14068325
0.007860376 -0.1477106 0.21366206 0.085009 0.040870532 0.029996876 -0.06263792 0.08304516
0.11074807 0.07012034 -0.14789438 0.011786801 -0.1718603 0.15058894 -0.117172495 -0.1081616
0.156222 -0.039833162 0.11953286 -0.11163025 0.05284088 -0.14165561 0.20223787 0.042870443
-0.11716391
00000000: 1269 483e 2384 a8bd af80 c03d 2386 b53d
00000010: 028b 093e c3b6 973d 7a23 683c 98b2 263e
00000020: e2fd 47bd 5641 a5bd 3db8 493e ddc6 cfbd
00000030: ed63 04bd dc21 3b3e bd7a 393d f056 513e
00000040: a39d 01be b109 14be 65ff 9abd 2cb3 85bd
00000050: c995 a83d 1865 953d c7c4 f6bc 7d14 e23c
00000060: f751 e53d d130 433d 5c98 743c b5fe f0bd
00000070: 161c 0f3e 8407 1e3e aa78 07be a387 69bd
00000080: bf38 c7bd 5ba6 503e c88a e13d d11b 593e
00000090: a42f 98bc b435 cebc 6221 663d 4879 ba3c
000000a0: d25b 043e 8350 10be 4238 5b3c 4747 f1bd
000000b0: e379 063e 5152 b3bb 32ef 52be 3432 b2bd
000000c0: cb7f 07bd 766b e1bd 3b8b f03d c1b1 c33d
000000d0: c631 0dbd 3770 11be 8d90 14be 450f 10be
000000e0: cec8 003c 7341 17be 3aca 5a3e 3319 ae3d
000000f0: dc67 273d 02bc f53c 4f48 80bd 9513 aa3d
00000100: e2cf e23d 419b 8f3d a071 17be 6d1d 413c
00000110: 25fc 2fbe fd33 1a3e 22f8 efbd d483 ddbd
00000120: a9f8 1f3e 1928 23bd a5cd f43d 679e e4bd
00000130: ae6f 583d 2b0e 11be 7217 4f3e eb98 2f3d
00000140: a2f3 efbd

k2_conv1.bias f4 [3]
-0.15083222 -0.06714145 0.15824112
00000000: c373 1abe 7581 89bd f609 223e

k2_conv2.weight f4 [3, 3, 5, 5]
0.11391973 -0.0086988835 0.0048812074 0.094225615 -0.049058307 -0.06724336 -0.021207899 0.002765135
0.03752854 0.046616443 0.08115317 -0.0639774 0.03287655 0.018655017 0.081427544 0.076554134
-0.055899814 -0.04083821 -0.013776255 -0.01750035 0.05075188 0.086524084 -0.020776022 0.032372747
0.001559696 -0.06745855 0.003885489 -0.07731439 0.059615977 -0.029067345 -0.1205434 -0.0051164785
0.05859005 -0.015675118 -0.067179166 -0.06875589 -0.14485708 -0.10612727 -0.11939325 -0.008415711
-0.11554667 0.030663846 -0.02360368 -0.13754939 -0.09943012 -0.027518166 0.037851535 -0.05651697
-0.11574466 -0.02154778 0.13561547 0.024727387 0.023882233 -0.07817766 0.0051622656 -0.07502558
0.012775802 0.1203446 -0.09396952 0.06808493 0.13016944 -0.002189769 -0.05330503 -0.045041114
-0.0009763514 -0.012761981 -0.077935316 0.1338419 0.101543844 -0.047060754 -0.029594004 0.117173634
-0.015443985 0.005438784 0.1045497 -0.11340274 -0.090696745 0.07613317 -0.101421304 -0.098769374
0.025495581 -0.10933108 0.09146647 -0.0938886 -0.047226276 0.059846256 -0.031408746 0.05762663
0.11253877 0.0038682232 -0.09139604 -0.09345823 0.04611965 0.046757445 -0.13085543 -0.13668756
0.047520354 -0.1054353 0.031422045 -0.0026687752 0.20180741 0.1866332 0.2269132 0.040786974
0.12943752 0.10067084 0.25331694 0.14276162 0.103758894 0.17909692 0.1680406 0.030531025
0.08242768 0.09360875 0.122496694 0.11138953 0.11005153 0.067238055 0.13470417 -0.034276262
-0.028491158 0.10411211 0.20842366 -0.015985325 0.09707252 -0.1188929 0.007569906 0.029073622
0.020808289 0.0023348138 -0.057651676 -0.06643836 -0.018449085 0.032107953 0.08480199 -0.050082825
0.12220492 0.10741976 -0.062415186 0.011058265 -0.081468366 0.050524145 0.14412178 -0.025087459
-0.007282185 0.07742854 -0.0041943965 0.110936895 0.005726508 0.044737816 0.11701179 0.04619989
-0.09424573 0.10750884 0.040249337 -0.015243739 0.0036757132 -0.06591953 -0.014711233 0.014876506
-0.023172319 0.11128811 0.05090712 -0.05801226 0.006935864 0.08975862 0.050373632 -0.084127225
-0.030038022 -0.038559586 -0.038968537 -0.0054600593 0.0131225595 0.069179885 0.0022710564 -0.15776284
-0.0041614147 -0.13579783 -0.10661458 -0.09079271 0.0036810702 0.08852451 0.016980242 -0.107761875
-0.10517995 0.006129388 -0.06955808 -0.010183362 -0.062681325 -0.14283477 0.08031796 0.035656206
-0.015220364 0.08320855 -0.10489901 -0.034425404 -0.07318179 0.037586223 -0.069572546 -0.075240284
0.04270044 0.023628734 0.031836033 0.045774426 0.08129467 0.006176845 0.11799308 0.07781006
-0.0007734573 0.005614979 -0.06568332 0.056556147 -0.045575544 0.117962 -0.04315782 -0.06977711
-0.013620869 0.04497356 0.094543844 -0.0064217625 -0.077770226 0.084586725 0.11429401 -0.09349214
0.04132187
00000000: bf4e e93d c385 0ebc 89f2 9f3b 5cf9 c03d
00000010: 5df1 48bd e3b6 89bd 30bc adbc 4437 353b
00000020: 87b7 193d e2f0 3e3d a233 a63d 9506 83bd
00000030: 90a9 063d 68d2 983c 7cc3 a63d 6ac8 9c3d
00000040: 34f7 64bd f845 27bd cdb5 61bc e55c 8fbc
00000050: 34e1 4f3d 8a33 b13d 7a32 aabc 4999 043d
00000060: b76e cc3a b527 8abd b0a3 7e3b 0257 9ebd
00000070: e22f 743d a41e eebc 75df f6bd 22a8 a7bb
00000080: 1ffc 6f3d 1b69 80bc 3b95 89bd e3cf 8cbd
00000090: 6a55 14be 4159 d9bd 7384 f4bd 0de2 09bc
000000a0: bca3 ecbd bf32 fb3c 815c c1bc bfd9 0cbe
000000b0: 05a2 cbbd c76d e1bc 360a 1b3d 577e 67bd
000000c0: 890b edbd f884 b0bc c8de 0a3e 1791 ca3c
000000d0: aca4 c33c 9c1b a0bd 3928 a93b 03a7 99bd
000000e0: 9951 513c 3b77 f63d 1773 c0bd 1d70 8b3d
000000f0: 234b 053e 3a82 0fbb 6056 5abd 087d 38bd
00000100: d5f1 7fba a117 51bc 8d9c 9fbd da0d 093e
00000110: 38f6 cf3d c7c2 40bd 206f f2bc bbf8 ef3d
00000120: c508 7dbc d437 b23b 271e d63d b23f e8bd
00000130: 37bf b9bd b5eb 9b3d f9b5 cfbd 9947 cabd
00000140: 1cdc d03c f9e8 dfbd c652 bb3d ab48 c0bd
00000150: 5770 41bd 5921 753d 75a6 00bd e709 6c3d
00000160: ba7a e63d 0482 7d3b d92d bbbd 0767 bfbd
00000170: f5e7 3c3d bc84 3f3d f7fe 05be d3f7 0bbe
00000180: b4a4 423d 76ee d7bd 67b4 003d 9ee6 2ebb
00000190: 9aa6 4e3e c61c 3f3e ef5b 683e 3e10 273d
000001a0: 458b 043e 832c ce3d c2b2 813e 1a30 123e
000001b0: 8b7f d43d 2f65 373e d612 2c3e 331c fa3c
000001c0: d8cf a83d f2b5 bf3d 8cdf fa3d 3220 e43d
000001d0: b262 e13d 1bb4 893d e4ef 093e 4465 0cbd
000001e0: 4a66 e9bc bb38 d53d 036d 553e a8f3 82bc
000001f0: f5cd c63d 1f7e f3bd f90c f83b ce2b ee3c
00000200: 2576 aa3c ad03 193b 2a24 6cbd d610 88bd
00000210: 8922 97bc a183 033d aaac ad3d a623 4dbd
00000220: 9346 fa3d e4fe db3d 11a7 7fbd ba2d 353c
00000230: e3d8 a6bd 68f2 4e3d a994 133e 3784 cdbc
00000240: 659f eebb db92 9e3d 2671 89bb e232 e33d
00000250: 6ea5 bb3b 003f 373d e1a3 ef3d 193c 3d3d
00000260: e803 c1bd 982d dc3d 7ddc 243d e0c0 79bc
00000270: 3ce4 703b d200 87bd 6207 71bc 97bc 733c
00000280: e0d3 bdbc 05eb e33d fc83 503d 439e 6dbd
00000290: 3f46 e33b 5ed3 b73d 9554 4e3d e54a acbd
000002a0: 4c12 f6bc a8f0 1dbd 799d 1fbd 4cea b2bb
000002b0: 0100 573c 2fae 8d3d 01d6 143b 958c 21be
000002c0: 7a5c 88bb 960e 0bbe bf58 dabd 87f1 b9bd
000002d0: 1c3e 713b 574c b53d 261a 8b3c 42b2 dcbd
000002e0: 9668 d7bd 09d9 c83b 7774 8ebd 1ed8 26bc
000002f0: 115f 80bd 4743 12be be7d a43d 3e0c 123d
00000300: d55e 79bc 3f69 aa3d 4bd5 d6bd a701 0dbd
00000310: 56e0 95bd 03f4 193d 0d7c 8ebd 9417 9abd
00000320: a8e6 2e3d 0c91 c13c 8066 023d f77d 3b3d
00000330: d27d a63d 2267 ca3b 5ba6 f13d e15a 9f3d
00000340: d7c1 4aba dcfd b73b fa84 86bd 6ba7 673d
00000350: 6cad 3abd 1096 f13d 41c6 30bd 4de7 8ebd
00000360: 112a 5fbc 3236 383d 34a0 c13d a66d d2bb
00000370: ff45 9fbd ce3b ad3d fa12 ea3d cf78 bfbd
00000380: 1f41 293d

k2_conv2.bias f4 [3]
0.09809833 0.09808344 0.05812054
00000000: c7e7 c83d f8df c83d ce0f 6e3d

k2_conv3.weight f4 [3, 6, 7, 7]
0.009409932 0.017448097 -0.070064306 -0.13120173 -0.08100349 -0.024873354 -0.11289055 -0.055564344
-0.008493909 -0.06590185 0.006122195 0.08344854 -0.028489748 -0.013221761 -0.0034034709 -0.013851567
0.022274146 0.12640634 0.21573748 0.062795766 -0.016522322 -0.07990268 -0.043248486 0.05072665
0.17828597 0.14368029 0.094502665 -0.07905078 -0.037926298 -0.08711752 0.0048431875 0.15249439
0.07005129 0.022945292 -0.08891325 -0.055330127 -0.042548 -0.019859718 0.039950944 -0.03827818
-0.019809743 -0.044137385 -0.024853285 0.024487356 0.02182363 0.0061851237 -0.0888324 0.0075562345
-0.091864824 0.17178221 0.030129083 -0.12325666 -0.14268045 -0.020735987 0.017017426 -0.18629366
0.120848745 -0.033433285 -0.18926105 -0.17576706 0.06448482 0.10589375 -0.24898332 0.17870928
-0.045255877 -0.17069454 -0.08823547 0.23019452 0.25111562 -0.14561567 0.24035831 -0.024611995
-0.11170204 -0.11040394 0.109783314 0.2751772 -0.092182666 0.13606253 -0.09335286 -0.11259389
-0.2245554 -0.17578211 -0.10223372 -0.34838125 0.090213604 -0.11933711 -0.11765043 -0.10338971
-0.40121886 -0.5388238 -0.5060724 -0.013266924 -0.18962641 -0.15996142 0.04955079 -0.41114226
-0.61242795 -0.79478776 0.10240139 0.037751064 0.013189404 0.13525689 0.06134794 0.0543201
0.05880741 0.080573834 0.021278312 -0.1766491 0.10537132 0.07927998 0.046322536 0.013159863
0.04796047 -0.00013792925 -0.21978772 0.08481609 0.09150924 0.10222041 0.07030511 0.06922902
-0.025420986 -0.07849025 0.14372672 -0.0050845565 -0.022004291 0.10566031 -0.008656579 -0.036151934
-0.018153267 0.09559558 -0.13675743 -0.09789696 0.03857363 -0.036224864 0.023979997 0.0058427076
0.058062386 -0.113088965 -0.075369686 4.7869216e-05 0.032855064 0.12789614 0.045416348 0.05418056
-0.11351509 0.037194706 0.030465119 -0.023136724 0.04396391 0.032668814 0.075420596 -0.032290563
-0.01626451 -0.04902538 -0.022260029 -0.006012202 0.013725055 0.08447724 0.01588068 -0.016103515
-0.06255118 -0.02474985 0.03572896 -0.012874167 0.045277692 -0.03952918 -0.06462686 0.027418308
0.05599753 0.04105407 -0.012789725 0.10132814 -0.098810285 0.015828898 0.030724794 -0.02791272
0.023889143 0.038636837 0.040282495 -0.09595271 -0.14929838 -0.05636876 -0.04030307 0.01738418
-0.035646357 0.0054666772 -0.070672266 -0.1077951 -0.07296294 0.030249935 0.06388686 0.007724376
0.009587433 -0.08609298 -0.08905797 -0.10179834 0.066967726 0.04927036 0.027342623 0.072686575
0.009170937 0.009873463 0.012739989 0.062037814 0.021268837 -0.023142938 0.006056648 0.028473046
-0.034098648 0.0022570845 -0.022415198 0.025847038 -0.05223684 0.053196803 0.068138525 -0.108850315
-0.092404775 0.035822365 -0.04516457 -0.016194852 0.07329636 0.040908802 -0.115771696 -0.017100334
-0.008794574 -0.055001527 -0.098619826 -0.01705307 -0.08758473 -0.059277624 -0.07848616 0.01332529
0.0035773662 -0.13716672 -0.05168498 -0.083558805 -0.0675557 -0.030959263 0.061365567 0.064808324
0.02642949 -0.019839052 -0.07719031 0.023713108 0.0034660932 -0.0003572145 0.035614714 0.043696813
0.0074657327 -0.01786404 -0.0485481 -0.01739502 0.060983166 0.05322983 0.010749078 0.054713584
00000000: 1e2c 1a3c 50ef 8e3c e07d 8fbd bf59 06be
00000010: 28e5 a5bd 34c3 cbbc 2933 e7bd 7097 63bd
00000020: 092a 0bbc 8df7 86bd b29c c83b 11e7 aa3d
00000030: 5563 e9bc 16a0 58bc c40c 5fbb aff1 62bc
00000040: 4578 b63c aa70 013e 49ea 5c3e 119b 803d
00000050: d259 87bc 04a4 a3bd 5325 31bd bfc6 4f3d
00000060: 9990 363e ed20 133e 9d8a c13d 60e5 a1bd
00000070: 9b58 1bbd ac6a b2bd 9ab3 9e3b 7d27 1c3e
00000080: 0d77 8f3d c4f7 bb3c 2618 b6bd d8a1 62bd
00000090: d046 2ebd d9b0 a2bc 9aa3 233d 95c9 1cbd
000000a0: 0b48 a2bc 67c9 34bd 1e99 cbbc b599 c83c
000000b0: 78c7 b23c 94ac ca3b c3ed b5bd 4a9a f73b
000000c0: a023 bcbd ade7 2f3e 44d1 f63c fd6d fcbd
000000d0: d31a 12be 84de a9bc 2168 8b3c c4c3 3ebe
000000e0: 8c7f f73d 57f1 08bd a6cd 41be 48fc 33be
000000f0: 9e10 843d d3de d83d 7cf5 7ebe 91ff 363e
00000100: 3a5e 39bd 8dca 2ebe ccb4 b4bd 1db8 6b3e
00000110: 3a92 803e 461c 15be 7d20 763e 189f c9bc
00000120: 0ac4 e4bd 761b e2bd 13d6 e03d 07e4 8c3e
00000130: 44ca bcbd fa53 0b3e c92f bfbd a097 e6bd
00000140: daf1 65be 3a00 34be ea5f d1bd 075f b2be
00000150: e9c1 b83d 0467 f4bd b5f2 f0bd fcbd d3bd
00000160: 8f6c cdbe 5bf0 09bf f68d 01bf 835d 59bc
00000170: 6d2d 42be edcc 23be c5f5 4a3d 3d81 d2be
00000180: 14c8 1cbf 3677 4bbf d2b7 d13d dca0 1a3d
00000190: 5f18 583c c880 0a3e fa47 7b3d c17e 5e3d
000001a0: 0ae0 703d e503 a53d db4f ae3c 80e3 34be
000001b0: ebcc d73d 8b5d a23d b3bc 3d3d 779c 573c
000001c0: 3372 443d 1aa1 10b9 0810 61be 0fb4 ad3d
000001d0: 3269 bb3d ef58 d13d 20fc 8f3d f2c7 8d3d
000001e0: ac3f d0bc 7fbf a0bd 192d 133e 5a9c a6bb
000001f0: 5842 b4bc 6f64 d83d 53d4 0dbc 0d14 14bd
00000200: 29b6 94bc 9ec7 c33d 240a 0cbe 347e c8bd
00000210: 62ff 1d3d 8660 14bd b371 c43c 2f74 bf3b
00000220: d3d2 6d3d 309b e7bd 6c5b 9abd 2ec7 4838
00000230: 0893 063d 35f7 023e 7e06 3a3d 6fec 5d3d
00000240: 997a e8bd 7a59 183d fc91 f93c 3a89 bdbc
00000250: 8013 343d bccf 053d 1d76 9a3d 1c43 04bd
00000260: 263d 85bc d6ce 48bd aa5a b6bc 0102 c5bb
00000270: 0edf 603c 6702 ad3d 3318 823c 85eb 83bc
00000280: d51a 80bd 33c0 cabc 8858 123d 2cee 52bc
00000290: 1a75 393d 59e9 21bd 165b 84bd 5c9c e03c
000002a0: ab5d 653d 5028 283d ff8b 51bc 2185 cf3d
000002b0: 0c5d cabd 9bab 813c 90b2 fb3c 37a9 e4bc
000002c0: 2ab3 c33c a941 1e3d 42ff 243d db82 c4bd
000002d0: ade1 18be eee2 66bd d514 25bd 4569 8e3c
000002e0: ea01 12bd d021 b33b 9fbc 90bd adc3 dcbd
000002f0: 986d 95bd b6ce f73c 1dd7 823d c31c fd3b
00000300: 9c14 1d3c 8451 b0bd 0664 b6bd a67b d0bd
00000310: 6026 893d b8cf 493d a3fd df3c b3dc 943d
00000320: b341 163c 4ec4 213c 63bb 503c 5d1b 7e3d
00000330: fc3b ae3c 4296 bdbc d976 c63b 4e40 e93c
00000340: 06ab 0bbd 98eb 133b 14a0 b7bc 2bbd d33c
00000350: 4cf6 55bd e4e4 593d 368c 8b3d eaec debd
00000360: b73e bdbd 79ba 123d 7cfe 38bd 11ab 84bc
00000370: 671c 963d fd8f 273d b619 edbd 0016 8cbc
00000380: 1e17 10bc 4849 61bd 31f9 c9bd e1b2 8bbc
00000390: 9f5f b3bd 18cd 72bd 5abd a0bd 5152 5a3c
000003a0: 3f72 6a3b 6f75 0cbe a1b3 53bd e120 abbd
000003b0: a55a 8abd 489e fdbc 765a 7b3d 3aba 843d
000003c0: a882 d83c 8285 a2bc f415 9ebd fe41 c23c
000003d0: 6527 633b 8548 bbb9 bce0 113d 6efb 323d
000003e0: 1ba3 f43b 9b57 92bc 5fda 46bd 0080 8ebc
000003f0: 7cc9 793d 8607 5a3d e71c 303c 5a1b 603d

k2_conv3.bias f4 [3]
0.080227345 -0.041055355 -0.01609103
00000000: 3c4e a43d a929 28bd 56d1 83bc

k3_conv1.weight f4 [3, 3, 5, 5]
0.080544405 -0.0015827048 -0.11234509 -0.07670351 0.061505206 -0.09116995 -0.09369894 0.034616973
-0.021220995 -0.12045992 -0.025598975 0.08354264 -0.09630255 0.09177453 -0.1292516 0.0028534574
-0.057482906 0.02967952 -0.06653356 0.0006369407 -0.07383689 0.061519478 -0.072081834 0.011345302
0.06553641 0.10352235 0.116367124 -0.0041847094 -0.10447553 -0.10027867 0.08783079 0.074852414
-0.029233841 0.032355797 0.06861439 -0.00085805013 0.10558652 -0.04388056 0.026019502 0.07082224
-0.10626649 0.007882749 0.102993526 0.061669294 -0.04965885 -0.07651238 0.10557221 0.04637084
-0.013266173 -0.10431666 0.12521188 0.13954364 0.042714845 -0.016614145 -0.033444885 0.12349197
0.07811885 0.05225355 0.0049003437 -0.046245657 -0.013324358 -0.04897169 0.010360021 0.019832158
0.061053324 -0.00992366 0.12194701 0.08185823 0.0783779 -0.027092202 0.12498413 0.114272624
-0.0752311 0.03668095 -0.11557706 -0.045440517 0.10226061 0.105646715 0.1246132 -0.067126065
0.07996478 0.103205465 -0.029767793 0.05117355 0.06621571 0.119290665 0.06823911 -0.06433046
-0.041643646 0.058172945 0.04517985 0.028004419 0.046459712 -0.072117984 0.13334806 0.0483069
-0.050228994 0.016737828 -0.05902569 0.03911996 0.017255642 -0.031420633 -0.048785865 0.09599396
-0.023531612 0.051411856 -0.03180319 -0.081575096 0.117210515 -0.04591084 -0.07137366 0.07029705
-0.027550062 0.11404704 0.11252933 -0.012316418 -0.080103815 -0.014495273 -0.053502817 0.06624104
0.06294828 0.08614949 0.007867821 0.103419684 0.029972548 0.05841677 -0.11476136 -0.061681643
-0.08047176 0.008412665 0.050075874 0.028354198 0.061675865 -0.03078276 0.06485865 -0.07277135
-0.06538387 -0.049529336 0.006925217 0.064855285 -0.02720695 -0.07517015 0.030411914 -0.036907706
0.050192706 0.020946482 -0.030483965 -0.04578644 0.035812397 -0.09370993 -0.007188346 0.072045825
-0.11181131 -0.056367695 0.014605985 -0.07828448 -0.057598244 -0.042384405 0.105458856 -0.01323535
0.084280014 0.06830649 0.06914202 -0.0011426519 -0.023901539 0.03884307 -0.088209026 0.073772095
-0.09775184 -0.08418248 0.0052865385 0.065417744 -0.058183216 0.067272685 0.11837898 0.012180216
-0.084848225 -0.07540205 -0.07492582 -0.02231052 -0.08262128 -0.07601138 0.005948689 0.0076305764
0.07818668 0.016834993 -0.034991607 -0.06331305 0.07884109 -0.09310889 -0.06055297 0.04958688
0.049205273 -0.050033513 0.050546974 -0.14330184 0.024817849 -0.0016451152 0.036407873 -0.018992303
0.06270554 0.04780408 0.039132047 0.11585664 -0.037756592 0.038804386 0.10497895 0.10101153
0.03585298 0.078281134 0.05441121 0.051480167 -0.0028118803 0.11265931 0.07861112 0.08670214
-0.009607103 -0.095859855 -0.045934007 0.06815525 0.04653814 0.116470836 -0.04623013 0.064885825
-0.018833436
00000000: 77f4 a43d c372 cfba 2f15 e6bd bb16 9dbd
00000010: e2ec 7b3d 50b7 babd 3be5 bfbd 87ca 0d3d
00000020: a7d7 adbc b1b3 f6bd f1b4 d1bc 6718 ab3d
00000030: 453a c5bd 49f4 bb3d 885a 04be 1201 3b3b
00000040: 3273 6bbd 7722 f33c bf42 88bd 5ef8 263a
00000050: cc37 97bd d9fb 7b3d a49f 93bd a5e1 393c
00000060: f437 863d 8703 d43d e351 ee3d e31f 89bb
00000070: 44f7 d5bd e75e cdbd a1e0 b33d 394c 993d
00000080: cf7b efbc 8387 043d b485 8c3d c5ee 60ba
00000090: bf3d d83d 1abc 33bd da26 d53c 400b 913d
000000a0: 3fa2 d9bd a526 013c 45ee d23d f198 7c3d
000000b0: 1467 4bbd 86b2 9cbd 3e36 d83d 5aef 3d3d
000000c0: 5d5a 59bc f9a3 d5bd 8b37 003e 87e4 0e3e
000000d0: c3f5 2e3d 631a 88bc 81fd 08bd 5ce9 fc3d
000000e0: c7fc 9f3d d207 563d 1093 a03b 166c 3dbd
000000f0: 684e 5abc 8a96 48bd 14bd 293c 0d77 a23c
00000100: 0d13 7a3d d996 22bc 5bbf f93d 4aa5 a73d
00000110: 9884 a03d 77f0 ddbc aef7 ff3d c407 ea3d
00000120: c312 9abd c43e 163d aab3 ecbd d61f 3abd
00000130: 036e d13d 4e5d d83d 3535 ff3d 6479 89bd
00000140: 93c4 a33d 635d d33d 96db f3bc 5b9b 513d
00000150: 1a9c 873d aa4e f43d f2c0 8b3d b0bf 83bd
00000160: 8792 2abd c146 6e3d 820e 393d 8669 e53c
00000170: 8a4c 3e3d 98b2 93bd 658c 083e 75dd 453d
00000180: ebbc 4dbd c51d 893c ecc4 71bd 403c 203d
00000190: b45b 8d3c ecb2 00bd b0d3 47bd 7b98 c43d
000001a0: 5ec5 c0bc 3d95 523d 1044 02bd d810 a7bd
000001b0: 110c f03d 010d 3cbd 5a2c 92bd e6f7 8f3d
000001c0: abb0 e1bc 7f91 e93d c775 e63d cdca 49bc
000001d0: 780d a4bd 957d 6dbc c525 5bbd 62a9 873d
000001e0: 07eb 803d 256f b03d 08e8 003c b3cd d33d
000001f0: fd88 f53c 6c46 6f3d 0108 ebbd e4a5 7cbd
00000200: 61ce a4bd 46d5 093c 5c1c 4d3d 1047 e83c
00000210: d59f 7c3d 202c fcbc 9dd4 843d 2509 95bd
00000220: fae7 85bd 46df 4abd eeec e23b d9d2 843d
00000230: 1ce1 debc cff2 99bd 6822 f93c 892c 17bd
00000240: de96 4d3d f597 ab3c 82b9 f9bc 908a 3bbd
00000250: 05b0 123d feea bfbd 378c ebbb c38c 933d
00000260: 54fd e4bd d0e1 66bd f14d 6f3c 9d53 a0bd
00000270: 23ec 6bbd 459b 2dbd d0fa d73d 15d9 58bc
00000280: 009b ac3d 46e4 8b3d 559a 8d3d 09c5 95ba
00000290: 29cd c3bc e919 1f3d efa6 b4bd d315 973d
000002a0: 1e32 c8bd dd67 acbd b33a ad3b bdf9 853d
000002b0: 8651 6ebd 43c6 893d ae70 f23d 878f 473c
000002c0: e8c4 adbd 646c 9abd b572 99bd 8dc4 b6bc
000002d0: 5835 a9bd dbab 9bbd 38ed c23b ea09 fa3b
000002e0: 5720 a03d 8ae9 893c 5c53 0fbd 46aa 81bd
000002f0: 7077 a13d e0af bebd 6406 78bd 9d1b 4b3d
00000300: 788b 493d f1ef 4cbd 580a 4f3d b8bd 12be
00000310: cd4e cb3c e8a0 d7ba 6c20 153d bf95 9bbc
00000320: c36b 803d 36ce 433d ed48 203d 3f46 ed3d
00000330: a8a6 1abd 59f1 1e3d 34ff d63d 22df ce3d
00000340: 93da 123d dc51 a03d 4ade 5e3d dedc 523d
00000350: 8647 38bb edb9 e63d defe a03d e490 b13d
00000360: 1c67 1dbc 2c52 c4bd 4c25 3cbd fb94 8b3d
00000370: c79e 3e3d 4388 ee3d ce5b 3dbd dce2 843d
00000380: 9448 9abc

k3_conv1.bias f4 [3]
-0.011802489 0.028214728 0.10032545
00000000: 3a5f 41bc 9322 e73c 6e77 cd3d

k3_conv2.weight f4 [3, 3, 7, 7]
-0.051553626 -0.07277597 -0.025010664 0.056897122 0.061689336 0.06500685 0.065459736 -0.081730075
0.05433342 -0.07098027 -0.058784526 0.094151005 0.028042668 -0.01637664 -0.056130245 0.07211712
0.097195804 0.017167827 0.07416104 -0.039935753 0.08582094 -0.055861786 0.050321087 0.04585646
-0.03210387 0.10140299 -0.016153395 0.083729774 0.001459723 -0.02248926 0.08351456 -0.029026138
0.049021292 0.09716352 -0.02214311 -0.044723053 -0.063370764 0.01949914 0.010852009 0.0016216846
0.048688352 0.02963801 -0.022700313 0.06651261 0.022379057 0.07148209 -0.0117660295 0.009200254
-0.026595552 0.04744992 -0.04881035 0.043989986 -0.07727292 0.034141414 0.03101008 -0.032231294
-0.08825414 -0.08358383 -0.071446836 0.0024278832 0.030928388 -0.04934346 -0.06338954 0.07511986
0.0726191 -0.01835012 0.076053835 -0.08187219 -0.081276596 -0.08086465 0.048425317 0.049098887
-0.0010213569 -0.04548622 -0.037570056 -0.006924291 0.04502609 0.06301643 -0.0379247 0.014960188
-0.04445144 0.07882245 0.017766966 -0.037826147 -0.05508234 -0.07295432 0.0013605383 -0.072990865
-0.05587848 -0.04642562 -0.051249743 0.009054317 0.0027583768 -0.089618236 -0.035047676 -0.041968804
0.026873065 -0.07855883 0.06974389 0.04080819 -0.038599666 0.033247076 0.016204845 -0.06509363
0.0027864205 0.08724765 -0.03958803 0.015403226 -0.005101825 0.008805101 -0.01840564 0.05074854
0.030401813 0.09229355 -0.027565243 0.010910932 0.09012397 -0.020615729 0.05569747 -0.017646013
0.07435693 0.07768035 0.041109454 -0.058823127 -0.03992993 0.07378528 -0.051083542 -0.009900413
-0.026191445 0.0707802 -0.0035289756 0.06459091 -0.05184709 -0.07657063 0.006481262 0.013488097
-0.022480369 -0.0025387406 0.013939127 -0.03502537 0.010684238 -0.019837571 0.017068557 -0.0069211214
-0.017797899 0.0061961017 0.037156347 -0.02558679 -0.04154004 -0.015924057 0.07791034 0.04189859
-0.06642712 0.05511115 0.09393972 -0.066338256 0.0903245 -0.007034721 0.022610895 0.014213547
-0.053785626 0.033533145 -0.0072576553 0.03358643 -0.009303156 0.10822315 -0.0406678 -0.018253556
0.03997799 0.05876918 0.11000412 0.05940957 -0.007809227 -0.021157224 -0.081309214 -0.010046523
0.048021812 0.08456341 0.03330506 0.0073198033 0.022240056 0.02643553 0.003627715 -0.06340035
0.0355684 0.014657525 0.08678964 0.052533023 -0.08956023 -0.0230224 -0.06594918 0.038689952
0.04274219 -0.038636133 0.003659224 -0.026175186 -0.101352625 -0.10125991 -0.03278898 0.08556572
-0.04986003 -0.0702886 -0.04872658 -0.031974725 0.046976484 0.0056114905 -0.055115197 0.0009230959
0.0025091376 0.049669337 -0.09066746 -0.0052890754 0.08555172 0.102627814 -0.040675826 -0.024285264
-0.05572678 0.020985665 0.080227524 0.0031648385 0.060193565 0.072420225 0.015998768 -0.028497094
-0.10714711 -0.011108771 -0.016151782 0.09038279 0.0019728895 0.013475838 -0.029674869 0.008042597
-0.08529006 0.042186145 -0.00822384 -0.019797796 -0.08065543 -0.024450948 -0.012552312 -0.10272235
0.055931117 -0.0036007876 -0.039327838 0.062444326 -0.040223897 -0.1073629 -0.050139587 0.03538825
-0.05541671 -0.05443818 0.038767606 0.030053552 -0.09323759 -0.044621024 -0.035912298 0.035277255
00000000: e529 53bd 910b 95bd 2ae3 ccbc f50c 693d
00000010: f5ad 7c3d 5022 853d c10f 863d 1962 a7bd
00000020: b88c 5e3d 1b5e 91bd 0bc8 70bd 3ed2 c03d
00000030: bdb9 e53c 4e28 86bc d4e8 65bd 24b2 933d
00000040: 980e c73d 8ba3 8c3c bee1 973d ac93 23bd
00000050: e4c2 af3d 54cf 64bd 7c1d 4e3d fcd3 3b3d
00000060: 597f 03bd 5fac cf3d 2054 84bc 847a ab3d
00000070: 2d54 bf3a 663b b8bc ae09 ab3d 39c8 edbc
00000080: 8dca 483d abfd c63d 7865 b5bc 852f 37bd
00000090: 88c8 81bd a9bc 9f3c a0cc 313c b58e d43a
000000a0: 706d 473d 69cb f23c 02f6 b9bc c337 883d
000000b0: 4954 b73c 3465 923d 4ec6 40bc aabc 163c
000000c0: eade d9bc d95a 423d 5ded 47bd d82e 343d
000000d0: 4441 9ebd ded7 0b3d da08 fe3c f604 04bd
000000e0: 96be b4bd 002e abbd b852 92bd 1f1d 1f3b
000000f0: 885d fd3c 5e1c 4abd 60d2 81bd 71d8 993d
00000100: 53b9 943d fe52 96bc 1dc2 9b3d 9bac a7bd
00000110: 5874 a6bd 5e9c a5bd a059 463d ea1b 493d
00000120: 0ddf 85ba c24f 3abd 0fe3 19bd 2ae5 e2bb
00000130: 476d 383d c20e 813d ee56 1bbd 941b 753c
00000140: b712 36bd aa6d a13d 078c 913c 97ef 1abd
00000150: 059e 61bd 1369 95bd 1754 b23a 3c7c 95bd
00000160: d5e0 64bd ca28 3ebd 40eb 51bd 8f58 143c
00000170: e2c5 343b c489 b7bd 278e 0fbd 7be7 2bbd
00000180: e724 dc3c 74e3 a0bd e2d5 8e3d 7d26 273d
00000190: af1a 1ebd 162e 083d 06c0 843c cf4f 85bd
000001a0: 619c 363b e5ae b23d 0f27 22bd d05d 7c3c
000001b0: 362d a7bb 4543 103c 6dc7 96bc b3dd 4f3d
000001c0: 390d f93c 6704 bd3d 81d0 e1bc c4c3 323c
000001d0: ea92 b83d 51e2 a8bc 0823 643d 5f8e 90bc
000001e0: 7248 983d e016 9f3d 6362 283d 85f0 70bd
000001f0: 918d 23bd bd1c 973d fa3c 51bd 5835 22bc
00000200: 718f d6bc 36f5 903d 6346 67bb 3d48 843d
00000210: 9d5d 54bd 10d1 9cbd c460 d43b 2efd 5c3c
00000220: c028 b8bc 0061 26bb f060 643c c376 0fbd
00000230: f10c 2f3c 6782 a2bc 5cd3 8b3c 93ca e2bb
00000240: e6cc 91bc ab08 cb3b 4131 183d 639b d1bc
00000250: e425 2abd 2b73 82bc 758f 9f3d db9d 2b3d
00000260: f10a 88bd 3bbc 613d 7863 c03d 5adc 87bd
00000270: 0dfc b83d 8483 e6bb 7c3a b93c f0df 683c
00000280: 514e 5cbd 0d5a 093d a0d1 edbb ed91 093d
00000290: 446c 18bc 19a4 dd3d 4793 26bd 7b88 95bc
000002a0: f6bf 233d f4b7 703d d749 e13d 7357 733d
000002b0: 8be4 ffbb ea51 adbc 7285 a6bd 2c9a 24bc
000002c0: 85b2 443d 952f ad3d e36a 083d f6da ef3b
000002d0: c730 b63c 538f d83c f5be 6d3b 0bd8 81bd
000002e0: 2cb0 113d 1e26 703c c4be b13d de2c 573d
000002f0: 5b6b b7bd 7999 bcbc 5d10 87bd 5b79 1e3d
00000300: 6f12 2f3d ec40 1ebd 97cf 6f3b 586d d6bc
00000310: f791 cfbd 5b61 cfbd bd4d 06bd 153d af3d
00000320: 083a 4cbd 78f3 8fbd 8695 47bd eef7 02bd
00000330: 6a6a 403d 98e0 b73b 79c0 61bd ebfb 713a
00000340: 5870 243b 1372 4b3d dcaf b9bd fb4f adbb
00000350: bd35 af3d 882e d23d b29b 26bd e4f1 c6bc
00000360: c441 64bd 21ea ab3c 544e a43d 2e69 4f3b
00000370: 878d 763d 0e51 943d d90f 833c bd72 e9bc
00000380: f26f dbbd 9001 36bc be50 84bc 9d1a b93d
00000390: 984b 013b c3c9 5c3c b618 f3bc 19c5 033c
000003a0: 8eac aebd 61cb 2c3d 49bd 06bc fd2e a2bc
000003b0: ad2e a5bd 5b4d c8bc 36a8 4dbc 1860 d2bd
000003c0: 0718 653d 31fb 6bbb 3a16 21bd 9fc5 7f3d
000003d0: d0c1 24bd 15e1 dbbd 2b5f 4dbd 45f3 103d
000003e0: a2fc 62bd 92fa 5ebd c8ca 1e3d de32 f63c
000003f0: 59f3 bebd 89c4 36bd c618 13bd e27e 103d

k3_conv2.bias f4 [3]
-0.025491014 0.08650594 0.008910629
00000000: 88d2 d0bc 072a b13d e3fd 113c

k3_conv3.weight f4 [3, 6, 9, 9]
0.081273004 0.014165695 0.029268313 0.015146654 -0.041913234 0.017325219 0.05445455 0.041681
0.012519129 0.007706469 0.011017919 -0.02786109 -0.03387181 0.030030426 0.04864063 0.011169425
-0.026338952 0.027246037 0.0073999707 0.038120415 -0.029904176 0.011538662 -0.01549836 0.009777794
-0.019600894 0.022071784 0.010433379 -0.0004893703 0.03360068 -0.040526293 -0.016141865 -0.024045592
0.01840299 0.012894644 -0.021242116 0.028221318 0.046767227 0.012275796 -0.0017088227 -0.051384714
0.021362374 0.031419665 -0.00136089 -0.009927471 -0.03819494 -0.028137632 -0.031440314 0.02435207
-0.017518079 0.019092169 -0.019212553 0.049952354 -0.023516763 -0.042886402 0.010526373 0.030089756
-0.025009122 -0.04350126 -0.060934823 -0.009874544 0.046624422 -0.01925984 0.020125074 0.01381704
-0.027781632 -0.033164233 -0.01365736 -0.046689697 0.020376848 0.022751067 0.040303163 0.007469233
-0.016590789 0.017248288 0.014216876 -0.049286112 -0.0007026628 0.047103323 -0.011276576 -0.02967908
-0.013581958 0.035402738 0.049746264 -0.028156575 -0.021810262 0.022944007 0.023945399 0.039755236
0.057749603 0.065378435 -1.332598e-05 0.009504673 0.035399616 -0.035924226 -0.02021945 -0.02374494
0.0019826808 0.0239781 -0.026979644 0.060391083 -0.01037212 0.034709428 -0.007873025 -0.017436419
0.012954084 0.046945862 -0.00094056746 0.01918007 0.032247446 0.010200962 0.02384339 -0.029504547
0.031850573 0.020229107 0.015715152 -0.013897648 0.044517953 -0.020559637 0.009229841 0.017521396
0.022630122 0.027438786 0.0067106592 0.037929993 -0.024503993 0.010841071 0.036720026 0.049508408
0.0114631215 -0.0028868262 -0.030822976 -0.039462745 0.034949902 0.048473433 -0.025907136 0.006620507
-0.0055091837 -0.0014946497 -0.022425901 -0.014450372 -0.015071782 -0.009827942 0.030263184 0.02759914
0.0051825983 0.011301684 -0.0019856172 0.0034389803 -0.03039961 0.0109201465 0.007752377 0.048331596
0.008122117 0.0029270165 -6.430726e-05 -0.038175046 -0.037476048 0.026459094 0.04412454 0.014072267
0.040837377 0.026780283 0.010119334 0.016524326 -0.014825138 0.011780856 0.02380771 0.018977439
-0.016228182 0.010477377 0.018227343 -0.016050305 0.024911795 -0.0021688924 -0.041417506 -0.041247103
0.040292338 0.04511973 0.021712972 0.019451393 0.008895074 0.0072017666 0.019301534 -0.03602025
-0.024074178 -0.020873353 -0.010572366 -0.023337971 0.03086366 -0.00012187296 -0.0356275 -0.03353795
-0.048035696 0.04054667 0.007816271 -0.024603084 -0.014275666 0.011406544 -0.016775738 -0.017945813
0.034474727 -0.028075427 0.041911643 0.042637046 0.022135824 -0.013833468 0.003655952 -0.021995608
0.03346206 0.020458557 -0.029558783 0.002179318 -0.013955418 0.024992641 0.016151598 -0.0061504426
-0.014095142 -0.020282378 -0.041988846 0.0014855543 -0.007826433 0.029704379 -0.024277616 0.02455217
-0.025782984 -0.015809527 0.050221104 0.027800405 0.020237805 0.04412247 -0.025207292 0.0029535908
0.039695673 -0.0052389903 -0.012699613 -0.018837398 0.026442993 -0.059527654 -0.004820567 -0.02286085
-0.015123568 0.009384562 0.04058423 0.022461906 0.041917313 0.01222459 0.0070370324 0.0014799506
-0.03734522 -0.06391897 0.04219565 -0.018448034 0.008988685 0.002787455 -0.042011824 0.0021069192
00000000: 7672 a63d 3b17 683c 1ac4 ef3c ac29 783c
00000010: 36ad 2bbd 9eed 8d3c bc0b 5f3d b2b9 2a3d
00000020: 081d 4d3c 8c86 fc3b 8084 343c f13c e4bc
00000030: 2bbd 0abd 5e02 f63c 663b 473d f7ff 363c
00000040: c9c4 d7bc 1533 df3c 747b f23b 2724 1c3d
00000050: 9af9 f4bc a80c 3d3c d5ec 7dbc 0a33 203c
00000060: 0e92 a0bc e3cf b43c c3f0 2a3c 1649 00ba
00000070: dea0 093d e6fe 25bd f23b 84bc 43fb c4bc
00000080: dec1 963c 0f44 533c f203 aebc 6530 e73c
00000090: fe8e 3f3d 6c20 493c 93fa dfba c778 52bd
000000a0: 2500 af3c e8b1 003d e45f b2ba d5a6 22bc
000000b0: 4c72 1cbd e480 e6bc 8fc7 00bd fe7d c73c
000000c0: 1382 8fbc 2e67 9c3c a563 9dbc d79a 4c3d
000000d0: 3aa6 c0bc a7a9 2fbd cf76 2c3c cb7e f63c
000000e0: eedf ccbc 612e 32bd cb96 79bd d7c8 21bc
000000f0: 40f9 3e3d d0c6 9dbc 57dd a43c de60 623c
00000100: 4e96 e3bc 38d7 07bd 1fc3 5fbc b23d 3fbd
00000110: 59ed a63c 7260 ba3c ee14 253d 78c0 f43b
00000120: 68e9 87bc 484c 8d3c e6ed 683c 3ce0 49bd
00000130: e732 38ba 6aef 403d 63c1 38bc 8b21 f3bc
00000140: dc86 5ebc 7602 113d bdc2 4b3d 9ea8 e6bc
00000150: 6fab b2bc 12f5 bb3c 2429 c43c 63d6 223d
00000160: d98a 6c3d 21e5 853d a692 5fb7 7db9 1b3c
00000170: 30ff 103d 4825 13bd 43a3 a5bc c084 c2bc
00000180: ddef 013b b86d c43c 6a04 ddbc a45c 773d
00000190: d3ef 29bc 792b 0e3d dcfd 00bc d2d6 8ebc
000001a0: 5e3d 543c 4e4a 403d 6a90 76ba 861f 9d3c
000001b0: e615 043d f021 273c 3753 c33c 85b3 f1bc
000001c0: bf75 023d 83b7 a53c 10bd 803c f6b2 63bc
000001d0: 7558 363d af6c a8bc c238 173c 0889 8f3c
000001e0: ce62 b93c 4ec7 e03c 17e5 db3b 7b5c 1b3d
000001f0: 99bc c8bc bf9e 313c bd67 163d 54c9 4a3d
00000200: d1cf 3b3c e830 3dbb 7780 fcbc b0a3 21bd
00000210: a127 0f3d 148c 463d 343b d4bc d7f0 d83b
00000220: 6286 b4bb 1fe8 c3ba 86b6 b7bc 41c1 6cbc
00000230: a3ef 76bc 6005 21bc 7fea f73c 9717 e23c
00000240: c9d2 a93b b32a 393c 2121 02bb 8460 613b
00000250: 9a08 f9bc 6aea 323c a707 fe3b 5af7 453d
00000260: a112 053c 30d3 3f3b b3dc 86b8 705d 1cbd
00000270: 7c80 19bd bec0 d83c efbb 343d 5e8f 663c
00000280: 1845 273d 5362 db3c 90cb 253c 065e 873c
00000290: 23e5 72bc 7e04 413c 6308 c33c 9376 9b3c
000002a0: f7f0 84bc 4ea9 2b3c 8251 953c ee7b 83bc
000002b0: d213 cc3c fa23 0ebb 67a5 29bd b9f2 28bd
000002c0: 9409 253d 77cf 383d 67df b13c 8758 9f3c
000002d0: a5bc 113c ccfc eb3b 401e 9e3c f889 13bd
000002e0: 3637 c5bc 98fe aabc b837 2dbc 462f bfbc
000002f0: c9d5 fc3c 0c96 ffb8 24ee 11bd 175f 09bd
00000300: 14c1 44bd 4414 263d d10f 003c 688c c9bc
00000310: 7ce4 69bc 83e2 3a3c 466d 89bc 1903 93bc
00000320: 5f35 0d3d 70fe e5bc 8bab 2b3d 2fa4 2e3d
00000330: 3056 b53c c5a5 62bc b298 6f3b 2230 b4bc
00000340: 830f 093d b498 a73c 4325 f2bc e4d2 0e3b
00000350: 44a5 64bc 5ebd cc3c 5b50 843c a789 c9bb
00000360: 4fef 66bc 3b27 a6bc 7ffc 2bbd eeb6 c23a
00000370: 703a 00bc 9956 f33c dae1 c6bc a221 c93c
00000380: d636 d3bc fb82 81bc a5b4 4d3d adbd e33c
00000390: c1c9 a53c c3b9 343d 867f cebc 0891 413b
000003a0: ee97 223d d6ab abbb 0a12 50bc e350 9abc
000003b0: fa9e d83c 45d3 73bd d9f5 9dbb ad46 bbbc
000003c0: d7c8 77bc b5c1 193c a63b 263d 0802 b83c
000003d0: 7db1 2b3d a649 483c e896 e63b e7fa c13a
000003e0: 4df7 18bd f3e7 82bd 59d5 2c3d 5520 97bc
000003f0: 4745 133c bcad 363b 9714 2cbd 3d14 0a3b

k3_conv3.bias f4 [3]
0.011839995 0.014543895 0.06875822
00000000: 8afc 413c 8449 6e3c 1cd1 8c3d

fusion_conv.weight f4 [3, 9, 3, 3]
0.12602845 0.046778705 0.13589635 0.04032898 0.037791256 0.02013772 -0.0002462814 -0.045850728
0.10562946 0.08871408 -0.066406325 0.13961838 0.039794516 0.010711519 -0.0035984227 0.016175415
0.097288124 0.056958586 -0.0679744 -0.09287905 -0.07135972 -0.22769283 -0.123284325 -0.004149569
-0.13889264 -0.15382232 -0.05001518 0.25485268 0.46281755 0.17329183 0.41677955 0.64207286
0.24065809 -0.07928527 0.33565053 -0.06669319 0.016453227 0.05693771 0.14927371 0.17435011
0.02893054 0.19773538 0.08654739 0.035691474 0.20450482 0.061089154 -0.0024143707 0.020392051
-0.009299005 -0.019793166 0.14717498 0.085226744 0.09980485 -0.019687247 -0.013280084 0.077555515
0.0112443175 0.0568428 0.15111768 -0.019547999 -0.041927483 0.09654606 -0.029561594 0.00887164
-0.028982308 -0.08493348 0.08646694 0.031037094 0.072802395 0.09955868 0.0755431 0.0403357
-0.058826745 -0.01073569 -0.045545686 -0.009113585 -0.016394584 -0.061848525 -0.010537449 0.06437596
0.021307072 0.019861227 0.041338913 0.03831694 -0.03420249 0.010435627 0.11292011 0.10552847
0.06877299 0.014581463 0.12642322 0.041318737 0.09411048 -0.03603986 0.05748144 0.023136014
0.019037029 0.019521296 0.054394454 -0.20351505 -0.028569844 -0.027430367 -0.1875329 -0.098826535
0.038918626 -0.07959725 -0.09509692 -0.10243953 0.20639944 0.40118456 0.17406848 0.268443
0.66892475 0.20281723 -0.011381847 0.30524608 -0.07462382 0.08986348 0.0076433313 0.05139046
0.05934939 0.0655092 0.21488981 0.020634852 0.14074016 0.1835646 0.06790686 0.091205716
0.058595207 0.12046023 0.036718715 -0.028695745 -0.021140559 0.0001060077 0.08555277 0.052941374
0.123914346 0.0064647254 0.081214994 0.11611043 0.02704472 -0.0853598 0.048425663 -0.0043988912
-0.0063047074 0.09439901 -0.077990524 0.029726231 0.013604749 -0.036780316 0.09468979 0.04937942
0.10497271 -0.10671188 0.03736705 -0.01851706 0.03617931 0.061967526 -0.016844712 0.023189973
-0.02953992 -0.040148422 -0.028671047 0.15992124 0.1347624 -0.006940795 0.11023724 0.12005715
-0.009424135 -0.033715427 0.038519964 -0.021328129 -0.060603052 0.087773696 0.034014788 -0.03891132
0.13643149 0.06289055 0.027926786 -0.038343057 -0.2650134 -0.23803854 -0.10538263 -0.26045173
-0.036484726 -0.02006278 -0.19691283 -0.056542907 -0.11312836 0.2528062 0.55446273 0.2272025
0.18583333 0.59170115 0.1758083 -0.09190013 0.4137396 -0.12095594 0.03297168 0.0026711952
0.031472456 0.14332755 0.07042358 0.28444895 0.12838179 0.084886126 0.08632853 0.009109031
0.09593916 0.112731375 0.103555076 0.12507758 -0.034181703 0.121686704 -0.032326397 -0.019314196
0.09639061 0.03152547 0.0046710954 0.06004823 0.06522986 0.092020534 -0.0753794 0.04332293
0.15888858 -0.074760824 0.011956673 0.08845087 0.1172761 0.066122495 0.07584036 -0.0037801838
0.014346057 -0.06661874 0.045195457 0.012560184 -0.12628034 0.08217221 0.050981086 -0.015965167
-0.04828481 0.049487412 0.0839217
00000000: 9a0d 013e 079b 3f3d 6a28 0b3e 0030 253d
00000010: 01cb 1a3d dcf7 a43c 541f 81b9 f9cd 3bbd
00000020: 4254 d83d baaf b53d 0a00 88bd 1ff8 0e3e
00000030: 93ff 223d 5e7f 2f3c 84d3 6bbb 4e82 843c
00000040: ff3e c73d 684d 693d 2a36 8bbd 5f37 bebd
00000050: 0b25 92bd 4f28 69be 7e7c fcbd 1cf9 87bb
00000060: df39 0ebe 9983 1dbe b8dc 4cbd 0d7c 823e
00000070: 6cf6 ec3e 6a73 313e 2164 d53e e35e 243f
00000080: 136f 763e 5160 a2bd 63da ab3e 7096 88bd
00000090: ebc8 863c 8437 693d 35db 183e d688 323e
000000a0: bdff ec3c 257b 4a3e c23f b13d 3931 123d
000000b0: b669 513e 9f38 7a3d 6b3a 1ebb 3b0d a73c
000000c0: db5a 18bc 4725 a2bc 0ab5 163e 5c8b ae3d
000000d0: 7c66 cc3d 2647 a1bc b694 59bc 6dd5 9e3d
000000e0: 163a 383c ffd3 683d 98be 1a3e 2023 a0bc
000000f0: 27bc 2bbd f1b9 c53d 282b f2bc 5b5a 113c
00000100: 4e6c edbc 9bf1 adbd 9415 b13d 8141 fe3c
00000110: 6c19 953d 6ce5 cb3d 57b6 9a3d 0c37 253d
00000120: 50f4 70bd bfe4 2fbc 1d8e 3abd 2551 15bc
00000130: ef4d 86bc e154 7dbd 44a5 2cbc 8bd7 833d
00000140: 2b8c ae3c 03b4 a23c fe52 293d 39f2 1c3d
00000150: e917 0cbd 31fa 2a3c a942 e73d 4f1f d83d
00000160: dad8 8c3d 17e7 6e3c 1775 013e d63d 293d
00000170: ffbc c03d 889e 13bd a971 6b3d bd87 bd3c
00000180: 8bf3 9b3c 20eb 9f3c b8cc 5e3d 4066 50be
00000190: 4e0b eabc a6b5 e0bc a008 40be 9165 cabd
000001a0: 2369 1f3d e203 a3bd 2dc2 c2bd d1cb d1bd
000001b0: 605a 533e 1068 cd3e 023f 323e 5c71 893e
000001c0: a73e 2b3f 52af 4f3e ed7a 3abc 3749 9c3e
000001d0: 60d4 98bd 580a b83d e974 fa3b ce7e 523d
000001e0: 5918 733d b029 863d 130c 5c3e 6c0a a93c
000001f0: 301e 103e 5cf8 3b3e c012 8b3d 10ca ba3d
00000200: 8701 703d dab3 f63d 5d66 163d 5713 ebbc
00000210: f72e adbc 7350 de38 4a36 af3d 0ed9 583d
00000220: cec6 fd3d 0cd6 d33b 0c54 a63d 4ecb ed3d
00000230: e38c dd3c 1ed1 aebd fd59 463d 9324 90bb
00000240: b897 cebb 4554 c13d 7fb9 9fbd 6d84 f33c
00000250: 74e6 5e3c f5a6 16bd b8ec c13d 1342 4a3d
00000260: effb d63d c28b dabd 310e 193d 17b1 97bc
00000270: c230 143d a9d1 7d3d ecfd 89bc e6f8 bd3c
00000280: b4fd f1bc ac72 24bd 8bdf eabc 65c2 233e
00000290: 28ff 093e 9c6f e3bb 10c4 e13d 86e0 f53d
000002a0: b067 1abc 3019 0abd 1cc7 1d3d 54b8 aebc
000002b0: e83a 78bd b2c2 b33d 1753 0b3d 7a61 1fbd
000002c0: b2b4 0b3e c3cc 803d b7c6 e43c 9c0d 1dbd
000002d0: d6af 87be 60c0 73be d9d2 d7bd ee59 85be
000002e0: 0271 15bd b35a a4bc 84a3 49be 8999 67bd
000002f0: d7af e7bd d06f 813e 45f1 0d3f c6a7 683e
00000300: 184b 3e3e ba79 173f 1707 343e 2336 bcbd
00000310: add5 d33e bfb7 f7bd 500d 073d 380f 2f3b
00000320: 43e9 003d 75c4 123e 3d3a 903d 4ba3 913e
00000330: 8476 033e c7d8 ad3d 03cd b03d 0c3e 153c
00000340: c07b c43d b5df e63d af14 d43d 5614 003e
00000350: 1d02 0cbd e136 f93d af68 04bd ce38 9ebc
00000360: 7168 c53d da20 013d fd0f 993b 22f5 753d
00000370: 3c97 853d 4375 bc3d 8460 9abd 6273 313d
00000380: b0b3 223e 341c 99bd ece5 433c bb25 b53d
00000390: 742e f03d 3b6b 873d 3152 9b3d f6bc 77bb
000003a0: b90b 6b3c 686f 88bd df1e 393d 3bc9 4d3c
000003b0: a24f 01be e749 a83d 8bd1 503d 62c9 82bc
000003c0: 4bc6 45bd 50b3 4a3d 24df ab3d

fusion_conv.bias f4 [3]
0.14282975 0.12691149 0.07189934
00000000: f641 123e 16f5 013e f63f 933d
